ckpt/ppo_ep500.pt (torch, 151697 bytes, 12 tensors)

log_std f4 [8]
0.005798837 0.006783604 0.012505222 0.00081433664 0.0011610894 -0.004145796 0.0052355626 -0.006449542
00000000: 2c04 be3b ff48 de3b b4e2 4c3c 3579 553a
00000010: b22f 983a 75d9 87bb 158f ab3b ae56 d3bb

pi_body.0.weight f4 [128, 9]
0.25192168 0.2826878 -0.077269346 0.3060171 -0.074953645 0.0741942 -0.16210139 0.19892398
0.2956023 -0.25936276 0.27263343 0.053081125 0.2346302 0.03150293 0.14108509 -0.059738584
0.23618926 0.031302508 -0.1556133 0.08098475 -0.15357888 -0.04117934 -0.13538611 0.21808048
-0.2631234 -0.15367012 -0.09734787 -0.20807262 0.020345517 -0.33062056 0.29647252 -0.29728836
0.24772118 0.049452595 -0.10890727 0.19779041 0.04754889 0.2594786 0.03307401 -0.107602105
0.07915845 -0.09101798 0.14614002 0.2938652 0.18851179 -0.1517117 0.19143173 0.05413062
0.16699181 -0.20986347 -0.3330226 -0.13060911 -0.25470564 0.27007023 0.09739402 0.14301597
0.10245657 -0.0063650487 0.2608648 -0.23530512 0.021104863 -0.22455594 0.10387059 -0.11217476
0.10344558 -0.078866094 0.27412564 -0.18991497 -0.20128989 -0.19971031 0.29742056 0.110296145
0.31575695 -0.27880394 -0.3465357 -0.26310948 -0.22884144 0.12490444 0.111888744 0.26623663
-0.18065067 -0.22057998 0.18871325 -0.12809809 0.20904596 -0.06447887 0.20231321 -0.25122133
-0.1549872 0.11355118 0.063777424 -0.09924589 0.192843 0.22269775 -0.24471942 -0.1880033
0.30201447 -0.119293764 -0.12576413 -0.3244617 -0.18233475 0.084041305 -0.051472187 -0.24958001
0.008089565 -0.22092597 -0.282171 -0.18223225 -0.29135072 -0.2107201 0.32603633 0.059799157
0.099109605 -0.30630985 -0.22156732 -0.11942296 0.046515718 -0.2962553 -0.14112166 -0.19470434
0.003938627 -0.12095372 -0.02307662 -0.22659668 -0.22561486 -0.19220744 -0.11719897 -0.26960868
0.27055702 -0.07104778 0.27964792 0.10358119 -0.28595972 0.22364998 -0.09846572 -0.1333045
-0.27813843 -0.33796775 0.09171898 -0.07529971 0.12391552 -0.2740804 0.24513087 -0.24896407
-0.05516162 0.07038156 0.17077288 0.26908606 0.30622512 -0.26092437 0.088880815 -0.14803508
-0.03534367 -0.23295082 0.31753838 -0.23820105 0.18653294 0.13053177 0.12772013 -0.17073417
0.31115863 0.0868948 0.036573246 -0.29592875 0.13519147 -0.045618687 -0.15056528 0.2807884
0.06847201 -0.1988139 -0.17318666 0.004165672 0.20611244 -0.06546038 -0.18051802 -0.0969356
-0.2308091 0.13741273 0.27857947 -0.2913739 0.06407946 0.15739758 0.052603286 -0.12895288
0.16263132 0.1642994 0.111755885 -0.07243239 -0.10230448 0.026208172 -0.07240109 -0.09719074
0.20637515 0.27438357 -0.04239498 -0.07898603 -0.0021601368 -0.028822953 0.074889086 0.0851854
-0.30564815 -0.12709914 0.2716821 0.12305896 -0.017282436 -0.21312748 -0.21080585 -0.29598352
-0.11016081 0.11589631 0.20819332 0.15474229 -0.29126257 -0.19435297 -0.06092011 0.32315773
0.044580508 -0.08775834 0.13714883 -0.12950803 -0.22192715 0.23462676 -0.16563493 -0.07135341
-0.33747104 0.23166679 0.25721177 0.12481795 -0.2259751 -0.32206994 -0.25712252 0.26181152
0.16650929 0.289746 0.19013353 0.09707965 -0.0031438738 -0.24413823 -0.27337706 -0.30489132
0.14471245 -0.15797049 -0.05647341 -0.18454593 -0.06376446 -0.23267871 -0.22006068 0.10935916
-0.097027004 0.2058657 -0.10810939 -0.24466862 -0.057222478 -0.15402164 -0.0968666 -0.31571725
00000000: e1fb 803e 75bc 903e 643f 9ebd 46ae 9c3e
00000010: 4c81 99bd 21f3 973d e8fd 25be bab2 4b3e
00000020: 2f59 973e 32cb 84be 9c96 8b3e 986b 593d
00000030: e642 703e 3709 013d 9c78 103e 72b0 74bd
00000040: 99db 713e 0f37 003d 1859 1fbe 55db a53d
00000050: c843 1dbe abab 28bd a8a2 0abe 7d50 5f3e
00000060: 1cb8 86be b35b 1dbe 525e c7bd fd10 55be
00000070: a4ab a63c 1947 a9be 3fcb 973e 2e36 98be
00000080: 9faa 7d3e ce8e 4a3d c60a dfbd 9289 4a3e
00000090: a0c2 423d 61da 843e 9d78 073d 7e5e dcbd
000000a0: d31d a23d a267 babd bba5 153e 8075 963e
000000b0: 3c09 413e 505a 1bbe ae06 443e 12b8 5d3d
000000c0: e7ff 2a3e 73e6 56be f081 aabe 65be 05be
000000d0: c768 82be a546 8a3e 8476 c73d c772 123e
000000e0: c0d4 d13d e691 d0bb 1290 853e d3f3 70be
000000f0: 1be4 ac3c fef1 65be 1bba d43d e1bb e5bd
00000100: 47db d33d 8c84 a1bd 325a 8c3e 1279 42be
00000110: f01e 4ebe dc80 4cbe 8247 983e f2e2 e13d
00000120: e5aa a13e 64bf 8ebe 216d b1be 49b6 86be
00000130: 6955 6abe e6cd ff3d ed25 e53d 2b50 883e
00000140: 7dfc 38be b8df 61be 0c3e 413e 252c 03be
00000150: 2510 563e 7f0d 84bd 322b 4f3e 15a0 80be
00000160: f7b4 1ebe 858d e83d bd9d 823d 6e41 cbbd
00000170: a378 453e e10a 643e ba97 7abe f083 40be
00000180: a4a1 9a3e 4a50 f4bd 50c8 00be d81f a6be
00000190: f6b5 3abe d91d ac3d 80d4 52bd e791 7fbe
000001a0: 188a 043c 6b3a 62be b878 90be 179b 3abe
000001b0: ec2b 95be 03c7 57be 3cee a63e f6ef 743d
000001c0: faf9 ca3d a5d4 9cbe 8be2 62be 0694 f4bd
000001d0: 4487 3e3d c6ae 97be 3282 10be 9360 47be
000001e0: 990f 813b 95b6 f7bd 2e0b bdbc f608 68be
000001f0: 9507 67be 07d2 44be 0306 f0bd 260a 8abe
00000200: 7386 8a3e 8081 91bd 032e 8f3e 6022 d43d
00000210: 5069 92be 8004 653e 65a8 c9bd fa80 08be
00000220: 2968 8ebe 1c0a adbe 29d7 bb3d bc36 9abd
00000230: 6cc7 fd3d 4454 8cbe 9603 7b3e 70f0 7ebe
00000240: 27f1 61bd 3524 903d 16df 2e3e a6c5 893e
00000250: 8ac9 9c3e e197 85be 2507 b63d 8296 17be
00000260: 86c4 10bd a98a 6ebe 6494 a23e faea 73be
00000270: 7e02 3f3e 1faa 053e 11c9 023e f0d4 2ebe
00000280: 2f50 9f3e e7f5 b13d d4cd 153d f983 97be
00000290: a26f 0a3e a9da 3abd c92d 1abe 7fc3 8f3e
000002a0: 0e3b 8c3d df95 4bbe d857 31be 3180 883b
000002b0: 240f 533e 1710 86bd b7d9 38be 2c86 c6bd
000002c0: 3959 6cbe ecb5 0c3e f8a1 8e3e f62e 95be
000002d0: 183c 833d d52c 213e 8b76 573d 390c 04be
000002e0: d388 263e 1a3e 283e 45e0 e43d 6f57 94bd
000002f0: 0385 d1bd 85b2 d63c 0647 94bd f00b c7bd
00000300: 0254 533e 017c 8c3e 5ca6 2dbd 6dc3 a1bd
00000310: 1591 0dbb 1d1e ecbc 735f 993d af75 ae3d
00000320: ea7d 9cbe 4726 02be eb19 8b3e 5606 fc3d
00000330: e593 8dbc 173e 5abe 7ddd 57be 278b 97be
00000340: fe9b e1bd 0b5b ed3d a130 553e c374 1e3e
00000350: 5e20 95be 7704 47be 5e87 79bd ee74 a53e
00000360: 0d9a 363d a5ba b3bd be70 0c3e c19d 04be
00000370: df40 63be ff41 703e 349c 29be bd21 92bd
00000380: 01c9 acbe 0f3a 6d3e 43b1 833e 8ea0 ff3d
00000390: 0466 67be 5ae6 a4be 90a5 83be 290c 863e
000003a0: 6981 2a3e 9659 943e 5db2 423e b2d1 c63d
000003b0: 7309 4ebb 5fff 79be 14f8 8bbe b71a 9cbe
000003c0: 802f 143e 04c3 21be aa50 67bd 9cf9 3cbe
000003d0: f196 82bd 5443 6ebe 9657 61be b2f7 df3d
000003e0: 18b6 c6bd 75ce 523e 7568 ddbd 698a 7abe
000003f0: 1e62 6abd d9b7 1dbe ff61 c6bd b1a5 a1be

pi_body.0.bias f4 [128]
0.10114303 0.04428909 -0.19913858 0.043785237 0.31760317 0.22831017 -0.25814158 0.30357385
0.016473737 0.17272924 0.2518212 0.28773114 -0.266453 0.29356575 -0.23314221 0.018460311
-0.23040421 -0.05909015 -0.017486451 -0.018886618 -0.06524208 0.019316379 0.32172602 0.19485357
0.18280679 0.14330073 0.26740244 -0.015279786 0.034053635 0.06677192 -0.29716077 -0.26851898
0.041758645 -0.13041675 -0.013822531 -0.076227404 0.049359884 0.21121657 -0.113081604 0.26981866
0.26021188 -0.2560416 -0.2457371 -0.2799438 -0.18858068 -0.12817219 -0.019387277 -0.0735218
-0.16488034 -0.097651474 -0.12281835 0.33682615 -0.11024555 -0.23866698 0.13851163 -0.019502638
0.26251873 0.1973982 0.30967286 -0.2434801 0.21764405 0.27411923 -0.15953982 0.30577177
0.25160176 0.00037921054 0.16809672 -0.11226236 -0.2934759 0.08309415 0.09592291 -0.22225447
0.15152802 -0.29310298 0.2861341 0.32485154 0.07881051 -0.19565077 0.15821828 0.045906175
0.093243666 0.10794733 0.26569247 -0.15439413 -0.08166335 0.10662469 0.029573487 0.2711387
-0.17558973 -0.007914171 0.0650049 -0.086046495 0.2389822 0.03732848 -0.30485886 -0.033077404
-0.15170784 0.027312335 -0.046677552 -0.33064473 -0.052511215 -0.035857607 -0.10058861 0.31142431
-0.07116473 0.22030357 0.08593416 -0.27969053 0.08625869 0.27042383 -0.20930952 -0.21545832
0.3086162 0.2727432 -0.17742449 0.21359614 -0.047196973 -0.32904813 0.009842875 0.112272024
-0.08871997 0.12694116 -0.2928416 0.23220202 0.286288 0.17486402 0.056502935 0.12687911
00000000: 1424 cf3d 7a68 353d fcea 4bbe 2658 333d
00000010: e29c a23e 24ca 693e 222b 84be 086e 9b3e
00000020: eef3 863c efdf 303e b5ee 803e 7f51 933e
00000030: 876c 88be 404e 963e d5bc 6ebe 143a 973c
00000040: 15ef 6bbe 8308 72bd bf3f 8fbc 1cb8 9abc
00000050: a49d 85bd 623d 9e3c 46b9 a43e b287 473e
00000060: b431 3b3e 6dbd 123e f9e8 883e 1158 7abc
00000070: d37b 0b3d b7bf 883d 7525 98be 527b 89be
00000080: 1d0b 2b3d f88b 05be e677 62bc 1d1d 9cbd
00000090: 972d 4a3d 2849 583e 5497 e7bd ac25 8a3e
000000a0: 7e3a 853e e217 83be 82a2 7bbe cb54 8fbe
000000b0: 4b1b 41be 923f 03be 11d2 9ebc 9992 96bd
000000c0: 64d6 28be 7ffd c7bd 3088 fbbd 7a74 ac3e
000000d0: 6bc8 e1bd 1e65 74be fed5 0d3e ffc3 9fbc
000000e0: db68 863e c122 4a3e 718d 9e3e d952 79be
000000f0: 15de 5e3e 5b59 8c3e 685e 23be 1e8e 9c3e
00000100: f2d1 803e c7d0 c639 8c21 2c3e cfe9 e5bd
00000110: 7942 96be 442d aa3d 3b73 c43d ad96 63be
00000120: 292a 1b3e 9811 96be 2b80 923e f152 a63e
00000130: 6867 a13d ad58 48be f903 223e 1d08 3c3d
00000140: 89f6 be3d 7d13 dd3d d808 883e 7f19 1ebe
00000150: 1d3f a7bd 0c5e da3d 1944 f23c b1d2 8a3e
00000160: cbcd 33be 70aa 01bc 4a21 853d 2539 b0bd
00000170: c0b7 743e c0e5 183d 7616 9cbe 2c7c 07bd
00000180: 4d59 1bbe 1ebe df3c f630 3fbd 444a a9be
00000190: 0016 57bd 6ddf 12bd 6701 cebd 0273 9f3e
000001a0: d0be 91bd 4297 613e 40fe af3d 9933 8fbe
000001b0: 65a8 b03d fe74 8a3e 3c55 56be 1ba1 5cbe
000001c0: f102 9e3e ffa4 8b3e c4ae 35be f2b8 5a3e
000001d0: 9d51 41bd ff78 a8be 0344 213c e0ee e53d
000001e0: d1b2 b5bd ddfc 013e 56ef 95be 5ec6 6d3e
000001f0: 5794 923e 8e0f 333e 9f6f 673d 99ec 013e

pi_body.2.weight f4 [128, 128]
-0.06692196 -0.027691312 -0.00843822 -0.052586246 -0.06819756 0.06052997 0.05951157 -0.08325053
0.02990865 0.03299687 0.08388497 0.051137403 0.08125865 -0.028937435 0.056456573 0.0718952
-0.085673615 -0.073341176 0.017721212 0.042216424 -0.04707904 0.006592324 0.0013937078 0.017173868
-0.041453958 0.04822708 0.06277702 -0.061328985 -0.0021526522 0.00024524197 0.02486969 0.08234121
0.037151728 -0.020083774 0.072646566 -0.036841623 -0.023580054 0.005526508 -0.06730851 0.007979329
-0.06274724 0.0050167586 0.0064113867 0.012234777 -0.0745375 -0.083949864 0.047922336 0.07480278
-0.07843338 0.03053515 -0.07426262 0.013008895 0.078802854 0.067053095 -0.06715265 0.052478515
0.051636733 -0.0031395264 0.08314086 -0.04149879 -0.024774052 -0.047393665 0.011476019 0.029773047
0.0033140704 -0.048639763 -0.04550993 0.027847262 -0.08107671 -0.010309744 -0.0019579423 -0.035811767
0.02906986 -0.0004919924 0.06029065 -0.0068394067 -0.05870508 0.05939057 0.008871717 -0.03154434
-0.055291325 0.019510388 -0.08674384 0.017711747 0.04370315 -0.07659178 -0.05786541 -0.063522264
0.07134793 0.07586403 0.0011145473 0.0812809 -0.027832918 -0.08580937 0.026610922 0.026750125
0.081334636 -0.0040095663 0.06309794 0.054178856 0.06174883 -0.089946 0.07027382 -0.071867116
0.079241134 -0.0049758144 -0.0826014 0.022078486 -0.020580765 -0.081155516 -0.03258212 0.009113297
0.069439314 -0.028171442 0.054407798 0.009845364 0.0035450112 0.016912665 -0.060842834 -0.07131103
-0.028266774 -0.08438001 -0.043353885 0.0046021584 -0.059224904 -0.03943453 -0.014739261 -0.010182636
-0.050205223 0.00529066 -0.01240623 0.019004397 0.003841802 -0.036525305 -0.031220743 0.00033093928
-0.05999731 0.00945246 0.0027377747 0.04398963 0.017434785 0.062681265 -0.015571945 -0.07058361
0.054274425 -0.065248534 -0.008290246 -0.039966226 -0.035171483 -0.028565936 0.079200506 0.059358828
0.02323313 0.0826498 -0.08568831 0.01821126 0.05751423 0.06303512 -0.07275356 0.03145649
-0.061010208 -0.0034536708 -0.022768578 -0.07450994 -0.08772335 -0.06254086 0.042832654 0.038812462
-0.06778797 -0.04007842 -0.002020093 -0.0805267 0.052414004 0.08170623 0.010238589 -0.0746513
0.02555252 0.038089596 0.06778854 -0.039551727 -0.08010183 0.038833473 0.009838761 -0.030115811
-0.043633107 -0.046039507 0.071389645 0.005050958 0.06607314 0.07902156 0.011398185 0.013352242
-0.007533674 0.071738474 -0.082576595 0.020867262 -0.020289134 0.04160046 -0.0067870244 -0.04258551
-0.008589115 0.049501047 -0.061235055 -0.058896482 -0.03225649 -0.028253468 0.027481942 0.05350628
0.007518945 0.08146047 -0.03682936 -0.047573753 -0.03957094 -0.062915295 -0.055532757 -0.07221179
-0.083988115 0.02462702 0.057560924 0.07869991 0.07685018 -0.005090612 0.020718552 -0.053551275
0.03633067 -0.08454858 0.044229526 0.016211795 0.021517897 0.039489336 -0.047789723 0.08240068
0.04218356 0.054035347 0.0080721555 0.054478914 0.06089067 0.039338257 0.067552954 -0.016031692
0.05389081 0.0151370615 0.056264646 0.08721106 0.041528273 -0.032806832 -0.009996152 0.022567512
0.004924518 -0.02249722 0.051640403 0.05770938 -0.0494165 0.0020758903 -0.00024585807 -0.046456594
00000000: 610e 89bd e4d8 e2bc 7640 0abc ad64 57bd
00000010: 2aab 8bbd 46ee 773d 67c2 733d 417f aabd
00000020: fc02 f53c ba27 073d e2cb ab3d 7475 513d
00000030: ef6a a63d 330e edbc 023f 673d ca3d 933d
00000040: a675 afbd e633 96bd 132c 913c 21eb 2c3d
00000050: f4d5 40bd 6c04 d83b 13ad b63a 36b0 8c3c
00000060: a0cb 29bd c289 453d 3d91 803d 1a34 7bbd
00000070: 8313 0dbb d293 8039 85bb cb3c 82a2 a83d
00000080: 692c 183d ba86 a4bc b9c7 943d 3ee7 16bd
00000090: f52a c1bc b617 b53b 0bd9 89bd bbbb 023c
000000a0: a081 80bd 9f63 a43b 9c16 d23b 6074 483c
000000b0: 1ea7 98bd e8ed abbd 364a 443d 3332 993d
000000c0: aea1 a0bd da24 fa3c 0017 98bd 4323 553c
000000d0: 6463 a13d 2253 893d 5487 89bd b6f3 563d
000000e0: 0a81 533d 83c0 4dbb c145 aa3d a3fa 29bd
000000f0: f4f2 cabc dc1f 42bd ea05 3c3c 9be6 f33c
00000100: e030 593b 7d3a 47bd 9f68 3abd f11f e43c
00000110: 8c0b a6bd 33ea 28bc d250 00bb 5caf 12bd
00000120: ea23 ee3c 0df9 00ba 54f3 763d 1a1d e0bb
00000130: bd74 70bd 8743 733d ae5a 113c a334 01bd
00000140: 2879 62bd 40d4 9f3c c1a6 b1bd 3a18 913c
00000150: 1302 333d 27dc 9cbd 4804 6dbd f617 82bd
00000160: dd1e 923d 9a5e 9b3d 0016 923a 9a76 a63d
00000170: dc01 e4bc d3bc afbd 26ff d93c 1423 db3c
00000180: c692 a63d ae62 83bb 7e39 813d a6ea 5d3d
00000190: 57ec 7c3d 9c35 b8bd b8eb 8f3d 112f 93bd
000001a0: 2d49 a23d 280c a3bb ec2a a9bd f1dd b43c
000001b0: fe98 a8bc dd34 a6bd d474 05bd f04f 153c
000001c0: 3336 8e3d ccc7 e6bc b6da 5e3d 734e 213c
000001d0: 6b53 683b 6e8c 8a3c 5636 79bd 840b 92bd
000001e0: b98f e7bc 6dcf acbd d893 31bd b4cd 963b
000001f0: d095 72bd 1a86 21bd f17c 71bc 12d5 26bc
00000200: fea3 4dbd 465d ad3b 8043 4bbc 1caf 9b3c
00000210: bec6 7b3b 8f9b 15bd a5c2 ffbc eb81 ad39
00000220: bdbf 75bd 7ede 1a3c 3d6c 333b 782e 343d
00000230: 65d3 8e3c 095f 803d 7921 7fbc 248e 90bd
00000240: dc4e 5e3d 06a1 85bd d0d3 07bc a0b3 23bd
00000250: f90f 10bd 1c03 eabc e033 a23d 3e22 733d
00000260: 6853 be3c 4c44 a93d 5a7d afbd c82f 953c
00000270: 0b94 6b3d 8f18 813d d2ff 94bd 85d8 003d
00000280: d7e5 79bd fb56 62bb 2b85 babc ab98 98bd
00000290: 4da8 b3bd 6c15 80bd 4b71 2f3d d1f9 1e3d
000002a0: 6bd4 8abd 4529 24bd 8963 04bb 2feb a4bd
000002b0: 11b0 563d 9955 a73d c1bf 273c c8e2 98bd
000002c0: 8553 d13c d603 1c3d b8d4 8a3d fe00 22bd
000002d0: 6e0c a4bd d90f 1f3d c132 213c 6fb5 f6bc
000002e0: a1b8 32bd ec93 3cbd bc34 923d 8282 a53b
000002f0: 5b51 873d 0ed6 a13d 74bf 3a3c 5dc3 5a3c
00000300: 0add f6bb 9feb 923d eb1d a9bd d2f1 aa3c
00000310: 6635 a6bc 3e65 2a3d b065 debb 256e 2ebd
00000320: 5cb9 0cbc 9cc1 4a3d 9cd1 7abd 703d 71bd
00000330: 621f 04bd d173 e7bc cf21 e13c 6729 5b3d
00000340: 7b61 f63b bfd4 a63d 62da 16bd b2dc 42bd
00000350: 2315 22bd bcd9 80bd 5176 63bd c6e3 93bd
00000360: f601 acbd 9bbe c93c 01c5 6b3d 6b2d a13d
00000370: a163 9d3d 26cf a6bb f4b9 a93c 9558 5bbd
00000380: 78cf 143d ce27 adbd 052a 353d 99ce 843c
00000390: 4d46 b03c 92bf 213d 28bf 43bd b0c1 a83d
000003a0: abc8 2c3d 2b54 5d3d 1341 043c 4825 5f3d
000003b0: 7f68 793d 2721 213d 3459 8a3d e554 83bc
000003c0: 9cbc 5c3d 7001 783c c275 663d b69b b23d
000003d0: 8d19 2a3d 7560 06bd e6c6 23bc 81df b83c
000003e0: da5d a13b 174c b8bc e384 533d ac60 6c3d
000003f0: f568 4abd a90b 083b 83e6 80b9 4549 3ebd

pi_body.2.bias f4 [128]
-0.014551891 -0.0661126 0.0884487 0.030513654 0.012802504 0.030987246 0.04157505 -0.08710896
0.06899414 0.06487161 0.007416852 -0.030003984 0.015518081 0.008737906 0.01606492 -0.05490647
0.048310723 0.005412456 0.0028233086 -0.038069215 0.071182765 -0.068649516 -0.029977953 -0.06604041
0.063025646 -0.037542265 0.0005691783 -0.0035940611 0.07579021 -0.082129866 -0.038522553 -0.09236437
-0.03265752 -0.08134527 -0.0053184275 0.03359215 0.008547467 0.0035642004 -0.02666313 -0.06522047
-0.0020107394 0.06384884 0.016751176 0.0077204593 -0.036366314 0.052085344 0.053390663 0.019484622
0.075170025 0.0028505125 0.0016995505 0.035945576 -0.0850035 0.06345132 -0.045332458 -0.043260586
-0.008448602 -0.071395375 -0.056896295 0.08098675 -0.016150791 0.04235205 0.010925883 0.08055981
-0.048864383 -0.04657171 0.08159489 -0.06253333 -0.08562524 -0.015279161 0.04685892 0.046534915
-0.066969484 -0.06327393 0.041594524 -0.058196746 0.045307077 -0.022498796 -0.037465423 0.00039814028
0.072806664 -0.05961469 -0.06970585 0.039064586 0.044214215 -0.00758227 0.04877508 -0.026925892
-0.048664488 -0.068024345 -0.045391366 -0.058416177 0.028975947 -0.020424929 0.059486132 -0.027696438
0.047861043 0.07185427 -0.024744237 -0.05004497 0.03729563 -0.082961634 0.051892724 0.049200866
0.0063655856 -0.054783706 0.005951293 0.057630092 0.0092436895 0.009793431 0.03852537 0.043846175
0.014713453 -0.051775835 -0.00536374 -0.04054819 0.058607996 -0.047495507 0.06086292 0.038433168
-0.086996764 -0.03702391 -0.014156416 -0.02197597 -0.00722258 -0.046668436 0.06373543 0.049726237
00000000: 0e6b 6ebc 0b66 87bd 9824 b53d c5f7 f93c
00000010: 98c1 513c f7d8 fd3c 9a4a 2a3d 2f66 b2bd
00000020: cd4c 8d3d 68db 843d 1009 f33b eaca f5bc
00000030: 8d3f 7e3c 6f29 0f3c 949a 833c 9be5 60bd
00000040: 77e1 453d f95a b13b 4207 393b 77ee 1bbd
00000050: 45c8 913d 1e98 8cbd 5394 f5bc 3240 87bd
00000060: 9713 813d ebc5 19bd e934 153a 578a 6bbb
00000070: e637 9b3d b433 a8bd d3c9 1dbd 8829 bdbd
00000080: e4c3 05bd 5998 a6bd 3446 aebb ec97 093d
00000090: ad0a 0c3c 5c95 693b a36c dabc 4f92 85bd
000000a0: 9cc6 03bb 2ec3 823d c339 893c e8fb fc3b
000000b0: d8f4 14bd 7157 553d 2bb0 5a3d 379e 9f3c
000000c0: bef2 993d aacf 3a3b 74c3 de3a ab3b 133d
000000d0: 5116 aebd c4f2 813d 87ae 39bd 0332 31bd
000000e0: 016c 0abc bd37 92bd 170c 69bd 62dc a53d
000000f0: aa4e 84bc 5879 2d3d 7a02 333c 8bfc a43d
00000100: 0526 48bd fac1 3ebd 391b a73d 7911 80bd
00000110: 495c afbd 7255 7abc 24ef 3f3d 659b 3e3d
00000120: 4c27 89bd c395 81bd 055f 2a3d b65f 6ebd
00000130: ea93 393d 654f b8bc 5875 19bd 7cbd d039
00000140: a91b 953d 882e 74bd f1c1 8ebd 3002 203d
00000150: f719 353d b174 f8bb 61c8 473d b093 dcbc
00000160: 6a54 47bd 5950 8bbd 4cec 39bd cd45 6fbd
00000170: f75e ed3c 2e52 a7bc bba7 733d a4e3 e2bc
00000180: f109 443d 5528 933d 6db4 cabc f4fb 4cbd
00000190: 4dc3 183d cae7 a9bd 778d 543d d986 493d
000001a0: 6796 d03b e164 60bd 1003 c33b 880d 6c3d
000001b0: d872 173c a074 203c c7cc 1d3d 0c98 333d
000001c0: b210 713c e612 54bd 50c2 afbb dc15 26bd
000001d0: f00e 703d a68a 42bd 664b 793d 196c 1d3d
000001e0: 5c2b b2bd 62a6 17bd 50f0 67bc f306 b4bc
000001f0: 64ab ecbb 6727 3fbd b987 823d bdad 4b3d

mu_head.weight f4 [8, 128]
-0.012634439 -0.03447056 -0.061692275 -0.047389176 -0.05451391 0.07124344 0.0056217867 -0.0501373
0.0050648847 0.009526398 0.017536376 0.025491621 0.06342898 -0.038432483 -0.0134272855 -0.075857066
-0.026199767 -0.077711545 -0.005474849 -0.048412997 -0.03011459 0.07976723 0.07999088 0.005403249
0.051120922 0.055726327 0.016128609 0.027348412 0.00064151996 -0.06612969 0.07836371 -0.065372564
-0.020334713 -0.07132249 -0.04065876 0.09198353 -0.013271733 0.030395342 0.022201883 0.06999182
0.02515711 0.008583957 -0.034875818 0.01293417 0.019767946 -0.060628526 -0.06523208 -0.029626139
0.08225346 0.039480038 0.049482062 0.061183773 -0.0008816699 -0.05172158 0.09700256 0.023827609
-0.034576558 0.04281952 -0.062061906 0.012389234 0.08975868 0.036934342 -0.08014264 0.07348285
0.019396279 -0.01933454 0.074049376 0.03767849 0.048151124 0.044527035 -0.05228781 -0.057144053
0.06582212 0.009669002 0.08670071 0.038428113 -0.08537356 0.040871978 0.044039905 -0.09677379
0.008155018 -0.07174259 0.041408304 0.051097255 0.040488154 0.0558553 -0.047495138 -0.0032193847
-0.020108514 0.066296324 0.057267413 -0.0294466 -0.0638652 -0.004816408 0.066051684 -0.012424922
0.035017677 -0.057850864 -0.05283176 -0.07741617 -0.06915804 -0.044208176 -0.04334363 0.037417956
0.07771592 0.0108596515 0.030271854 -0.056074247 -0.04169847 -0.08445948 0.08276524 0.013435553
-0.019976439 -0.08123379 0.019686533 -0.08709131 0.06698677 -0.08535077 0.015585655 0.062326394
-0.065770045 0.064916484 0.08096493 0.068123385 0.076011725 -0.038865663 -0.009902485 0.08427142
0.03413664 -0.06505163 0.09331003 -0.011913095 -0.028788002 0.01762416 0.09842676 -0.039220233
0.022757867 0.0078086676 -0.019838732 0.043136716 0.016898997 -0.06152304 0.0090082055 0.05584136
-0.033966575 0.078528225 -0.07140372 0.032988124 0.05384666 0.03301568 0.031441938 0.02009251
-0.016439494 0.06572626 -0.013396981 0.08531382 0.0958131 -0.07340102 0.08831317 0.024206338
-0.052163176 -0.04581867 -0.0068177884 0.08998356 0.06365459 -0.017142378 -0.047911108 -0.054317895
-0.029375212 0.011442684 -0.066511616 -0.07790291 -0.051689394 0.03019626 0.030132584 0.035028312
0.08790962 0.023378458 -0.034323096 0.046162136 -0.04124241 0.0915617 -0.013848238 -0.03976419
-0.015197268 -0.044767577 -0.008876969 0.0061900327 0.01650018 0.003418558 -0.057952177 -0.07829887
-0.0527299 -0.07579276 -0.07156746 0.087228395 0.04754379 0.04885796 0.058783095 0.04152006
-0.014599843 0.014846937 -0.024345282 0.044523392 0.017551102 -0.07110504 0.025275514 -0.076186314
0.07514805 0.0110551035 0.001972471 -0.05335066 0.033946425 0.020380307 0.032639913 -0.059576146
-0.029092044 -0.050412253 -0.051720828 -0.04601383 -0.052820623 0.085023046 -0.08394293 -0.015218441
0.0035670397 -0.029425628 -0.019297462 0.036327902 -0.006196374 -0.031481836 0.075044274 -0.01931408
0.015542717 0.05623083 -0.022311034 -0.06877885 0.06624219 -0.0720961 -0.08711625 -0.03799304
0.007519042 0.06976622 -0.060340516 -0.039911717 0.09427705 0.073925085 0.038002312 -0.06491163
0.06870814 -0.005617142 -0.074174315 0.08181929 -0.06469412 0.022572152 -0.04362297 0.0907895
00000000: ae00 4fbc 0031 0dbd 0ab1 7cbd 271b 42bd
00000010: fa49 5fbd 15e8 913d f736 b83b c55c 4dbd
00000020: 55f7 a53b 9c14 1c3c 72a8 8f3c ced3 d03c
00000030: 0ee7 813d 616b 1dbd 1efe 5bbc f35a 9bbd
00000040: e5a0 d6bc 3b27 9fbd 5d66 b3bb b54c 46bd
00000050: dfb2 f6bc 005d a33d 42d2 a33d bd0d b13b
00000060: 2c64 513d 4a41 643d 2520 843c c709 e03c
00000070: ad2b 283a 016f 87bd 277d a03d 0de2 85bd
00000080: fc94 a6bc 8711 92bd cd89 26bd dc61 bc3d
00000090: af71 59bc a7ff f83c b9e0 b53c df57 8f3d
000000a0: 4916 ce3c baa3 0c3c f2d9 0ebd d7e9 533c
000000b0: 63f0 a13c 9e55 78bd 6698 85bd 84b2 f2bc
000000c0: 8174 a83d d2b5 213d b4ad 4a3d d69b 7a3d
000000d0: de1f 67ba 02da 53bd 47a9 c63d 1e32 c33c
000000e0: 26a0 0dbd 8563 2f3d a034 7ebd 37fc 4a3c
000000f0: 66d3 b73d 7748 173d d321 a4bd 2d7e 963d
00000100: f2e4 9e3c 7863 9ebc 33a7 973d c354 1a3d
00000110: 1d3a 453d fb61 363d be2b 56bd e20f 6abd
00000120: bfcd 863d bc6a 1e3c 2490 b13d cc66 1d3d
00000130: 55d8 aebd 6069 273d 3063 343d 5631 c6bd
00000140: a09c 053c c7ed 92bd c19b 293d 5b4b 513d
00000150: e8d6 253d 87c8 643d 438a 42bd 50fc 52bb
00000160: 9cba a4bc 5ec6 873d 3c91 6a3d ff39 f1bc
00000170: c2cb 82bd f5d2 9dbb 1b46 873d e691 4bbc
00000180: b26e 0f3d 07f5 6cbd 1e66 58bd 5e8c 9ebd
00000190: bba2 8dbd a213 35bd 1789 31bd 9243 193d
000001a0: 8629 9f3d aeec 313c aefc f73c 1cae 65bd
000001b0: 04cc 2abd 18f9 acbd d280 a93d cb20 5c3c
000001c0: a1a5 a3bc e75d a6bd a745 a13c ee5c b2bd
000001d0: 5c30 893d 62cc aebd fa5a 7f3c f649 7f3d
000001e0: 72b2 86bd eff2 843d f1d0 a53d 4684 8b3d
000001f0: 09ac 9b3d 9a31 1fbd 083e 22bc 7f96 ac3d
00000200: ddd2 0b3d ca39 85bd 5419 bf3d 242f 43bc
00000210: d1d4 ebbc 8b60 903c f893 c93d 65a5 20bd
00000220: b56e ba3c dadf ff3b d684 a2bc 20b0 303d
00000230: c46f 8a3c 95ff 7bbd 2797 133c e9b9 643d
00000240: 8920 0bbd 68d3 a03d 1d3c 92bd 8e1e 073d
00000250: 518e 5c3d 733b 073d 43c9 003d 0c99 a43c
00000260: 1eac 86bc 7d9b 863d 037f 5bbc 03b9 ae3d
00000270: a939 c43d 4653 96bd 89dd b43d 5f4c c63c
00000280: 0ea9 55bd 5cac 3bbd c167 dfbb 4d49 b83d
00000290: 565d 823d 2c6e 8cbc 703e 44bd 717c 5ebd
000002a0: 49a4 f0bc 187a 3b3c 3e37 88bd 908b 9fbd
000002b0: 42b8 53bd 265e f73c 9cd8 f63c d979 0f3d
000002c0: f509 b43d 2e84 bf3c 6096 0cbd 8214 3d3d
000002d0: cded 28bd b384 bb3d b8e3 62bc c6df 22bd
000002e0: f6fd 78bc 355e 37bd b570 11bc c2d5 ca3b
000002f0: 632b 873c e309 603b 435f 6dbd 285b a0bd
00000300: 4ffb 57bd 3c39 9bbd f691 92bd cda4 b23d
00000310: 47bd 423d 491f 483d 8bc6 703d f010 2a3d
00000320: 2e34 6fbc 9140 733c c26f c7bc 295e 363d
00000330: 54c7 8f3c 859f 91bd 980e cf3c 9207 9cbd
00000340: 39e7 993d 7720 353c 9244 013b 3986 5abd
00000350: 680b 0b3d 9af4 a63c 6eb1 053d 1e06 74bd
00000360: 7052 eebc 147d 4ebd 38d9 53bd ff78 3cbd
00000370: 705a 58bd 9020 ae3d 45ea abbd c556 79bc
00000380: ffc4 693b 040e f1bc b615 9ebc 91cc 143d
00000390: f40a cbbb 19f3 00bd d0b0 993d 9038 9ebc
000003a0: e1a6 7e3c 4c52 663d a1c5 b6bc eddb 8cbd
000003b0: fca9 873d 1fa7 93bd 016a b2bd 979e 1bbd
000003c0: 4c62 f63b 98e1 8e3d 9e27 77bd 787a 23bd
000003d0: 5314 c13d 0966 973d 50a8 1b3d 63f0 84bd
000003e0: dab6 8c3d 0110 b8bb b4e8 97bd df90 a73d
000003f0: 5a7e 84bd 3ce9 b83c 00ae 32bd d8ef b93d

mu_head.bias f4 [8]
0.07750354 0.054773197 -0.054629523 -0.03565345 -0.030193105 0.036406554 0.057164192 0.00037817567
00000000: 2dba 9e3d dc59 603d 35c3 5fbd 5a09 12bd
00000010: 8857 f7bc 0a1f 153d 0025 6a3d e145 c639

vf.0.weight f4 [128, 9]
-0.3224823 -0.22057249 -0.15389833 -0.22438025 0.16237709 0.0056412546 -0.23789613 -0.21699104
-0.25278944 -0.19719882 0.15165666 -0.15298402 -0.24571425 0.041479755 0.008858235 -0.24404992
0.13211678 0.06547586 0.05318264 0.15398552 -0.16969788 -0.2701718 0.2130497 0.30857366
0.31680563 0.20563252 0.28690308 0.121618725 -0.26713246 0.10924966 -0.25536653 -0.30381733
0.13498478 -0.16406295 -0.24020125 0.32582706 0.121586286 0.15798058 -0.0970911 0.15045018
0.014179327 -0.06435876 -0.046590332 0.29531598 -0.22444457 -0.09725567 0.2670926 -0.004936759
0.18100174 -0.12840329 0.24580064 -0.22947726 -0.15170082 -0.27902886 -0.23350461 0.24218449
0.25748497 0.21622248 0.19858332 0.25035495 0.24596167 0.21732524 -0.14519493 0.26637694
0.23917668 0.107503586 -0.037955496 0.29899743 -0.0021831256 -0.29228982 -0.089456186 -0.01628898
0.18491957 0.11414785 0.075237796 0.31433988 0.23640575 -0.16677189 -0.09436617 0.011176933
-0.017741725 -0.2541498 -0.10042575 0.24448627 -0.32316357 0.039271377 0.04753907 -0.11404565
-0.11338711 -0.1762423 -0.2546148 -0.26143143 0.20310074 0.020979047 0.042399842 -0.03060205
-0.2954027 -0.050940532 -0.2768603 0.2040043 -0.07758764 -0.08003506 0.16140771 -0.18072017
-0.16867685 -0.13666329 -0.010470757 -0.16981548 -0.25968757 0.19723262 0.22215298 -0.06956627
-0.20867282 0.269855 -0.16166405 -0.18752201 -0.24067008 0.1084107 0.098174684 0.32340315
-0.09790893 -0.19816092 0.34180042 0.2432928 -0.25665283 -0.3168026 0.12500009 -0.18071939
0.04288246 -0.015170203 -0.1230706 0.2738632 0.09996254 0.106113136 -0.2750503 -0.088437274
0.17952698 0.19859174 0.06909398 -0.30988547 -0.1586991 0.35006788 0.312701 0.17557818
-0.16620025 -0.15370479 0.13156952 -0.24537645 -0.027364574 0.14867213 0.14906642 0.20260002
0.015158974 0.2582395 -0.3032583 -0.1681527 -0.049586885 0.22451375 -0.22866602 0.2778976
-0.16832848 -0.068758324 0.27791065 0.35683033 0.1263611 -0.030685728 0.2604235 0.016010685
0.23411718 0.1770127 0.005534909 0.30962604 0.15456913 0.29654655 0.31688035 0.056060437
-0.16386294 -0.108222626 -0.03939974 -0.13285816 0.04055675 0.32612613 0.21443091 0.10045558
0.17186885 -0.18338169 0.13793935 0.31119803 0.083805956 0.001678252 0.27574366 -0.23315911
0.18479142 -0.058623515 -0.33030078 0.20188563 -0.075580426 -0.07198787 -0.16818263 -0.1176402
-0.06993217 -0.3449192 0.16055769 0.031848777 0.1099999 0.3373008 -0.094432816 -0.16325878
-0.18094772 -0.049737114 -0.0103313 0.124566525 0.03514631 0.12256678 -0.12932922 -0.26512492
0.049705524 0.09657111 -0.13903907 -0.0805233 -0.038875338 -0.2701634 0.33488342 0.2839003
-0.2268678 -0.27230322 0.27966407 0.2749076 -0.29498094 0.041094802 -0.21087636 -0.28882685
-0.24713272 -0.005294798 0.32734877 0.16883099 -0.2977142 0.20983581 0.3139884 0.25276816
0.3279334 -0.16854186 -0.17033458 0.18133426 -0.2901181 -0.098752595 0.24628957 0.090550214
-0.081909776 0.12820257 -0.15976042 -0.1763191 0.067883454 -0.19402868 0.20772564 0.12603608
00000000: 661c a5be c1dd 61be 8697 1dbe f0c3 65be
00000010: 2e46 263e 46da b83b 0b9b 73be e632 5ebe
00000020: 9e6d 81be 7dee 49be e24b 1b3e d8a7 1cbe
00000030: 849c 7bbe ade6 293d 2122 113c 39e8 79be
00000040: 9f49 073e 3518 863d 0ad6 593d 61ae 1d3e
00000050: 48c5 2dbe f553 8abe b329 5a3e 5efd 9d3e
00000060: 5934 a23e 5591 523e f6e4 923e 3d13 f93d
00000070: 96c5 88be 49be df3d 67bf 82be f28d 9bbe
00000080: 7339 0a3e 1e00 28be 51f7 75be ced2 a63e
00000090: 3b02 f93d a9c5 213e b3d7 c6bd 9d0f 1a3e
000000a0: 6850 683c 87ce 83bd 81d5 3ebd a833 973e
000000b0: ccd4 65be fb2d c7bd 5cc0 883e 89c4 a1bb
000000c0: 8558 393e 277c 03be 2ab3 7b3e 16fc 6abe
000000d0: 7657 1bbe dfdc 8ebe d51b 6fbe 36ff 773e
000000e0: 12d5 833e 6d69 5d3e 6d59 4b3e 862e 803e
000000f0: 60dd 7b3e 828a 5e3e fbad 14be 8f62 883e
00000100: bbea 743e d72a dc3d 3977 1bbd 3116 993e
00000110: c512 0fbb 03a7 95be ce34 b7bd 7870 85bc
00000120: 8e5b 3d3e 59c6 e93d 4616 9a3d 28f1 a03e
00000130: 5914 723e 40c6 2abe 0d43 c1bd 741f 373c
00000140: 1857 91bc ec1f 82be 04ac cdbd 9c5a 7a3e
00000150: b275 a5be 06db 203d 54b8 423d c490 e9bd
00000160: 8037 e8bd dd78 34be df5c 82be 57da 85be
00000170: a4f9 4f3e 40dc ab3c 75ab 2d3d 26b1 fabc
00000180: 063f 97be 05a7 50bd a2c0 8dbe 81e6 503e
00000190: 45e6 9ebd 6ce9 a3bd 1048 253e b50e 39be
000001a0: a0b9 2cbe 76f1 0bbe 8a8d 2bbc 1ce4 2dbe
000001b0: c5f5 84be 59f7 493e 127c 633e c378 8ebd
000001c0: 54ae 55be 6f2a 8a3e 438b 25be c505 40be
000001d0: 3872 76be 6e06 de3d cf0f c93d 1995 a53e
000001e0: 7a84 c8bd b2ea 4abe 7700 af3e bf21 793e
000001f0: 0068 83be f333 a2be 0600 003e 810e 39be
00000200: 85a5 2f3d 718c 78bc 700c fcbd cc37 8c3e
00000210: 29b9 cc3d d851 d93d 65d3 8cbe 9a1e b5bd
00000220: ecd5 373e a25b 4b3e 2581 8d3d 4fa9 9ebe
00000230: 0482 22be 193c b33e 581a a03e c4ca 333e
00000240: 6630 2abe ca64 1dbe 29ba 063e f743 7bbe
00000250: ac2b e0bc 823d 183e dea4 183e 6176 4f3e
00000260: 585d 783c f837 843e ac44 9bbe 3930 2cbe
00000270: 9e1b 4bbd efe6 653e 6d27 6abe 9848 8e3e
00000280: 4d5e 2cbe 2ad1 8cbd 4e4a 8e3e 77b2 b63e
00000290: ce64 013e a360 fbbc 3b56 853e d728 833c
000002a0: 6abc 6f3e d142 353e 2f5e b53b 4e87 9e3e
000002b0: 5f47 1e3e f3d4 973e 243e a23e a19f 653d
000002c0: b0cb 27be d3a3 ddbd 9f61 21bd f80b 08be
000002d0: d61e 263d 01fa a63e c793 5b3e a8bb cd3d
000002e0: 63fe 2f3e 69c8 3bbe f93f 0d3e 5955 9f3e
000002f0: 75a2 ab3d cbf8 db3a 462e 8d3e 43c1 6ebe
00000300: f639 3d3e 361f 70bd 2f1d a9be 1bbb 4e3e
00000310: e9c9 9abd 606e 93bd 1138 2cbe 58ed f0bd
00000320: 9938 8fbd 4099 b0be 3c69 243e dd73 023d
00000330: a147 e13d b1b2 ac3e fe65 c1bd 4f2d 27be
00000340: 5c4a 39be 25b9 4bbd 9d44 29bc bc1c ff3d
00000350: 94f5 0f3d 4b04 fb3d e16e 04be 74be 87be
00000360: 0598 4b3d 13c7 c53d 4260 0ebe 66e9 a4bd
00000370: bf3b 1fbd db52 8abe d775 ab3e 615b 913e
00000380: 0850 68be 546b 8bbe 2130 8f3e b0c0 8c3e
00000390: be07 97be 0653 283d f9ef 57be 1de1 93be
000003a0: 5c10 7dbe fc7f adbb 429a a73e 08e2 2c3e
000003b0: ff6d 98be 33df 563e 16c3 a03e d46a 813e
000003c0: e3e6 a73e 3d96 2cbe 306c 2ebe b0af 393e
000003d0: 5c8a 94be cd3e cabd 5533 7c3e 6472 b93d
000003e0: 50c0 a7bd 8947 033e 3c98 23be ff8c 34be
000003f0: 7b06 8b3d 74af 46be 08b6 543e 9a0f 013e

vf.0.bias f4 [128]
0.027436545 0.3183 0.3561846 -0.051313303 -0.04861452 -0.05182286 -0.08666347 0.22778049
0.20227036 -0.22238225 0.103062846 0.4812471 0.39361075 0.3119641 0.10786645 0.29092973
0.3259805 -0.08105483 0.020850051 0.073492035 0.28626207 -0.2817072 0.10107249 0.3255475
0.2332234 -0.25812837 -0.10586282 -0.29637808 -0.2896047 -0.2744843 0.06349647 -0.09918743
-0.3228101 0.44323272 0.16981508 -0.14561997 -0.18663248 0.052274622 0.3690911 -0.06409835
-0.12339103 0.35586923 0.061909687 -0.031094002 0.36131668 -0.2449539 0.21873237 -0.29295158
0.08940481 -0.053522713 -0.21282177 -0.135295 0.36537448 0.40156525 0.17165071 0.23317486
0.30898735 0.029860865 0.10779751 0.35009706 0.30621907 -0.0939874 0.20801921 0.23114571
-0.04972313 0.37673408 -0.084510915 0.27606466 0.3139961 -0.061317474 -0.263252 -0.27703378
0.04125547 0.32600096 0.4496985 0.34163558 0.15409003 0.08736341 0.13295811 -0.06076816
0.038001575 0.32616666 -0.2559347 -0.20785527 0.018246207 -0.18411624 -0.22835039 0.120500766
0.26191762 0.33282238 -0.19612832 0.21140029 0.33454278 0.20470335 -0.16322258 -0.05965638
0.32316142 0.16865513 0.19305833 -0.27266577 -0.27704152 0.38732344 0.14818612 0.42746562
-0.3326716 -0.117766134 -0.29396278 0.46390715 0.14628679 0.266616 0.3998547 0.15110378
0.15402955 -0.22508366 0.15988068 0.36975816 -0.0069026807 -0.2586445 -0.18746239 0.13938487
0.39288253 0.16530122 -0.16314855 0.1455558 -0.11433586 0.1423232 0.3490855 -0.25217062
00000000: 9bc2 e03c 38f8 a23e d45d b63e e62d 52bd
00000010: 0520 47bd 3544 54bd 9e7c b1bd 4a3f 693e
00000020: f61f 4f3e 2cb8 63be 9d12 d33d 0566 f63e
00000030: 5987 c93e c2b9 9f3e 16e9 dc3d bef4 943e
00000040: ebe6 a63e 1300 a6bd bacd aa3c fe82 963d
00000050: f190 923e ed3b 90be 18ff ce3d 29ae a63e
00000060: 1dd2 6e3e 6729 84be 9bce d8bd debe 97be
00000070: 1147 94be 3589 8cbe 700a 823d c822 cbbd
00000080: 5e47 a5be 66ef e23e 01e4 2d3e 671d 15be
00000090: 961c 3fbe ea1d 563d 82f9 bc3e ff45 83bd
000000a0: 70b4 fcbd 7e34 b63e 0395 7d3d d9b8 febc
000000b0: 80fe b83e 32d5 7abe 61fb 5f3e c0fd 95be
000000c0: de19 b73d a23a 5bbd f3ed 59be c68a 0abe
000000d0: 5d12 bb3e f699 cd3e 34c5 2f3e 64c5 6e3e
000000e0: 9733 9e3e c69e f43c f1c4 dc3d ec3f b33e
000000f0: bfc8 9c3e 777c c0bd fd02 553e 76b1 6c3e
00000100: 7baa 4bbd 4ae3 c03e 0f14 adbd 5958 8d3e
00000110: 19c4 a03e 0828 7bbd f7c8 86be 5fd7 8dbe
00000120: 7ffb 283d 99e9 a63e e23e e63e dcea ae3e
00000130: c7c9 1d3e 96eb b23d 2c26 083e 09e8 78bd
00000140: 8aa7 1b3d 51ff a63e df09 83be 03d8 54be
00000150: 1279 953c f888 3cbe afd4 69be 1bc9 f63d
00000160: 111a 863e b267 aa3e ddd5 48be 5179 583e
00000170: 3149 ab3e c19d 513e d223 27be 405a 74bd
00000180: 6a75 a53e eeb3 2c3e 15b1 453e d99a 8bbe
00000190: 63d8 8dbe 424f c63e 1abe 173e c6dc da3e
000001a0: ef53 aabe 5f2f f1bd 4a82 96be 3d85 ed3e
000001b0: 34cc 153e e481 883e c1b9 cc3e f3ba 1a3e
000001c0: ecb9 1d3e 557c 66be c3b7 233e f150 bd3e
000001d0: e22f e2bb 0d6d 84be 24f6 3fbe e8ba 0e3e
000001e0: e627 c93e b944 293e 6a10 27be 940c 153e
000001f0: eb28 eabd 2cbd 113e 56bb b23e 821c 81be

vf.2.weight f4 [128, 128]
-0.038577277 0.06563503 0.113971144 -0.05424233 0.011668924 -0.04817925 -0.06535446 0.0027420414
0.055128265 -0.07181168 0.0127993 0.09414618 0.15045449 -0.01051192 -0.025947846 0.040001143
-0.006414173 -0.01128028 0.035963684 -0.050206702 0.00015821576 0.05725367 0.11390311 0.1761936
0.14417547 0.08826795 -0.020089583 -0.034697924 -0.016226465 0.028902352 0.06213542 -0.039406918
0.07348321 0.051555324 0.12112821 -0.009567295 0.036017198 0.04795836 0.10819081 -0.021575183
0.037464723 0.0072873565 0.077910885 -0.024095252 0.121022984 -0.0708132 -0.0022690834 0.07174314
0.110396035 -0.0697609 -0.03762505 -0.053748313 0.062320895 0.019709477 0.046882562 0.07926758
0.13216342 -0.009389424 0.036744826 0.005829759 0.14388579 -0.07234671 -0.0038920902 0.03006795
0.0009715917 0.114052676 0.07957556 0.026808957 0.030875642 -0.04553699 0.033191666 -0.059024107
0.09392229 0.08139041 0.007245865 0.05215589 0.059761886 0.11287651 0.012947571 -0.018844727
-0.013530666 0.07274643 0.04918905 -0.020937072 0.09003511 -0.043309454 -0.07876916 0.0252721
0.12554964 0.13915528 0.024323182 0.019457687 0.12467913 0.10130172 -0.08643604 -0.027274216
0.16946304 0.03696094 -0.022599397 -0.04840892 -0.023181744 0.03390749 0.02632451 0.030757623
0.06617111 0.019691773 0.06758967 0.04959975 0.09948608 0.090386026 0.012808592 0.09999377
0.1320878 -0.03212177 0.09028138 0.03781269 -0.007993213 -0.011106777 -0.050398123 0.1022729
0.070495345 -0.006266903 0.091232456 -0.046721034 -0.046658516 0.055018093 0.13281323 -0.032346357
-0.049811367 -0.05923105 0.038554255 -0.011444554 -0.08396532 -0.049183335 -0.08916634 0.016870862
-0.062615536 0.006328107 0.0534376 0.042577617 -0.0986554 0.026322376 0.061922763 0.05057284
0.01251934 -0.016719734 -0.07059595 -0.062217437 -0.068598084 -0.036877926 0.030137269 0.068569474
0.030917272 -0.028741697 -0.009957282 -0.042209733 -0.041244827 -0.027382726 -0.010451173 -0.011230737
0.040670443 0.012165037 0.0476224 -0.0066244653 -0.07076385 -0.012634517 0.018242927 -0.096359886
0.0039803167 0.035544507 -0.076380886 0.023704031 -0.073273756 0.01807689 0.012278937 0.028925829
-0.07453791 0.02558248 -0.07087511 -0.05869164 0.017893504 -0.080356576 0.03550124 0.025348196
0.071619384 -0.066544674 0.005042176 0.051960364 0.017292123 -0.035139617 0.058566105 0.037570827
0.009388147 -0.046953183 -0.0707639 0.059932668 -0.0166905 -0.018834677 -0.00032623767 -0.046502598
0.02660332 0.0005450881 -0.0005576245 -0.03218913 0.011052417 0.057187725 0.029691486 0.08135234
0.009934235 0.0277079 -0.033875234 -0.0665884 0.02708753 -0.0069321287 -0.012475499 0.0016058136
0.018306885 -0.02274996 0.023472933 0.0669269 -0.031136286 -0.04373769 -0.058471825 0.037786987
-0.040562674 0.0077050733 -0.07701639 0.027353473 -0.07511764 -0.0042819297 -0.06971513 -0.09102272
-0.00071730476 0.019678477 -0.061207116 -0.06629612 0.0425359 -0.03279788 0.04031656 -0.0618057
-0.03990723 0.040424522 -0.096212246 0.0062095015 -0.06967232 -0.05650587 0.0120992595 0.03141717
-0.06430438 -0.008305315 -0.029597018 -0.0812893 -0.028450428 -0.009877612 -0.060739603 -0.06112757
00000000: 3503 1ebd a96b 863d b469 e93d 352d 5ebd
00000010: 042f 3f3c 9b57 45bd 8fd8 85bd d2b3 333b
00000020: 2dce 613d 0112 93bd 28b4 513c b6cf c03d
00000030: be10 1a3e 303a 2cbc 9490 d4bc 3dd8 233d
00000040: fc2d d2bb ecd0 38bc a84e 133d 8ba5 4dbd
00000050: b8e6 2539 d382 6a3d 0946 e93d 186c 343e
00000060: bca2 133e d4c5 b43d e992 a4bc 691f 0ebd
00000070: 5ded 84bc a0c4 ec3c b681 7e3d 2669 21bd
00000080: 5d7e 963d ad2b 533d 1112 f83d 25c0 1cbc
00000090: c586 133d fc6f 443d 2593 dd3d 70be b0bc
000000a0: 9c74 193d c7ca ee3b be8f 9f3d 6863 c5bc
000000b0: e6da f73d 8306 91bd e7b4 14bb 11ee 923d
000000c0: 5117 e23d cede 8ebd b91c 1abd 3127 5cbd
000000d0: 3244 7f3d c575 a13c ee07 403d 0a57 a23d
000000e0: d955 073e 19d6 19bc be81 163d 9007 bf3b
000000f0: cc56 133e 832a 94bd 7012 7fbb 1051 f63c
00000100: 6ab2 7e3a 7394 e93d 83f8 a23d 759e db3c
00000110: eaee fc3c ff84 3abd fcf3 073d 43c3 71bd
00000120: 545a c03d 04b0 a63d b96e ed3b 6aa1 553d
00000130: e1c8 743d cd2b e73d 0d22 543c 4260 9abc
00000140: baaf 5dbc 15fc 943d 757a 493d 3984 abbc
00000150: 5464 b83d 4165 31bd ba51 a1bd 6f07 cf3c
00000160: 1690 003e b97e 0e3e 6941 c73c ba65 9f3c
00000170: c657 ff3d 4777 cf3d 6105 b1bd 2d6e dfbc
00000180: b887 2d3e 5b64 173d 5f22 b9bc 6f48 46bd
00000190: a4e7 bdbc 95e2 0a3d 80a6 d73c 69f7 fb3c
000001a0: b884 873d a450 a13c 746c 8a3d 1c29 4b3d
000001b0: 5cbf cb3d 4f1c b93d 21db 513c 89c9 cc3d
000001c0: 0642 073e 1e92 03bd 72e5 b83d 7be1 1a3d
000001d0: f7f5 02bc 33f9 35bc 436e 4ebd 7474 d13d
000001e0: dd5f 903d 985a cdbb 15d8 ba3d 8e5e 3fbd
000001f0: 001d 3fbd a75a 613d 3100 083e 9d7d 04bd
00000200: 0107 4cbd 429c 72bd 11eb 1d3d f081 3bbc
00000210: 02f6 abbd 7774 49bd d89c b6bd c334 8a3c
00000220: 933c 80bd 025c cf3b 63e1 5a3d de65 2e3d
00000230: d80b cabd 06a2 d73c b9a2 7d3d 7725 4f3d
00000240: eb1d 4d3c d3f7 88bc 9c94 90bd b6d7 7ebd
00000250: 277d 8cbd 4f0d 17bd 6fe2 f63c 276e 8c3d
00000260: 3846 fd3c b573 ebbc de23 23bc 1de4 2cbd
00000270: 56f0 28bd bd51 e0bc 663b 2bbc 2001 38bc
00000280: 0d96 263d dd4f 473c b50f 433d 0b12 d9bb
00000290: a3ec 90bd 0101 4fbc 3172 953c 5558 c5bd
000002a0: 516d 823b 1e97 113d 956d 9cbd f52e c23c
000002b0: 8d10 96bd fc15 943c 982d 493c dcf5 ec3c
000002c0: 55a7 98bd 5992 d13c f826 91bd a566 70bd
000002d0: 6695 923c fd91 a4bd c069 113d 05a7 cf3c
000002e0: 2fad 923d 9348 88bd d738 a53b 64d4 543d
000002f0: 36a8 8d3c 8fee 0fbd 03e3 6f3d dee3 193d
00000300: bed0 193c fb51 40bd aaec 90bd f57b 753d
00000310: 84ba 88bc 2e4b 9abc e10a abb9 8279 3ebd
00000320: 35ef d93c 3ee4 0e3a 8c2d 12ba c0d8 03bd
00000330: 3215 353c ad3d 6a3d 8f3b f33c 0e9c a63d
00000340: 34c3 223c aefb e23c c2c0 0abd 805f 88bd
00000350: abe6 dd3c e926 e3bb 0966 4cbc 2a7a d23a
00000360: 52f8 953c 205e babc 4f4a c03c f810 893d
00000370: 8611 ffbc 4b26 33bd 2780 6fbd 87c6 1a3d
00000380: 0c25 26bd d77a fc3b c5ba 9dbd 6414 e03c
00000390: 47d7 99bd 6e4f 8cbb cec6 8ebd 1f6a babd
000003a0: 8209 3cba c234 a13c 50b4 7abd 43c6 87bd
000003b0: 203a 2e3d 1257 06bd fa22 253d f927 7dbd
000003c0: c375 23bd 2f94 253d ed0a c5bd 1379 cb3b
000003d0: 5cb0 8ebd b372 67bd f93b 463c 4aaf 003d
000003e0: 04b2 83bd 0413 08bc 7275 f2bc 017b a6bd
000003f0: df10 e9bc b5d5 21bc 17ca 78bd e760 7abd

vf.2.bias f4 [128]
0.084344395 0.03412316 0.20664129 0.03606378 -0.060326513 0.12982483 0.09355571 -0.012787668
0.13365233 0.09171706 0.055295896 0.09988708 -0.07951406 0.1556107 0.03134762 -0.09254713
0.05072792 -0.092591256 0.11873095 0.06838526 0.13419147 -0.089475825 -0.05443168 0.03588552
-0.079261065 0.1545987 -0.013834956 0.05308663 0.049052615 0.04258745 -0.05278787 -0.04063871
0.11288853 0.052839264 0.05297131 0.0489941 -0.009381817 -0.09032624 0.08612429 0.14496043
0.08585372 -0.06380773 0.12316417 0.016187556 -0.007127783 -0.06432493 0.018373229 0.05657625
0.06484434 0.06364694 0.00703354 0.1676919 0.040111117 0.019572 0.0153101655 -0.07036337
0.04160704 0.05316738 -0.052045956 0.04911403 -0.030537104 0.000923297 0.06047194 0.02215544
0.049835768 0.05647049 0.1326431 0.11787346 0.06414516 0.09027585 0.07325774 -0.029125215
0.042901754 0.04861764 0.14180483 0.16407357 -0.018957933 0.09258233 0.030024268 0.056961775
0.0826245 0.06586656 -0.040407334 0.088215046 0.21217088 -0.064888254 0.09802114 0.030359844
0.03938564 0.0683062 0.017125241 0.07163177 0.065503515 0.1175462 0.077947 0.072090276
-0.05715301 0.17605272 0.0020595 0.1262776 0.11133635 -0.041090794 0.14877564 0.06531243
-0.06546639 0.03344428 -0.07330675 0.10716758 0.15243593 0.058607507 0.14876187 0.05698375
0.17124748 0.036776777 -0.09419828 -0.08333112 0.026319703 0.058813993 0.1877866 -0.0810099
0.120232575 0.05125879 0.004754989 0.053969976 0.0048665074 -0.019473419 0.06493258 0.14468431
00000000: c1bc ac3d bac4 0b3d c699 533e 9db7 133d
00000010: ef18 77bd cdf0 043e 239a bf3d 5e83 51bc
00000020: 28dc 083e 27d6 bb3d f37d 623d 9991 cc3d
00000030: 44d8 a2bd 6958 1f3e 5d66 003d 5a89 bdbd
00000040: 14c8 4f3d 7ca0 bdbd 3629 f33d 920d 8c3d
00000050: 7d69 093e 1a3f b7bd c1f3 5ebd b2fc 123d
00000060: a053 a2bd 1f4f 1e3e 03ac 62bc 5e71 593d
00000070: 65eb 483d 2e70 2e3d 1838 58bd c774 26bd
00000080: 1a32 e73d fc6d 583d 72f8 583d 0aae 483d
00000090: 31b6 19bc f7fc b8bd ef61 b03d 8270 143e
000000a0: 13d4 af3d a1ad 82bd 7f3d fc3d c49b 843c
000000b0: 2d90 e9bb cabc 83bd 7483 963c 7fbc 673d
000000c0: 1ccd 843d 5459 823d 9c79 e63b 6db7 2b3e
000000d0: 8e4b 243d 7555 a03c 7dd7 7a3c ac1a 90bd
000000e0: 256c 2a3d 0ac6 593d 242e 55bd cb2b 493d
000000f0: f328 fabc 6a09 723a 6db1 773d 537f b53c
00000100: 9720 4c3d 9a4d 673d 98d3 073e a467 f13d
00000110: 8a5e 833d 8be2 b83d 2708 963d 0198 eebc
00000120: c0b9 2f3d 4a23 473d 4935 113e e702 283e
00000130: ab4d 9bbc ce9b bd3d 74f5 f53c c050 693d
00000140: 0937 a93d 0ce5 863d 2982 25bd 17aa b43d
00000150: 5343 593e 22e4 84bd 4fbf c83d 35b5 f83c
00000160: d652 213d 1fe4 8b3d 3c4a 8c3c adb3 923d
00000170: b526 863d 10bc f03d ada2 9f3d 11a4 933d
00000180: 4619 6abd 2a47 343e adf8 063b ea4e 013e
00000190: 5004 e43d d24e 28bd a458 183e 86c2 853d
000001a0: 3e13 86bd dffc 083d d921 96bd ad7a db3d
000001b0: 2a18 1c3e 6d0e 703d 0855 183e cb67 693d
000001c0: 805b 2f3e 3fa3 163d 07eb c0bd 82a9 aabd
000001d0: 6b9c d73c f1e6 703d 214b 403e 85e8 a5bd
000001e0: 7f3c f63d bdf4 513d bdcf 9b3b 9f0f 5d3d
000001f0: 3977 9f3b b886 9fbc 5ffb 843d 2028 143e

vf.4.weight f4 [1, 128]
0.09709207 -0.03548792 0.09662172 -0.0064225267 -0.07413963 0.1039567 0.13567147 -0.057903726
0.12194675 0.14924999 0.08648681 0.10596853 -0.0372989 0.09441872 0.13098018 -0.05643525
-0.03251136 0.00030277084 0.10131514 -0.03646905 0.1322827 0.0060816556 -0.06462626 -0.047535658
0.03799392 0.110136434 -0.03580169 0.07343958 0.08664258 0.14351815 -0.0429855 -0.04897536
0.098118074 0.10102368 0.08075026 -0.04548501 -0.05912679 -0.07133215 0.15668304 0.12308996
0.0914135 -0.020167626 0.109019555 -0.0011925667 0.0071286624 -0.01607704 -0.038531538 0.07845422
-0.050208215 0.07538371 0.018196553 0.06334541 -0.0036109895 0.13546352 0.097487405 -0.027385006
0.085108854 -0.003481996 -0.03305033 0.15488763 -0.01990606 -0.0018790181 -0.030751515 -0.045241863
0.124054104 0.12307187 0.13052608 0.10229071 0.002437777 0.15428054 0.054328058 -0.032693096
-0.013264725 0.077146925 0.115856275 0.11751783 -0.030048424 0.1393962 -0.020998375 -0.05467761
0.10570476 -0.019907389 -0.04428125 0.08463406 0.06488456 0.017841004 0.071843065 -0.045665443
0.091476604 -0.002307174 -0.04048058 0.12842564 -0.04342427 0.13507028 0.10497643 -0.009582305
-0.07888584 0.07847508 0.14336768 0.10456465 0.11850285 -0.055770613 0.11286384 -0.025953267
-0.061378907 0.08256028 -0.018809646 0.12666021 0.14512844 0.08794649 0.13842165 0.111457154
0.097189814 -0.042560663 -0.037641253 -0.05950758 -0.066275366 0.14035384 0.14082272 -0.03037001
0.06162518 -0.030193012 -0.08006818 -0.064774506 0.108552866 -0.06432119 0.11705733 0.11313377
00000000: 35d8 c63d c85b 11bd 9ce1 c53d 0f74 d2bb
00000010: 85d6 97bd 40e7 d43d 76ed 0a3e 752c 6dbd
00000020: 38bf f93d fdd4 183e ff1f b13d 0706 d93d
00000030: bbc6 18bd 9a5e c13d ab1f 063e a628 67bd
00000040: a22a 05bd 37bd 9e39 507e cf3d 9260 15bd
00000050: 1e75 073e a048 c73b c65a 84bd c0b4 42bd
00000060: 839f 1b3d 368f e13d cba4 12bd 7e67 963d
00000070: aa71 b13d 6cf6 123e 9011 30bd 639a 48bd
00000080: 21f2 c83d 81e5 ce3d 6460 a53d 7d4e 3abd
00000090: ef2e 72bd 9716 92bd 8571 203e 9716 fc3d
000000a0: 0037 bb3d 9436 a5bc a545 df3d e64f 9cba
000000b0: 8e97 e93b ffb3 83bc 3fd3 1dbd 9bac a03d
000000c0: 21a7 4dbd c662 9a3d f010 953c 3dbb 813d
000000d0: 5aa6 6cbb f3b6 0a3e 7aa7 c73d 8556 e0bc
000000e0: 8d4d ae3d 3332 64bb c85f 07bd dd9a 1e3e
000000f0: 0912 a3bc 6349 f6ba 9aea fbbc 884f 39bd
00000100: 1410 fe3d 1b0d fc3d a1a8 053e cb7d d13d
00000110: 1cc3 1f3b b8fb 1d3e 1987 5e3d 32e9 05bd
00000120: 4a54 59bc 35ff 9d3d 0e46 ed3d 30ad f03d
00000130: 1d28 f6bc e1bd 0e3e c904 acbc a1f5 5fbd
00000140: bd7b d83d d214 a3bc 4260 35bd 9f54 ad3d
00000150: 32e2 843d 4c27 923c 7522 933d b00b 3bbd
00000160: 1658 bb3d f533 17bb f7ce 25bd 0382 033e
00000170: a6dd 31bd dd4f 0a3e e2fd d63d 1aff 1cbc
00000180: e68e a1bd 8bb7 a03d face 123e fe25 d63d
00000190: 9fb1 f23d ba6f 64bd 2825 e73d f29b d4bc
000001a0: 7368 7bbd 5d15 a93d b016 9abc 37b3 013e
000001b0: 8d9c 143e 4a1d b43d 68be 0d3e a643 e43d
000001c0: 740b c73d 1754 2ebd b72d 1abd 38be 73bd
000001d0: 61bb 87bd ebb8 0f3e d533 103e 87ca f8bc
000001e0: af6a 7c3d 5657 f7bc c9fa a3bd 7fa8 84bd
000001f0: f750 de3d d4ba 83bd c1bb ef3d aeb2 e73d
