ckpt/ppo_ep400.pt (torch, 151697 bytes, 12 tensors)

log_std f4 [8]
0	0x3bbe1435	0.0058007487
1	0x3bd465c6	0.006481859
2	0x3c07661f	0.008264094
3	0xbb7e23b1	-0.0038778598
4	0x3aa6edb4	0.0012735636
5	0xbb907352	-0.0044082785
6	0x3bb66f73	0.005567485
7	0xbbe9b593	-0.007132241

pi_body.0.weight f4 [128, 9]
0	0x3e8189b2	0.25300366
1	0x3e8fe26c	0.28102434
2	0xbd9f4aa4	-0.077779084
3	0x3e9cb748	0.30608582
4	0xbd969714	-0.073530346
5	0x3d95d7f6	0.07316582
6	0xbe27797e	-0.1635494
7	0x3e4b8768	0.19875872
8	0x3e972fea	0.29528743
9	0xbe847d18	-0.2587669
10	0x3e8c02ac	0.27345788
11	0x3d56f766	0.05248203
12	0x3e7085c6	0.2348853
13	0x3d057b08	0.032588035
14	0x3e12cc6b	0.14335792
15	0xbd7228a5	-0.059120793
16	0x3e72a325	0.23695047
17	0x3d03cf1e	0.032179944
18	0xbe1f5918	-0.1556133
19	0x3da3655d	0.07978318
20	0xbe1d43c8	-0.15357888
21	0xbd354ce7	-0.044262793
22	0xbe0aa2a8	-0.13538611
23	0x3e5d1f36	0.21593937
24	0xbe86b81c	-0.2631234
25	0xbe1d5bb3	-0.15367012
26	0xbdcb5c16	-0.099296734
27	0xbe53c102	-0.20679095
28	0x3ca118c5	0.019665131
29	0xbeaaf911	-0.33393148
30	0x3e972f6d	0.2952837
31	0xbe97b1d0	-0.29627848
32	0x3e7e1c8c	0.24815577
33	0x3d48cc9e	0.049023263
34	0xbde3584d	-0.111008264
35	0x3e49dcc4	0.19713122
36	0x3d45c85e	0.04828679
37	0x3e84d281	0.25941852
38	0x3d0131b9	0.03154156
39	0xbde502b8	-0.11182159
40	0x3da514c0	0.080605984
41	0xbdbd4375	-0.09241382
42	0x3e130135	0.14355929
43	0x3e96806f	0.29394862
44	0x3e3fea41	0.18741705
45	0xbe1c8623	-0.15285544
46	0x3e422b0e	0.18961737
47	0x3d5d7c48	0.054073602
48	0x3e28172f	0.16415094
49	0xbe571e9f	-0.21007775
50	0xbeab6465	-0.33475032
51	0xbe07d8c8	-0.13266289
52	0xbe845d83	-0.25852594
53	0x3e894031	0.26806787
54	0x3dca0827	0.09864836
55	0x3e12eeb6	0.14348873
56	0x3dd607dc	0.10450718
57	0xbbbf763b	-0.0058429516
58	0x3e860245	0.26173607
59	0xbe70f6eb	-0.23531692
60	0x3cb1beea	0.02169748
61	0xbe643111	-0.22284342
62	0x3dd6ecef	0.1049441
63	0xbde35e2a	-0.11101945
64	0x3dda6f2d	0.10665736
65	0xbd9b60c8	-0.07586819
66	0x3e8dbf20	0.2768488
67	0xbe3f444a	-0.18678394
68	0xbe4ca594	-0.19985038
69	0xbe49d516	-0.19710192
70	0x3e995316	0.29946202
71	0x3de7be37	0.113155775
72	0x3ea12ffe	0.31481928
73	0xbe8edced	-0.27902928
74	0xbeb130ff	-0.34607694
75	0xbe874719	-0.2642143
76	0xbe6bfa78	-0.23044765
77	0x3dfd505c	0.12368843
78	0x3de4cf0c	0.111723036
79	0x3e87f28e	0.26552242
80	0xbe39cef4	-0.18145353
81	0xbe60078a	-0.21877876
82	0x3e43c129	0.19116654
83	0xbe01c6ab	-0.12673442
84	0x3e5841cc	0.2111885
85	0xbd83bd04	-0.06432536
86	0x3e4fcc57	0.20292793
87	0xbe7f5c52	-0.24937561
88	0xbe1d6ec7	-0.1537429
89	0x3debf712	0.11521734
90	0x3d8b571d	0.06803725
91	0xbdc70829	-0.09718353
92	0x3e445b01	0.1917534
93	0x3e63c639	0.22243585
94	0xbe7b013c	-0.2451219
95	0xbe3ed1c9	-0.18634714
96	0x3e9b2f54	0.30309546
97	0xbdf92d8d	-0.12166891
98	0xbe000ab0	-0.12504077
99	0xbea4d892	-0.3219648
100	0xbe3cae46	-0.18425855
101	0x3da99334	0.0828003
102	0xbd4deb29	-0.050273094
103	0xbe80141f	-0.2501535
104	0x3be048c9	0.006844614
105	0xbe65a5f2	-0.22426584
106	0xbe904b77	-0.28182575
107	0xbe3b97af	-0.18319581
108	0xbe9409af	-0.28913638
109	0xbe59972a	-0.21249071
110	0x3ea5c6d6	0.32378262
111	0x3d70b8fe	0.058770172
112	0x3dc5738f	0.09641182
113	0xbe9fcba3	-0.3121005
114	0xbe62b8d0	-0.22140813
115	0xbdfa411a	-0.122194484
116	0x3d354e47	0.044264104
117	0xbe975469	-0.29556587
118	0xbe0e034b	-0.13868444
119	0xbe47ff01	-0.1953087
120	0x3be2581a	0.006907475
121	0xbdf610ba	-0.12014909
122	0xbca276e2	-0.019832078
123	0xbe6331df	-0.22186993
124	0xbe65a3e8	-0.22425807
125	0xbe41df9d	-0.18932958
126	0xbdf58975	-0.119891085
127	0xbe8ac1e1	-0.27101043
128	0x3e8b4685	0.2720224
129	0xbd9142d1	-0.07092822
130	0x3e8e60ae	0.27808136
131	0x3dd11614	0.10209289
132	0xbe91f915	-0.28510347
133	0x3e663766	0.2248207
134	0xbdca8cca	-0.09890135
135	0xbe05fc9e	-0.13084647
136	0xbe8e3612	-0.27775627
137	0xbeacdd2e	-0.33762497
138	0x3dbe4ecc	0.09292373
139	0xbd987531	-0.074442275
140	0x3e01711b	0.12640803
141	0xbe8b9d99	-0.27268675
142	0x3e7bc410	0.2458651
143	0xbe7d527b	-0.24738495
144	0xbd59a308	-0.053133994
145	0x3d93f739	0.07224888
146	0x3e30e60e	0.17275259
147	0x3e8b53be	0.27212328
148	0x3e9e0d2b	0.3086942
149	0xbe85fc92	-0.26169258
150	0x3dbac322	0.0911925
151	0xbe1201af	-0.14258455
152	0xbd05cc00	-0.032665253
153	0xbe72216a	-0.23645559
154	0x3ea1906c	0.31555498
155	0xbe73279e	-0.23745582
156	0x3e3f5ec1	0.1868849
157	0x3e02a558	0.12758386
158	0x3dfe0abf	0.124043934
159	0xbe3095ca	-0.1724464
160	0x3e9eb7ed	0.309997
161	0x3dadd5b7	0.084880285
162	0x3d162083	0.0366521
163	0xbe9821af	-0.297132
164	0x3e0b598a	0.13608375
165	0xbd4826ca	-0.048865117
166	0xbe1ade26	-0.15123805
167	0x3e8f0a10	0.27937365
168	0x3d8d85bf	0.06910276
169	0xbe4e277e	-0.20132253
170	0xbe325234	-0.1741417
171	0x3ad16907	0.0015976735
172	0x3e4eac81	0.20182993
173	0xbd8ce593	-0.06879725
174	0xbe3c8364	-0.18409497
175	0xbdc5562e	-0.09635578
176	0xbe6f94d0	-0.23396611
177	0x3e0a65a3	0.13515334
178	0x3e8dbe9a	0.2768448
179	0xbe96bb36	-0.29439706
180	0x3d83174a	0.064009264
181	0x3e210237	0.15723501
182	0x3d52a02d	0.051422287
183	0xbe049053	-0.1294568
184	0x3e26a3fa	0.1627349
185	0x3e27147b	0.16316406
186	0x3de4cc9f	0.11171841
187	0xbd93e564	-0.07221487
188	0xbdd25c5d	-0.10271523
189	0x3cdf3791	0.027248176
190	0xbd94ecef	-0.07271754
191	0xbdcc98dd	-0.09990094
192	0x3e50c0bd	0.20386024
193	0x3e8c56d9	0.2741001
194	0xbd276b09	-0.04087356
195	0xbda18d82	-0.078883186
196	0xbb92341a	-0.0044617774
197	0xbcf30315	-0.029664556
198	0x3d94e7da	0.07270785
199	0x3daa5daf	0.0831865
200	0xbe9d11ea	-0.3067773
201	0xbe02a933	-0.12759857
202	0x3e8ae9af	0.2713141
203	0x3df9d91d	0.12199614
204	0xbca15c17	-0.019697232
205	0xbe59957a	-0.21248427
206	0xbe594869	-0.21219029
207	0xbe97c3d7	-0.296416
208	0xbde183d5	-0.11011473
209	0x3def69bc	0.11690089
210	0x3e56c25a	0.20972577
211	0x3e1f21bb	0.15540211
212	0xbe96586a	-0.2936433
213	0xbe476a9c	-0.19474262
214	0xbd74a2c9	-0.059725557
215	0x3ea5949b	0.3233994
216	0x3d395499	0.045246694
217	0xbdb43310	-0.08798802
218	0x3e0cf884	0.13766676
219	0xbe046635	-0.12929614
220	0xbe649397	-0.22321926
221	0x3e71eb91	0.23625018
222	0xbe240ee6	-0.16021308
223	0xbd91f7f8	-0.071273744
224	0xbeac45e9	-0.33647087
225	0x3e6a7c8e	0.22899076
226	0x3e82f125	0.25574604
227	0x3e0217fe	0.12704465
228	0xbe69c0f9	-0.2282752
229	0xbea58610	-0.32328844
230	0xbe85f73f	-0.26165196
231	0x3e84d5b6	0.25944299
232	0x3e2ad1e0	0.16681623
233	0x3e937810	0.28802538
234	0x3e418439	0.18898095
235	0x3dc8781b	0.09788533
236	0xbae43dfe	-0.0017413495
237	0xbe78bf00	-0.2429161
238	0xbe8b71a1	-0.2723513
239	0xbe9b6059	-0.30346945
240	0x3e16f9f4	0.14743787
241	0xbe2185ca	-0.15773693
242	0xbd62cbb1	-0.055370037
243	0xbe3e1d43	-0.1856585
244	0xbd80bbed	-0.06285844
245	0xbe7016df	-0.23446225
246	0xbe603c48	-0.21897995
247	0x3ddf2795	0.108962215
248	0xbdc72787	-0.09724336
249	0x3e523064	0.20526272
250	0xbde0439a	-0.10950394
251	0xbe7afb2c	-0.24509877
252	0xbd6f39c5	-0.058404703
253	0xbe1e7ce6	-0.15477332
254	0xbdc2b87d	-0.095078446
255	0xbea0f4b8	-0.31436706

pi_body.0.bias f4 [128]
0	0x3dcccd69	0.100001164
1	0x3d3b349f	0.04570448
2	0xbe4db807	-0.20089732
3	0x3d303f81	0.043029312
4	0x3ea223e2	0.31668
5	0x3e67be1d	0.22631116
6	0xbe83c4ef	-0.25736186
7	0x3e9c7755	0.30559793
8	0x3c7a6f18	0.015285276
9	0x3e324f9e	0.17413184
10	0x3e8157d5	0.25262323
11	0x3e92b613	0.28654537
12	0xbe8990c4	-0.2686826
13	0x3e97bfda	0.2963856
14	0xbe6e6b9c	-0.23283237
15	0x3caac219	0.020844506
16	0xbe6954cc	-0.22786254
17	0xbd7aefe3	-0.06126393
18	0xbc9db2f4	-0.01925037
19	0xbcae1749	-0.021251338
20	0xbd867ae0	-0.06566405
21	0x3c936f2e	0.01799735
22	0x3ea3fd5e	0.3202924
23	0x3e47abc5	0.19499119
24	0x3e3cb6e8	0.18429148
25	0x3e113dc4	0.14183718
26	0x3e8939e4	0.2680198
27	0xbc80b03b	-0.015709033
28	0x3d0c7353	0.03428967
29	0x3d8af6cd	0.06785355
30	0xbe961eae	-0.29320282
31	0xbe897b52	-0.26851898
32	0x3d34bc4d	0.04412489
33	0xbe058bf8	-0.13041675
34	0xbc4a2504	-0.012337927
35	0xbd99efee	-0.07516466
36	0x3d436310	0.047701895
37	0x3e5b0694	0.21389228
38	0xbde53d93	-0.11193385
39	0x3e89b6f2	0.2689739
40	0x3e8575b3	0.2606636
41	0xbe81e175	-0.25367323
42	0xbe7ba891	-0.24576022
43	0xbe8eeb31	-0.27913812
44	0xbe4071d2	-0.18793419
45	0xbe051d4d	-0.12999459
46	0xbcab9b55	-0.020948092
47	0xbd943e4f	-0.07238447
48	0xbe27935a	-0.16364804
49	0xbdcd2822	-0.1001742
50	0xbdfa6358	-0.122259796
51	0x3eab5ce9	0.33469322
52	0xbde8cf51	-0.113676675
53	0xbe74651e	-0.23866698
54	0x3e0d4751	0.13796736
55	0xbca1be40	-0.019744039
56	0x3e883336	0.2660157
57	0x3e482b55	0.1954778
58	0x3e9c63d7	0.30544922
59	0xbe79700b	-0.24359147
60	0x3e5f3644	0.21798044
61	0x3e8ef436	0.27920693
62	0xbe270149	-0.16309084
63	0x3e9c3e05	0.30516067
64	0x3e801bff	0.2502136
65	0x3b55dcbc	0.0032632789
66	0x3e2baee1	0.1676593
67	0xbde18e17	-0.110134296
68	0xbe951e39	-0.2912462
69	0x3da9dbe7	0.08293896
70	0x3dc92b03	0.09822657
71	0xbe604ba2	-0.21903852
72	0x3e1d9e1c	0.15392345
73	0xbe9569a6	-0.29182166
74	0x3e914ff6	0.28381318
75	0x3ea45ca1	0.3210192
76	0x3da77ae7	0.08177739
77	0xbe4c6922	-0.1996198
78	0x3e214aac	0.15751141
79	0x3d45cb95	0.048289854
80	0x3db84a1b	0.089985095
81	0x3ddc059d	0.10743258
82	0x3e880601	0.2656708
83	0xbe1c6b3e	-0.15275285
84	0xbda4eca4	-0.08052948
85	0x3dd06eb5	0.10177366
86	0x3ce62660	0.02809447
87	0x3e885c5c	0.26632965
88	0xbe35599c	-0.17709965
89	0xbc27ed11	-0.010249392
90	0x3d865e70	0.06560981
91	0xbdacbc0c	-0.084343046
92	0x3e74b197	0.2389587
93	0x3d234702	0.03986264
94	0xbe9e979f	-0.30975053
95	0xbd148fdc	-0.036270007
96	0xbe1e80d0	-0.15478826
97	0x3cd2fa2d	0.025754059
98	0xbd30ba84	-0.043146625
99	0xbea94a44	-0.33064473
100	0xbd5dc50c	-0.054142997
101	0xbd1d6b4b	-0.0384324
102	0xbdce2a91	-0.10066713
103	0x3e9f5782	0.3112145
104	0xbd91bed0	-0.07116473
105	0x3e61d00c	0.2205202
106	0x3daba6ec	0.08381447
107	0xbe90e413	-0.28299007
108	0x3db32446	0.08747153
109	0x3e8b0d63	0.2715865
110	0xbe5d4744	-0.21609217
111	0xbe5ca11b	-0.21545832
112	0x3ea069aa	0.31330615
113	0x3e8ae0ac	0.27124536
114	0xbe37801b	-0.17919962
115	0x3e59bb26	0.21262798
116	0xbd3e7b9a	-0.046504594
117	0xbea878ff	-0.32904813
118	0x3c2d8921	0.010591776
119	0x3de075d8	0.10959977
120	0xbdb20a72	-0.086933985
121	0x3dff6d1f	0.12471985
122	0xbe966542	-0.2937413
123	0x3e6b8dcc	0.2300331
124	0x3e924689	0.2856944
125	0x3e390dd8	0.18071687
126	0x3d60a643	0.05484606
127	0x3deede93	0.116635464

pi_body.2.weight f4 [128, 128]
0	0xbd855136	-0.065096304
1	0xbcd082e8	-0.025453046
2	0xbc0a4076	-0.00843822
3	0xbd5764ad	-0.052586246
4	0xbd88653f	-0.06659936
5	0x3d72d074	0.059280828
6	0x3d7bd8a4	0.0614859
7	0xbda91ce0	-0.082574606
8	0x3cefd218	0.029274985
9	0x3ce9b5d0	0.028529078
10	0x3daeee67	0.085415654
11	0x3d517574	0.051137403
12	0x3da66aef	0.08125865
13	0xbced0e33	-0.028937435
14	0x3d6426dc	0.05570112
15	0x3d933dca	0.0718952
16	0xbda60bff	-0.08107757
17	0xbd8fee70	-0.070279
18	0x3c92bbd3	0.017911827
19	0x3d303b4e	0.043025307
20	0xbd362bc6	-0.04447534
21	0x3c0712b1	0.0082442025
22	0xbaaf45c5	-0.0013372233
23	0x3c9af936	0.018917661
24	0xbd3aab1f	-0.04557335
25	0x3d4b8459	0.049686763
26	0x3d7d9fae	0.06191986
27	0xbd7b341a	-0.061328985
28	0xb9aefb62	-0.0003337516
29	0x398093d2	0.00024524197
30	0x3ccb8cad	0.024847353
31	0x3da8a282	0.08234121
32	0x3d0fd484	0.03511478
33	0xbca486ba	-0.020083774
34	0x3d955c86	0.07293038
35	0xbd108792	-0.03528554
36	0xbcc12af5	-0.023580054
37	0x3bb517b6	0.005526508
38	0xbd89d90b	-0.06730851
39	0x3c0f162d	0.008733314
40	0xbd8081a0	-0.06274724
41	0x3b9d71de	0.004804834
42	0x3bb5aea0	0.0055444986
43	0x3c487460	0.012234777
44	0xbd98a71e	-0.0745375
45	0xbdabede8	-0.083949864
46	0x3d42cf21	0.047560815
47	0x3d9c656c	0.07636532
48	0xbda0a1ae	-0.07843338
49	0x3d073143	0.033005964
50	0xbd97b5fc	-0.07407758
51	0x3bf8b07d	0.0075893984
52	0x3da51362	0.080603376
53	0x3d895322	0.067053095
54	0xbd85ded3	-0.06536641
55	0x3d5812d8	0.052752346
56	0x3d52c062	0.051453
57	0xbb4dc083	-0.0031395264
58	0x3dac534d	0.08414326
59	0xbd1da1ec	-0.0384845
60	0xbcb6c31b	-0.02230983
61	0xbd444b43	-0.047923338
62	0x3c2c5663	0.010518643
63	0x3ce3342a	0.027734835
64	0x3ba38c48	0.004991088
65	0xbd3eeb1d	-0.04661094
66	0xbd3d6afd	-0.04624461
67	0x3ce60636	0.028079133
68	0xbda668fd	-0.08125494
69	0xbc28ea33	-0.010309744
70	0xbb0050d2	-0.0019579423
71	0xbd12af5c	-0.035811767
72	0x3cf7351d	0.030176694
73	0xba70bb09	-0.0009183144
74	0x3d7b8a93	0.06141145
75	0xbbeff0ff	-0.00732243
76	0xbd6f5425	-0.058429856
77	0x3d7f9d22	0.062405713
78	0x3c01074c	0.007875275
79	0xbd08c0aa	-0.033386864
80	0xbd6a1d69	-0.057156954
81	0x3c9fd440	0.019510388
82	0xbdaf7126	-0.08566503
83	0x3c911fe5	0.017715404
84	0x3d330213	0.04370315
85	0xbd979056	-0.07400577
86	0xbd6d0448	-0.05786541
87	0xbd77f34e	-0.060534768
88	0x3d8c0bff	0.068382256
89	0x3d9984ba	0.07496019
90	0x3b79536a	0.0038044103
91	0x3da7e2b9	0.08197541
92	0xbcfaa974	-0.03059838
93	0xbdafbcd3	-0.08580937
94	0x3cd93016	0.026512187
95	0x3ceb403f	0.028717158
96	0x3dab3344	0.083593875
97	0xbb21372a	-0.002459953
98	0x3d848710	0.06471074
99	0x3d5deaa6	0.054178856
100	0x3d7eb057	0.06217989
101	0xbdba0393	-0.09082713
102	0x3d8febb8	0.07027382
103	0xbd978d3e	-0.07399987
104	0x3da2492d	0.079241134
105	0xbbe450e6	-0.0069676517
106	0xbda8db68	-0.082449734
107	0x3caaa80b	0.020832082
108	0xbc9b7bed	-0.01897999
109	0xbda5b690	-0.08091462
110	0xbd057eb8	-0.03259155
111	0x3c154ff0	0.009113297
112	0x3d894b37	0.06703799
113	0xbcec6fe2	-0.028861944
114	0x3d5edab6	0.054407798
115	0x3c44ce31	0.0120120505
116	0x3b3aed78	0.002852289
117	0x3c8a8c6e	0.016912665
118	0xbd6f07f8	-0.05835721
119	0xbd9290ec	-0.07156548
120	0xbcf1327e	-0.029443022
121	0xbdad1caa	-0.08452733
122	0xbd32011b	-0.043458086
123	0x3baea77b	0.005330024
124	0xbd6e3d3e	-0.058163874
125	0xbd1821f2	-0.037141748
126	0xbc54f5c7	-0.012998051
127	0xbc26d512	-0.010182636
128	0xbd53ecbd	-0.051739443
129	0x3b345a7c	0.0027519753
130	0xbc4b4380	-0.01240623
131	0x3c852673	0.016253686
132	0x3b499941	0.0030761512
133	0xbd1a4ed7	-0.037672844
134	0xbd014438	-0.0315592
135	0xbb174e0e	-0.0023087296
136	0xbd69e56d	-0.057103563
137	0x3b8c8dcc	0.0042893644
138	0x39c73c98	0.00038001384
139	0x3d27518e	0.04084926
140	0x3c8e3281	0.017358067
141	0x3d767899	0.060173605
142	0xbc523eea	-0.012832383
143	0xbd86e713	-0.06587043
144	0x3d4890b8	0.04896614
145	0xbd873e44	-0.06603673
146	0xbc423408	-0.0118532255
147	0xbd1c2d6e	-0.038129263
148	0xbd0c5e8c	-0.034269854
149	0xbcff5da7	-0.031172587
150	0x3da6f989	0.08153064
151	0x3d603904	0.054741874
152	0x3cbe5ffb	0.023239126
153	0x3da8d3fd	0.082435586
154	0xbda72c53	-0.08162751
155	0x3c929d83	0.017897373
156	0x3d6de42f	0.05807894
157	0x3d7e7ade	0.062128894
158	0xbd95a644	-0.07307103
159	0x3d00d885	0.03145649
160	0xbd6e8002	-0.058227547
161	0xbb6256fb	-0.0034536708
162	0xbcb882f9	-0.02252339
163	0xbd9bf59d	-0.076152064
164	0xbdb63864	-0.088974744
165	0xbd789ec5	-0.06069829
166	0x3d2e074f	0.04248744
167	0x3d20afcc	0.039230153
168	0xbd8ad0ed	-0.06778131
169	0xbd26553f	-0.04060864
170	0xb92406f6	-0.00015642852
171	0xbd9f2a2a	-0.07771714
172	0x3d5c6643	0.053808462
173	0x3da6b869	0.08140642
174	0x3c245335	0.010029604
175	0xbd984284	-0.07434562
176	0x3ca8d84f	0.020610956
177	0x3d0f36dd	0.03496443
178	0x3d8f78a1	0.0700543
179	0xbd2c7d42	-0.042111643
180	0xbda7ee67	-0.081997685
181	0x3d1f0fd9	0.038833473
182	0x3bfd0bd0	0.0077223554
183	0xbd007f9c	-0.031371698
184	0xbd245894	-0.040123537
185	0xbd4ca801	-0.04996491
186	0x3d9179fb	0.07103344
187	0xba95e9b0	-0.0011437442
188	0x3d843c04	0.064567596
189	0x3d9f7938	0.077867925
190	0x3c18f9be	0.009336887
191	0x3c94a566	0.018145274
192	0xbc040323	-0.0080573885
193	0x3d90730c	0.070531934
194	0xbda6ac01	-0.08138276
195	0x3cc6d917	0.024273438
196	0xbcb80158	-0.022461578
197	0x3d2f3557	0.04277548
198	0xbbeb0305	-0.007171991
199	0xbd231e2e	-0.039823703
200	0xbc1bba05	-0.0095048
201	0x3d3ff839	0.046867583
202	0xbd7ae79a	-0.06125603
203	0xbd67771b	-0.056510072
204	0xbcf78bcf	-0.030218033
205	0xbcf9ed8e	-0.030508783
206	0x3cf08c6b	0.029363832
207	0x3d62c9fb	0.055368405
208	0x3b8f9b1f	0.0043825055
209	0x3dad6943	0.08467343
210	0xbd1a4da4	-0.0376717
211	0xbd4c23ec	-0.049838945
212	0xbd221523	-0.03957094
213	0xbd76baba	-0.06023667
214	0xbd699087	-0.057022598
215	0xbd95ef6d	-0.073210575
216	0xbdab7d24	-0.08373478
217	0x3cce6865	0.025196264
218	0x3d624fb4	0.055251792
219	0x3da19a9f	0.0789082
220	0x3d9c75c1	0.07639647
221	0xbba6cf26	-0.005090612
222	0x3c98fd2c	0.01867541
223	0xbd642c39	-0.055706237
224	0x3d04ac93	0.032391142
225	0xbdb0d22d	-0.08633838
226	0x3d28a02b	0.041168373
227	0x3c84ce99	0.016211795
228	0x3cae8c1f	0.02130705
229	0x3d137587	0.036000755
230	0xbd35091b	-0.044198137
231	0x3da5d9ab	0.080981575
232	0x3d2cc8ab	0.04218356
233	0x3d6161fd	0.05502509
234	0x3c2ce810	0.010553375
235	0x3d55409e	0.052063577
236	0x3d74b1f0	0.059740007
237	0x3d201caf	0.039089855
238	0x3d8e4ab9	0.06947846
239	0xbc8354e5	-0.016031692
240	0x3d67f5e7	0.056630995
241	0x3c807450	0.015680462
242	0x3d6928bb	0.05692361
243	0x3db1c28b	0.08679684
244	0x3d1518da	0.036400653
245	0xbd066075	-0.032806832
246	0xbc2cad7f	-0.010539412
247	0x3cc3f136	0.02391873
248	0x3c01791c	0.00790241
249	0xbcbcb275	-0.023034314
250	0x3d637bf4	0.055538133
251	0x3d6bbc20	0.057552457
252	0xbd5435ef	-0.051809248
253	0xbaa17ae8	-0.0012319954
254	0xbb061e20	-0.0020464733
255	0xbd55da99	-0.052210424

pi_body.2.bias f4 [128]
0	0xbc6572a2	-0.014004381
1	0xbd88ffdc	-0.06689426
2	0x3db5cebe	0.088773236
3	0x3cf78a58	0.030217335
4	0x3c055315	0.008137484
5	0x3cfb7e98	0.030700013
6	0x3d2a6183	0.0415969
7	0xbdb2432f	-0.087042205
8	0x3d89282a	0.06697114
9	0x3d8a3f98	0.06750411
10	0x3befff19	0.007324111
11	0xbcf5c366	-0.0300004
12	0x3c9a4e4d	0.018836165
13	0x3c1f961e	0.009740381
14	0x3c7d16c6	0.015447324
15	0xbd60e59b	-0.05490647
16	0x3d47ad6f	0.048749384
17	0x3bb15af9	0.005412456
18	0x3b391458	0.0028240886
19	0xbd187577	-0.0372214
20	0x3d9586f8	0.07301134
21	0xbd8c981e	-0.068649516
22	0xbcfc9bdc	-0.030836038
23	0xbd87526b	-0.06607517
24	0x3d811397	0.063025646
25	0xbd18e652	-0.037329026
26	0x3b610470	0.003433492
27	0xbbfa3d72	-0.0076367194
28	0x3d9965dd	0.07490132
29	0xbda4db77	-0.08049672
30	0xbd19d629	-0.037557755
31	0xbdbc2016	-0.091858074
32	0xbd0573be	-0.032581083
33	0xbda23380	-0.07919979
34	0xbb9df2ce	-0.0048202043
35	0x3d130e56	0.035902344
36	0x3bce9751	0.0063046594
37	0x3b334d68	0.002735937
38	0xbcb70587	-0.022341503
39	0xbd85924f	-0.06522047
40	0xbbc5f8fb	-0.0060416437
41	0x3d849254	0.064732224
42	0x3c4e7850	0.012601927
43	0x3c02a018	0.00797274
44	0xbd13fa71	-0.03612751
45	0x3d61527e	0.05501031
46	0x3d5f4e7d	0.05451821
47	0x3cb98407	0.022645963
48	0x3d91dd7d	0.07122324
49	0x3b3af8a9	0.002852956
50	0x3adec374	0.0016995505
51	0x3d0fb381	0.035083298
52	0xbdae1651	-0.0850035
53	0x3d809534	0.06278458
54	0xbd39870f	-0.045294818
55	0xbd2c897a	-0.042123295
56	0xbc0e38d8	-0.008680545
57	0xbd90ec95	-0.070763744
58	0xbd690c17	-0.056896295
59	0x3da179dd	0.07884572
60	0xbc930635	-0.017947296
61	0x3d1fb2fa	0.038989045
62	0x3c44415b	0.011978473
63	0x3daa080b	0.08302315
64	0xbd484e1d	-0.04890262
65	0xbd4546af	-0.048163112
66	0x3da6f15b	0.08151504
67	0xbd7df422	-0.0620004
68	0xbdac393f	-0.08409356
69	0xbc57f7f9	-0.01318168
70	0x3d40901d	0.047012437
71	0x3d382a96	0.044962488
72	0xbd84101a	-0.06448384
73	0xbd82acc0	-0.06380606
74	0x3d23a8dc	0.03995596
75	0xbd62ff94	-0.05541952
76	0x3d3678fb	0.04454897
77	0xbcb74da7	-0.022375895
78	0xbd14122f	-0.036150154
79	0xbb88d91d	-0.0041762725
80	0x3d9bc8b2	0.07606639
81	0xbd743cf7	-0.059628453
82	0xbd8ec1f1	-0.06970585
83	0x3d2a34be	0.041554205
84	0x3d27d294	0.040972307
85	0xbc1d4f8d	-0.009601486
86	0x3d55da3c	0.052210078
87	0xbcda8865	-0.026676366
88	0xbd3ffe21	-0.046873216
89	0xbd8733e0	-0.06601691
90	0xbd394951	-0.045235936
91	0xbd6dc6f3	-0.05805106
92	0x3cd21917	0.02564673
93	0xbca7522e	-0.020424929
94	0x3d71e33a	0.05905459
95	0xbd070e3f	-0.03297257
96	0x3d40d1ed	0.0470752
97	0x3d948d61	0.072535284
98	0xbcbf9d67	-0.023390485
99	0xbd510588	-0.051030666
100	0x3d1cd90b	0.038292926
101	0xbdae18a4	-0.085007936
102	0x3d5fb6f4	0.054617837
103	0x3d58ff95	0.052978117
104	0x3b791be1	0.0038011002
105	0xbd6064e1	-0.054783706
106	0x3bd2381e	0.006415381
107	0x3d68ecc5	0.056866426
108	0x3c2c9fdf	0.010536163
109	0x3bf37ce2	0.0074306587
110	0x3d1dccc7	0.03852537
111	0x3d340ed4	0.043959454
112	0x3c9dfbfd	0.019285196
113	0xbd548457	-0.05188402
114	0xbbb984d3	-0.005661586
115	0xbd2f44a3	-0.042790066
116	0x3d6bd470	0.057575643
117	0xbd4a2305	-0.049349803
118	0x3d842ba0	0.06453633
119	0x3d1215d4	0.03566535
120	0xbdac388f	-0.08409225
121	0xbd17a662	-0.03702391
122	0xbc5ed71d	-0.013601092
123	0xbc9c2e13	-0.019064939
124	0xbbecab64	-0.00722258
125	0xbd3d002f	-0.046142753
126	0x3d852bc1	0.06502486
127	0x3d4d36a9	0.050100956

mu_head.weight f4 [8, 128]
0	0xbc5167b0	-0.012781069
1	0xbd06eb64	-0.03293933
2	0xbd82a348	-0.063788
3	0xbd44d722	-0.04805673
4	0xbd5bd6f1	-0.05367178
5	0x3d954cb3	0.0729002
6	0x3b5b8209	0.0033494255
7	0xbd4d4873	-0.05011792
8	0x3b66e84e	0.003523368
9	0x3b87445f	0.0041280235
10	0x3c8fc4f7	0.017549975
11	0x3cd0e585	0.025500068
12	0x3d824575	0.06360904
13	0xbd211147	-0.039323118
14	0xbc749cf5	-0.01493
15	0xbd9b5af3	-0.075857066
16	0xbcd47867	-0.025936319
17	0xbd9f273b	-0.077711545
18	0xbbb3666f	-0.0054748575
19	0xbd44fe25	-0.048093934
20	0xbcf6ff46	-0.03015102
21	0x3da35d00	0.07976723
22	0x3da45a82	0.080250755
23	0x3bb26fb3	0.0054454445
24	0x3d51642c	0.051120922
25	0x3d640d5d	0.055676807
26	0x3c8fe10b	0.017563364
27	0x3c978fd8	0.018501207
28	0x39af2826	0.00033408514
29	0xbd86e12b	-0.06585916
30	0x3d9d2558	0.076731384
31	0xbd830096	-0.06396596
32	0xbca6b336	-0.020349126
33	0xbd923b5d	-0.07140229
34	0xbd32ecda	-0.04368291
35	0x3dbb8318	0.091558635
36	0xbc1c0ee4	-0.009525035
37	0x3cf5ad43	0.029989844
38	0x3cb559d7	0.022137566
39	0x3d8f57df	0.06999182
40	0x3cc5f96b	0.024166783
41	0x3bf57ef0	0.007491939
42	0xbd123c17	-0.035701837
43	0x3c53dee5	0.01293156
44	0x3ca6be2a	0.02035435
45	0xbd72dcab	-0.059292477
46	0xbd86a064	-0.06573561
47	0xbd01cdd5	-0.031690437
48	0x3da5b536	0.08091204
49	0x3d1ddf17	0.038542833
50	0x3d4aadb4	0.049482062
51	0x3d7a4f9b	0.061111074
52	0xba671fde	-0.0008816699
53	0xbd5a5e07	-0.053312328
54	0x3dbc2a7b	0.0918779
55	0x3cbd2175	0.023087243
56	0xbd0d780e	-0.03453832
57	0x3d305074	0.043045476
58	0xbd7e34a0	-0.062061906
59	0x3bcb966c	0.006213
60	0x3db4349e	0.087990984
61	0x3d0b718b	0.03404383
62	0xbda3db67	-0.08000832
63	0x3d964ff8	0.073394716
64	0x3c989919	0.01862769
65	0xbc9da330	-0.019242853
66	0x3d94ca21	0.072651155
67	0x3d1a813f	0.037720915
68	0x3d532c16	0.051555716
69	0x3d34ac11	0.044109408
70	0xbd5740a8	-0.052551895
71	0xbd781fbf	-0.06057715
72	0x3d87ab07	0.06624418
73	0x3ad79954	0.0016448894
74	0x3db304a9	0.08741123
75	0x3d210fdd	0.03932177
76	0xbdae54d2	-0.08512272
77	0x3d2934b5	0.04131003
78	0x3d355c3d	0.04427742
79	0xbdbfacb9	-0.09359116
80	0x3c13dae0	0.009024352
81	0xbd92ca00	-0.07167435
82	0x3d299bc1	0.041408304
83	0x3d563bac	0.052303
84	0x3d14b328	0.03630367
85	0x3d61719e	0.055039994
86	0xbd581f8a	-0.052764453
87	0xbb620b3d	-0.0034491562
88	0xbca9c94c	-0.020725869
89	0x3d882b7b	0.06648918
90	0x3d6c0d05	0.057629604
91	0xbcf5ed6f	-0.030020444
92	0xbd8a3333	-0.06748047
93	0xbb9dd2f5	-0.004816408
94	0x3d870559	0.06592817
95	0xbc515aec	-0.012778025
96	0x3d12b0b4	0.03581305
97	0xbd64ef8c	-0.055892512
98	0xbd59b944	-0.0531552
99	0xbd99cd06	-0.07509808
100	0xbd93adf9	-0.07210917
101	0xbd3508d2	-0.044197865
102	0xbd2b2bf5	-0.041789968
103	0x3d14aed0	0.036299527
104	0x3d9763ca	0.0739208
105	0x3c31ecae	0.0108596515
106	0x3cfefc14	0.03112606
107	0xbd68ff0c	-0.056883857
108	0xbd2e8599	-0.042607877
109	0xbdad7319	-0.08469219
110	0x3da980d2	0.08276524
111	0x3c6603e8	0.014039017
112	0xbcc66863	-0.024219697
113	0xbda4d2cc	-0.08048019
114	0x3ca3732b	0.019952377
115	0xbdae057f	-0.08497142
116	0x3d846de8	0.064662755
117	0xbdad7567	-0.08469658
118	0x3c89ca5d	0.016820127
119	0x3d836280	0.06415272
120	0xbd8f58c1	-0.0699935
121	0x3d84f2ef	0.064916484
122	0x3da881d4	0.08227888
123	0x3d897cb7	0.067132406
124	0x3d9bac09	0.076011725
125	0xbd25ac23	-0.040447365
126	0xbc35f5ba	-0.011105949
127	0x3daee466	0.08539657
128	0x3d13c5aa	0.03607718
129	0xbd7e157e	-0.062032215
130	0x3dbe743c	0.09299514
131	0xbc41b50c	-0.01182295
132	0xbcc4719c	-0.023979954
133	0x3cd001f5	0.025391558
134	0x3dcab1e9	0.09897215
135	0xbd20caa1	-0.039255742
136	0x3cbf56f8	0.0233569
137	0x3bbbb726	0.00572862
138	0xbca29c54	-0.019849934
139	0x3d30b44c	0.043140694
140	0x3c92147a	0.01783203
141	0xbd783d5e	-0.0606054
142	0x3c427994	0.011869807
143	0x3d64b9e9	0.05584136
144	0xbd0baee8	-0.03410235
145	0x3da0d368	0.078528225
146	0xbd923c22	-0.07140376
147	0x3d07862e	0.033086948
148	0x3d61a64c	0.055090234
149	0x3d073b73	0.03301568
150	0x3cfb5a10	0.030682594
151	0x3ca49993	0.020092761
152	0xbc86ac1e	-0.016439494
153	0x3d8691fe	0.065708145
154	0xbc33e32e	-0.010979457
155	0x3da64998	0.08119506
156	0x3dc69c96	0.09697835
157	0xbd9280de	-0.07153486
158	0x3db4ef69	0.08834726
159	0x3ce6eb00	0.028188229
160	0xbd560c7b	-0.052257996
161	0xbd338363	-0.043826472
162	0xbc032dd4	-0.008006532
163	0x3db9692d	0.09053264
164	0x3d7d121f	0.06178486
165	0xbc8bcb77	-0.017064793
166	0xbd4ac771	-0.04950661
167	0xbd5e7c71	-0.054317895
168	0xbce6b494	-0.028162278
169	0x3c3372ee	0.010952694
170	0xbd857648	-0.06516701
171	0xbd9f96b5	-0.07792417
172	0xbd4ee8dc	-0.05051504
173	0x3d150eaa	0.036390938
174	0x3cf24a6c	0.029576503
175	0x3d0e9c89	0.034817252
176	0x3db5a927	0.08870154
177	0x3cbffe1e	0.023436602
178	0xbd0c9660	-0.034323096
179	0x3d44329b	0.047899824
180	0xbd28edcd	-0.04124241
181	0x3dbc0073	0.09179773
182	0xbc95b47b	-0.018274536
183	0xbd22da5f	-0.039759036
184	0xbc76a56c	-0.015054088
185	0xbd382bcd	-0.044963647
186	0xbc1170b5	-0.008876969
187	0x3b4dcd2c	0.003140281
188	0x3c801d81	0.015639069
189	0x3b21d1d8	0.0024691727
190	0xbd6e63fa	-0.058200814
191	0xbda06f69	-0.0783375
192	0xbd59ff1c	-0.053221807
193	0xbd97dcd7	-0.07415169
194	0xbd924967	-0.07142907
195	0x3db2c9cc	0.08729896
196	0x3d559384	0.052142635
197	0x3d583564	0.052785292
198	0x3d7116bc	0.05885957
199	0x3d280879	0.041023705
200	0xbc69c68d	-0.01426853
201	0x3c1710f1	0.009220348
202	0xbcb7a23c	-0.022416227
203	0x3d39a09c	0.045319185
204	0x3c9086d2	0.017642412
205	0xbd918c95	-0.07106892
206	0x3cb3b7eb	0.021938285
207	0xbd8637e1	-0.06553627
208	0x3d9c23a4	0.076239854
209	0x3c33fc2a	0.010985414
210	0x3b014492	0.001972471
211	0xbd50a93d	-0.05094265
212	0x3d02e986	0.031960987
213	0x3cc55fd9	0.024093555
214	0x3cf9da9e	0.030499753
215	0xbd748301	-0.059695248
216	0xbcf17828	-0.02947624
217	0xbd55ddcb	-0.05221347
218	0xbd53e8c3	-0.05173565
219	0xbd3b1dca	-0.045682706
220	0xbd5ce9a0	-0.05393374
221	0x3dae2090	0.085023046
222	0xbdabaf43	-0.08383038
223	0xbc53f5bb	-0.012937005
224	0x3b616279	0.003439097
225	0xbcd174c4	-0.025568374
226	0xbc9d7c5a	-0.019224335
227	0x3d208f7b	0.039199334
228	0xbc0a7932	-0.008451747
229	0xbce34b4d	-0.027745867
230	0x3d9e3b4b	0.07726153
231	0xbcaf8dbb	-0.021429887
232	0x3c5ad8e0	0.013357371
233	0x3d66524c	0.05623083
234	0xbcb44200	-0.022004128
235	0xbd8cfb49	-0.06883866
236	0x3d8855bc	0.066569775
237	0xbd927830	-0.0715183
238	0xbdb26a01	-0.08711625
239	0xbd15453c	-0.03644298
240	0x3c401999	0.011724853
241	0x3d8ee80b	0.069778524
242	0xbd7196b5	-0.058981616
243	0xbd14c41c	-0.036319837
244	0x3dc06c16	0.09395616
245	0x3d978899	0.07399101
246	0x3d20663b	0.039159995
247	0xbd80d614	-0.06290832
248	0x3d848106	0.06469922
249	0xbbb81001	-0.005617142
250	0xbd98838c	-0.074469656
251	0x3daad888	0.08342081
252	0xbd847e5a	-0.06469412
253	0x3cc5e41e	0.024156626
254	0xbd361006	-0.044448875
255	0x3dc0cc36	0.0941395

mu_head.bias f4 [8]
0	0x3d9c1bb2	0.0762247
1	0x3d603255	0.0547355
2	0xbd72f09a	-0.059311487
3	0xbd186495	-0.037205297
4	0xbcf8eb7a	-0.030385721
5	0x3d01102d	0.031509567
6	0x3d649686	0.055807613
7	0x3a833611	0.001001062

vf.0.weight f4 [128, 9]
0	0xbea51c66	-0.3224823
1	0xbe61ddc1	-0.22057249
2	0xbe1d9786	-0.15389833
3	0xbe65c3f0	-0.22438025
4	0x3e26462e	0.16237709
5	0x3bb8da46	0.0056412546
6	0xbe739b0b	-0.23789613
7	0xbe5e32e6	-0.21699104
8	0xbe816d9e	-0.25278944
9	0xbe4fc36a	-0.20289388
10	0x3e1a560a	0.15071884
11	0xbe1aedc8	-0.15129769
12	0xbe853287	-0.26015112
13	0x3cfee69b	0.03111582
14	0xb8d21bc8	-0.00010018755
15	0xbe7f52d3	-0.24933939
16	0x3de64ee1	0.11245514
17	0x3d5ca269	0.053865824
18	0x3d721986	0.059106372
19	0x3e229f65	0.15881117
20	0xbe26afaa	-0.16277948
21	0xbe8b09ec	-0.27156007
22	0x3e5a0183	0.21289639
23	0x3e9c86d2	0.3057161
24	0x3ea2da61	0.31807235
25	0x3e46fe1f	0.19432877
26	0x3e937903	0.28803262
27	0x3df8dae4	0.12151125
28	0xbe87a940	-0.26496315
29	0x3def951f	0.116983645
30	0xbe818cd9	-0.2530277
31	0xbe9a00b2	-0.30078655
32	0x3e111d6d	0.14171381
33	0xbe22766a	-0.15865484
34	0xbe7209af	-0.23636506
35	0x3ea95b26	0.33077353
36	0x3e051813	0.12997465
37	0x3e23c931	0.15994717
38	0xbdb80248	-0.0898481
39	0x3e1c9877	0.15292536
40	0x3c51bada	0.012800897
41	0xbd913d3a	-0.07091756
42	0xbd34233c	-0.043978915
43	0x3e9021d5	0.28150812
44	0xbe65cfc4	-0.22442538
45	0xbda570a2	-0.08078124
46	0x3e8dcc4b	0.27694926
47	0x3bf27512	0.00739921
48	0x3e42a0fa	0.1900672
49	0xbdf30d1e	-0.11867736
50	0x3e820df0	0.25401258
51	0xbe6366c3	-0.22207169
52	0xbe1d25fc	-0.15346521
53	0xbe894eb7	-0.26817867
54	0xbe754ea1	-0.23955776
55	0x3e75a0fb	0.2398719
56	0x3e80886a	0.25104076
57	0x3e60d7ce	0.21957323
58	0x3e505437	0.20344625
59	0x3e813056	0.2523219
60	0x3e7e8dcb	0.24858777
61	0x3e6bd56a	0.2303063
62	0xbe114bc9	-0.14189066
63	0x3e8b9dc7	0.27268812
64	0x3e7982f2	0.24366358
65	0x3deedda2	0.11663367
66	0xbd1e1424	-0.038593426
67	0x3e97d80f	0.29657027
68	0xbb9d3655	-0.0047977366
69	0xbe970e6d	-0.29503193
70	0xbdd4f403	-0.10398104
71	0xbc8bbfe3	-0.017059272
72	0x3e445d0b	0.19176118
73	0x3df33094	0.118745
74	0x3dab3c77	0.08361142
75	0x3ea0e6df	0.3142614
76	0x3e704d39	0.23466958
77	0xbe2db5c6	-0.16963872
78	0xbdc378d1	-0.09544528
79	0xbb53e828	-0.003233442
80	0xbc91449b	-0.017732909
81	0xbe821fec	-0.2541498
82	0xbdcdac04	-0.10042575
83	0x3e7a5a9c	0.24448627
84	0xbea575b2	-0.32316357
85	0x3d20db06	0.039271377
86	0x3d42b854	0.04753907
87	0xbde990c4	-0.11404565
88	0xbde83780	-0.11338711
89	0xbe3478dd	-0.1762423
90	0xbe821738	-0.2540834
91	0xbe855c35	-0.2604691
92	0x3e53c592	0.20680836
93	0x3cba663f	0.022753833
94	0x3d2a6372	0.041598745
95	0xbccc105e	-0.024910148
96	0xbe95922e	-0.2921309
97	0xbd3e710a	-0.04649452
98	0xbe8c2c37	-0.27377483
99	0x3e5b5b1d	0.21421476
100	0xbd8c3cfd	-0.0684757
101	0xbd878262	-0.066166654
102	0x3e24ee94	0.16106635
103	0xbe3818da	-0.1797823
104	0xbe2ce5c1	-0.16884519
105	0xbe09fd11	-0.13475443
106	0xbcd8058a	-0.026369829
107	0xbe280544	-0.16408259
108	0xbe81b157	-0.25330612
109	0x3e52c024	0.20581108
110	0x3e6647a5	0.22488268
111	0xbd996d48	-0.07491547
112	0xbe5a8e54	-0.21343356
113	0x3e8a12d6	0.26967496
114	0xbe2c3271	-0.16816117
115	0xbe502d04	-0.20329672
116	0xbe791bf7	-0.24327074
117	0x3deab6d0	0.1146065
118	0x3dd36012	0.10321058
119	0x3ea9dbac	0.3317541
120	0xbdca2e01	-0.09872056
121	0xbe4cb08a	-0.1998922
122	0x3eae4f5e	0.34044927
123	0x3e776dd6	0.24162993
124	0xbe89d4c1	-0.2692013
125	0xbea1e980	-0.3162346
126	0x3e01adb1	0.12663914
127	0xbe3ad569	-0.18245472
128	0x3d2e9c81	0.042629723
129	0xbc8be1df	-0.017075477
130	0xbe0232d5	-0.12714703
131	0x3e8acdea	0.27110225
132	0x3dc1fc9e	0.09472011
133	0x3dc72a91	0.09724916
134	0xbe8f2c50	-0.27963495
135	0xbda77da0	-0.08178258
136	0x3e3d0e98	0.18462598
137	0x3e53c85b	0.20681898
138	0x3d8c2f3f	0.06844949
139	0xbe9f2f2a	-0.3109067
140	0xbe25ce86	-0.16192064
141	0x3eb35f9f	0.3503389
142	0x3e9933ed	0.2992243
143	0x3e347be9	0.17625393
144	0xbe23dcfb	-0.16002266
145	0xbe178643	-0.1479731
146	0x3e0f022c	0.13965672
147	0xbe7cac79	-0.24675168
148	0xbce184e8	-0.027529195
149	0x3e153b67	0.14573441
150	0x3e1920c9	0.14953913
151	0x3e41d94f	0.18930553
152	0x3c837dbb	0.016051164
153	0x3e870408	0.26370263
154	0xbe9797d7	-0.29608032
155	0xbe22c1dc	-0.15894264
156	0xbd38b50d	-0.04509454
157	0x3e6c3cce	0.2307007
158	0xbe6d7aae	-0.2319133
159	0x3e920b43	0.28524217
160	0xbe2765d0	-0.16347432
161	0xbd7f609f	-0.062348004
162	0x3e900236	0.28126687
163	0x3eb83c62	0.35983568
164	0x3e06184c	0.13095206
165	0xbcf98e56	-0.030463379
166	0x3e85c1fa	0.26124555
167	0x3c656f84	0.014003638
168	0x3e700b0f	0.23441719
169	0x3e2fa186	0.1715146
170	0x3be73029	0.0070553017
171	0x3ea19f61	0.3156691
172	0x3e217d7d	0.15770526
173	0x3e9c1519	0.30484846
174	0x3ea281f3	0.31739768
175	0x3d54a8f8	0.051918954
176	0xbe29977a	-0.1656169
177	0xbde7e34c	-0.1132265
178	0xbd5bff80	-0.05371046
179	0xbe0a091b	-0.13480036
180	0x3d3ea8d7	0.046547737
181	0x3ea9982c	0.3312391
182	0x3e639cd5	0.22227795
183	0x3dcf068f	0.10108673
184	0x3e2febf6	0.17179856
185	0xbe3fb66b	-0.1872193
186	0x3e0d961a	0.1382679
187	0x3e9945ac	0.29935968
188	0x3dae897d	0.085223176
189	0x3b8904b1	0.0041814675
190	0x3e8da100	0.27661896
191	0xbe6ef616	-0.23336062
192	0x3e3b2dc2	0.18279174
193	0xbd7bd1d8	-0.06147942
194	0xbea9df7e	-0.33178324
195	0x3e4f9119	0.20270194
196	0xbd991e51	-0.074764855
197	0xbd939063	-0.07205274
198	0xbe39033c	-0.1806764
199	0xbe0483b5	-0.12940867
200	0xbd986552	-0.074412
201	0xbeb411e8	-0.3516991
202	0x3e1930b1	0.1495998
203	0x3ca58220	0.02020365
204	0x3dd33a15	0.10313813
205	0x3ea6384c	0.32464826
206	0xbddc6cc5	-0.10762934
207	0xbe2b1e6d	-0.16710825
208	0xbe402b5d	-0.18766542
209	0xbd587157	-0.052842464
210	0xbcc3721d	-0.023858124
211	0x3dfdbe66	0.12389831
212	0x3cf6f9ad	0.030148352
213	0x3def05d9	0.11671037
214	0xbe0f4321	-0.13990451
215	0xbe8cae95	-0.27476946
216	0x3d579899	0.052635763
217	0x3dc7e157	0.09759777
218	0xbe06ffc1	-0.131835
219	0xbdaf973e	-0.08573769
220	0xbd3330d0	-0.043747723
221	0xbe9082ec	-0.28224885
222	0x3eaa8e0e	0.33311504
223	0x3e8a068e	0.26958126
224	0xbe6e5ed8	-0.23278368
225	0xbe770de1	-0.24126388
226	0x3e9b9f5a	0.30395013
227	0x3e9b2893	0.30304393
228	0xbe92a29a	-0.2863968
229	0x3d710159	0.058839176
230	0xbe4be047	-0.19909774
231	0xbe8e43a2	-0.27785975
232	0xbe669988	-0.22519505
233	0x3c9eae1b	0.01937013
234	0x3ea97809	0.33099392
235	0x3e2ecab8	0.17069519
236	0xbe978360	-0.2959242
237	0x3e55efa5	0.20892198
238	0x3ea1214b	0.31470713
239	0x3e8124cc	0.25223386
240	0x3ea83ba9	0.32858017
241	0xbe3139e1	-0.17307235
242	0xbe2db044	-0.16961771
243	0x3e3f07c0	0.186553
244	0xbe8e95cf	-0.2784867
245	0xbdc032e8	-0.093847096
246	0x3e825155	0.25452676
247	0x3dc805e2	0.09766747
248	0xbda1f3f4	-0.079078585
249	0x3e092ae7	0.13395272
250	0xbe1ab6fd	-0.15108867
251	0xbe2cdf17	-0.16881977
252	0x3d8f8916	0.07008569
253	0xbe44c6c8	-0.19216454
254	0x3e55a67b	0.20864289
255	0x3dfed8f8	0.12443727

vf.0.bias f4 [128]
0	0x3ce0c29b	0.027436545
1	0x3e9d92e5	0.30776134
2	0x3eb2a958	0.34894824
3	0xbd3a8737	-0.045539107
4	0xbd627805	-0.05529024
5	0xbd28485c	-0.041084632
6	0xbda5db01	-0.08098412
7	0x3e625d21	0.22105838
8	0x3e480ce8	0.19536173
9	0xbe63b82c	-0.22238225
10	0x3dd8d4b3	0.10587444
11	0x3ef48447	0.4775717
12	0x3ec67818	0.387635
13	0x3e9da482	0.30789572
14	0x3dcce1ab	0.1000398
15	0x3e913604	0.28361523
16	0x3ea31948	0.31855226
17	0xbd9e2b2e	-0.077230796
18	0x3c973c4a	0.018461365
19	0x3d8d673d	0.06904457
20	0x3e8f2477	0.27957508
21	0xbe906739	-0.28203753
22	0x3db5757a	0.088602975
23	0x3ea0349a	0.31290132
24	0x3e62a59c	0.22133487
25	0xbe6daa55	-0.23209508
26	0xbddc562c	-0.107586235
27	0xbe9480a3	-0.29004392
28	0xbe93fa4d	-0.28901902
29	0xbe8d208b	-0.2756389
30	0x3d8a6d99	0.06759185
31	0xbdc2e260	-0.09515834
32	0xbea5475e	-0.3228101
33	0x3ede392f	0.43403003
34	0x3e300d1b	0.171925
35	0xbe132bb2	-0.14372137
36	0xbe3f1c96	-0.18663248
37	0x3d472283	0.048616897
38	0x3eb84472	0.3598972
39	0xbd878b4c	-0.06618366
40	0xbdfcb470	-0.12339103
41	0x3eb1bdd4	0.3471514
42	0x3d5212c8	0.051287442
43	0xbd0b73cb	-0.034045976
44	0x3eb0acff	0.34506986
45	0xbe7b0276	-0.24512658
46	0x3e56470a	0.20925537
47	0xbe9496a5	-0.29021183
48	0x3dad2ce7	0.0845583
49	0xbd4be31b	-0.04977713
50	0xbe56a8e1	-0.2096286
51	0xbdfaa806	-0.12239079
52	0x3eb7a83b	0.35870537
53	0x3ec9a040	0.39380074
54	0x3e2ff3c0	0.17182827
55	0x3e6a290d	0.22867222
56	0x3e9c28c6	0.30499858
57	0x3d0ccd7c	0.034375653
58	0x3dd47b90	0.1037513
59	0x3eb19b88	0.34688973
60	0x3e9c8eb9	0.3057764
61	0xbdbeb884	-0.09312537
62	0x3e4d4903	0.20047383
63	0x3e716556	0.23573813
64	0xbd330ab2	-0.04371137
65	0x3ebbf729	0.36712006
66	0xbdc37b19	-0.095449634
67	0x3e889ab3	0.26680526
68	0x3e9e8564	0.30961144
69	0xbd7b2808	-0.061317474
70	0xbe86c8f7	-0.263252
71	0xbe8dd75f	-0.27703378
72	0x3d3d8399	0.04626808
73	0x3ea2f432	0.3182693
74	0x3ee23480	0.4418068
75	0x3eaafd9e	0.3339662
76	0x3e147d1c	0.1450085
77	0x3da78c63	0.081810735
78	0x3dfefcc6	0.124505565
79	0xbd73f88c	-0.059563205
80	0x3d0086e6	0.03137865
81	0x3ea34e6a	0.31895763
82	0xbe82b097	-0.25525352
83	0xbe6a7781	-0.2289715
84	0x3c75ff25	0.0150144445
85	0xbe372f2d	-0.1788909
86	0xbe6a4b61	-0.22880317
87	0x3df621ad	0.12018142
88	0x3e871afd	0.26387778
89	0x3ea64d4c	0.32480848
90	0xbe477af3	-0.19480495
91	0x3e53ac12	0.20671108
92	0x3ea6ae13	0.32554683
93	0x3e490b16	0.19633135
94	0xbe39c979	-0.18143262
95	0xbd743795	-0.05962332
96	0x3e9ff3c7	0.31240675
97	0x3e332f5a	0.17498532
98	0x3e3f2ce5	0.1866947
99	0xbe87fbc7	-0.26559278
100	0xbe8e8b9f	-0.27840897
101	0x3ec30d11	0.38095906
102	0x3e10efd9	0.14153995
103	0x3ed7959e	0.42106336
104	0xbeaa996c	-0.33320177
105	0xbdd496b4	-0.10380307
106	0xbe9a0f37	-0.30089733
107	0x3ee99f22	0.4562922
108	0x3e14a6ed	0.14516802
109	0x3e826ada	0.25472146
110	0x3ec2f9c7	0.3808119
111	0x3e117603	0.14205174
112	0x3e141eae	0.14464828
113	0xbe7cf554	-0.2470296
114	0x3e1ff164	0.15619427
115	0x3eb92b01	0.36165622
116	0x399a5c18	0.00029441784
117	0xbe8281ea	-0.25489742
118	0xbe3ff624	-0.18746239
119	0x3e0844c1	0.13307478
120	0x3ec44061	0.38330367
121	0x3e21599f	0.15756844
122	0xbe2a9d12	-0.1666148
123	0x3e148510	0.14503884
124	0xbde460ab	-0.111512505
125	0x3e0ba493	0.13636999
126	0x3eaeee32	0.34166104
127	0xbe7f6c4a	-0.24943653

vf.2.weight f4 [128, 128]
0	0xbd1e0335	-0.038577277
1	0x3d6aee4d	0.057356168
2	0x3ddcb462	0.10776593
3	0xbd4ccdc7	-0.050000932
4	0x3b53ed5c	0.0032337522
5	0xbd20bee0	-0.039244533
6	0xbd8eb74e	-0.06968556
7	0x3c14d1a2	0.0090831835
8	0x3d6d29da	0.05790124
9	0xbd931201	-0.07181168
10	0x3c76aea3	0.015056285
11	0x3dbcc068	0.09216386
12	0x3e1fd5aa	0.1560885
13	0xbb1daf2e	-0.0024060714
14	0xbcfc4895	-0.030796329
15	0x3d16341c	0.03667079
16	0xbc7fdd76	-0.015616765
17	0xbaa5f367	-0.001266104
18	0x3d1ca776	0.03824564
19	0xbd23e956	-0.04001745
20	0xbaf2d64d	-0.0018527001
21	0x3d8337ab	0.06407102
22	0x3dd9dcab	0.10637792
23	0x3e316269	0.17322697
24	0x3e0cd14f	0.1375172
25	0x3de8181d	0.11332724
26	0xbc89cdf1	-0.016821833
27	0xbd0576a0	-0.032583833
28	0xbc76fb65	-0.015074586
29	0x3ce01e57	0.027358217
30	0x3d8d3943	0.068956874
31	0xbd239f01	-0.03994656
32	0x3d967e5d	0.07348321
33	0x3d505f4d	0.050872136
34	0x3e03dd96	0.12877497
35	0xbb7875e7	-0.0037912072
36	0x3d1386c5	0.036017198
37	0x3d2f7f1a	0.042845823
38	0x3dc84866	0.09779434
39	0xbcb55618	-0.02213578
40	0x3d19749c	0.037464723
41	0xba2d2046	-0.00066042354
42	0x3dab3b93	0.08360972
43	0xbcb3e41c	-0.021959357
44	0x3ddf08a8	0.10890323
45	0xbd9041e3	-0.07043817
46	0xbc541d5c	-0.012946453
47	0x3d7c972c	0.061667606
48	0x3de85b58	0.113455474
49	0xbd842c7a	-0.06453796
50	0xbd2ed792	-0.042686053
51	0xbd1ed2c8	-0.038775235
52	0x3d83f639	0.064434476
53	0x3c5f0b53	0.01361354
54	0x3d4a58f7	0.04940125
55	0x3dad55e1	0.08463646
56	0x3e08bfed	0.13354464
57	0xbb66eb2d	-0.003523539
58	0x3d3ae32b	0.0456268
59	0x3c935898	0.01798658
60	0x3e137b58	0.1440252
61	0xbd9a943a	-0.07547803
62	0xbc25e1c2	-0.010124626
63	0x3d19550b	0.03743462
64	0x3be5402e	0.006996176
65	0x3de6d160	0.11270404
66	0x3d986477	0.07441037
67	0x3cc71b26	0.024304938
68	0x3cd42574	0.025896765
69	0xbd3a84ff	-0.04553699
70	0x3d07f3fc	0.033191666
71	0xbd71c343	-0.059024107
72	0x3dbfb404	0.09360507
73	0x3d9897d2	0.074508324
74	0x3bd1cc0f	0.0064024995
75	0x3d3a5695	0.045492727
76	0x3d72a53a	0.059239604
77	0x3de5e1b9	0.11224694
78	0x3c45008a	0.012024054
79	0xbca04af7	-0.019566996
80	0xbbfdbd62	-0.0077435235
81	0x3d9f6594	0.07783046
82	0x3d5d7547	0.054066923
83	0x3a4bb2c8	0.0007770476
84	0x3da92d19	0.08260555
85	0xbd39333d	-0.04521488
86	0xbda402af	-0.08008324
87	0x3cd2e84b	0.025745532
88	0x3e042ad5	0.12906964
89	0x3e0963cb	0.13416974
90	0x3ce9164d	0.028453017
91	0x3ca7757f	0.020441769
92	0x3e03d3f4	0.12873822
93	0x3dc46bc2	0.09590866
94	0xbd9f42fd	-0.07776449
95	0xbd0bfa34	-0.03417416
96	0x3e2558e3	0.16147189
97	0x3d44a4c7	0.048008706
98	0xbc94ed6d	-0.01817962
99	0xbd624f9a	-0.055251695
100	0xbcdea687	-0.027179016
101	0x3d1fe6a3	0.03903831
102	0x3c69c89a	0.014269019
103	0x3d197acb	0.03747062
104	0x3d9c1207	0.07620626
105	0x3cf331a8	0.029686764
106	0x3d9553a1	0.072913416
107	0x3d579c85	0.052639503
108	0x3de4dff2	0.11175527
109	0x3db65148	0.08902222
110	0xb9fce52a	-0.00048235926
111	0x3dd34f92	0.10317911
112	0x3df1288a	0.1177531
113	0xbd41b582	-0.04729224
114	0x3db25f07	0.08709531
115	0x3d0aeee2	0.033919223
116	0x3c09555e	0.0083821695
117	0xbc0a5bd7	-0.008444748
118	0xbd4e6e43	-0.050398123
119	0x3de10fe8	0.10989362
120	0x3d77977e	0.06044721
121	0xbc757245	-0.014980857
122	0x3dbfd12d	0.09366069
123	0xbd57fdcc	-0.052732274
124	0xbd3724c2	-0.04471279
125	0x3d6eab9b	0.058269124
126	0x3e0a7055	0.13519414
127	0xbd087a72	-0.033319898
128	0xbd4c0701	-0.049811367
129	0xbd729c42	-0.05923105
130	0x3d1deb11	0.038554255
131	0xbc3b81f0	-0.011444554
132	0xbdabf602	-0.08396532
133	0xbd497477	-0.049183335
134	0xbdb69cd8	-0.08916634
135	0x3c8a34c3	0.016870862
136	0xbd803c93	-0.062615536
137	0x3bcf5c02	0.006328107
138	0x3d5ae163	0.0534376
139	0x3d2e65de	0.042577617
140	0xbdca0bd8	-0.0986554
141	0x3cd7a206	0.026322376
142	0x3d7da2b9	0.061922763
143	0x3d4f2577	0.05057284
144	0x3c4d1deb	0.01251934
145	0xbc88f7d3	-0.016719734
146	0xbd90949c	-0.07059595
147	0xbd7ed7b6	-0.062217437
148	0xbd8c7d27	-0.068598084
149	0xbd170d4f	-0.036877926
150	0x3cf6e26f	0.030137269
151	0x3d8c6e27	0.068569474
152	0x3cfd4638	0.030917272
153	0xbceb73b5	-0.028741697
154	0xbc2323de	-0.009957282
155	0xbd2ce41d	-0.042209733
156	0xbd28f056	-0.041244827
157	0xbce051bd	-0.027382726
158	0xbc2b3b66	-0.010451173
159	0xbc380120	-0.011230737
160	0x3d26960d	0.040670443
161	0x3c474fdd	0.012165037
162	0x3d430fb5	0.0476224
163	0xbbd9120b	-0.0066244653
164	0xbd90eca3	-0.07076385
165	0xbc4f0101	-0.012634517
166	0x3c957231	0.018242927
167	0xbdc55855	-0.096359886
168	0x3b826d51	0.0039803167
169	0x3d11971e	0.035544507
170	0xbd9c6d95	-0.076380886
171	0x3cc22ef5	0.023704031
172	0xbd96108d	-0.073273756
173	0x3c9415fc	0.01807689
174	0x3c492d98	0.012278937
175	0x3cecf5dc	0.028925829
176	0xbd98a755	-0.07453791
177	0x3cd19259	0.02558248
178	0xbd9126f8	-0.07087511
179	0xbd7066a5	-0.05869164
180	0x3c929566	0.017893504
181	0xbda491fd	-0.080356576
182	0x3d1169c0	0.03550124
183	0x3ccfa705	0.025348196
184	0x3d92ad2f	0.071619384
185	0xbd884893	-0.066544674
186	0x3ba538d7	0.005042176
187	0x3d54d464	0.051960364
188	0x3c8da836	0.017292123
189	0xbd0fee8f	-0.035139617
190	0x3d6fe303	0.058566105
191	0x3d19e3de	0.037570827
192	0x3c19d0be	0.009388147
193	0xbd4051fb	-0.046953183
194	0xbd90ecaa	-0.0707639
195	0x3d757bf5	0.059932668
196	0xbc88ba84	-0.0166905
197	0xbc9a4b2e	-0.018834677
198	0xb9ab0ae1	-0.00032623767
199	0xbd3e7982	-0.046502598
200	0x3cd9ef35	0.02660332
201	0x3a0ee43e	0.0005450881
202	0xba122d8c	-0.0005576245
203	0xbd03d8c0	-0.03218913
204	0x3c351532	0.011052417
205	0x3d6a3dad	0.057187725
206	0x3cf33b8f	0.029691486
207	0x3da69c0e	0.08135234
208	0x3c22c334	0.009934235
209	0x3ce2fbae	0.0277079
210	0xbd0ac0c2	-0.033875234
211	0xbd885f80	-0.0665884
212	0x3cdde6ab	0.02708753
213	0xbbe326e9	-0.0069321287
214	0xbc4c6609	-0.012475499
215	0x3ad27a2a	0.0016058136
216	0x3c95f852	0.018306885
217	0xbcba5e20	-0.02274996
218	0x3cc04a4f	0.023472933
219	0x3d8910f8	0.0669269
220	0xbcff1186	-0.031136286
221	0xbd33264b	-0.04373769
222	0xbd6f8027	-0.058471825
223	0x3d1ac687	0.037786987
224	0xbd26250c	-0.040562674
225	0x3bfc7ad7	0.0077050733
226	0xbd9dbac5	-0.07701639
227	0x3ce01464	0.027353473
228	0xbd99d747	-0.07511764
229	0xbb8c4f6e	-0.0042819297
230	0xbd8ec6ce	-0.06971513
231	0xbdba6a1f	-0.09102272
232	0xba3c0982	-0.00071730476
233	0x3ca134c2	0.019678477
234	0xbd7ab450	-0.061207116
235	0xbd87c643	-0.06629612
236	0x3d2e3a20	0.0425359
237	0xbd065712	-0.03279788
238	0x3d2522fa	0.04031656
239	0xbd7d27f9	-0.0618057
240	0xbd2375c3	-0.03990723
241	0x3d25942f	0.040424522
242	0xbdc50aed	-0.096212246
243	0x3bcb7913	0.0062095015
244	0xbd8eb05c	-0.06967232
245	0xbd6772b3	-0.05650587
246	0x3c463bf9	0.0120992595
247	0x3d00af4a	0.03141717
248	0xbd83b204	-0.06430438
249	0xbc081304	-0.008305315
250	0xbcf27572	-0.029597018
251	0xbda67b01	-0.0812893
252	0xbce910df	-0.028450428
253	0xbc21d5b5	-0.009877612
254	0xbd78ca17	-0.060739603
255	0xbd7a60e7	-0.06112757

vf.2.bias f4 [128]
0	0x3d9f3d73	0.077753924
1	0x3d0bc4ba	0.03412316
2	0x3e4b87d5	0.19876035
3	0x3d13b79d	0.03606378
4	0xbd7718ef	-0.060326513
5	0x3dfd451c	0.12366697
6	0x3db45784	0.08805755
7	0xbc51835e	-0.012787668
8	0x3e028f7c	0.12750047
9	0x3db0b737	0.086286955
10	0x3d465cce	0.04842835
11	0x3dbe5c47	0.09294944
12	0xbda2d844	-0.07951406
13	0x3e18949f	0.14900444
14	0x3cd69e6f	0.026198594
15	0xbdbd895a	-0.09254713
16	0x3d4fc814	0.05072792
17	0xbdbda07c	-0.092591256
18	0x3de70c1d	0.11281607
19	0x3d8c0d92	0.06838526
20	0x3e03ba1f	0.12863968
21	0xbdb73f1a	-0.089475825
22	0xbd5ef3c1	-0.05443168
23	0x3d12fcb2	0.03588552
24	0xbda253a0	-0.079261065
25	0x3e1752d5	0.14777692
26	0xbc62ac03	-0.013834956
27	0x3d3b1d45	0.04568221
28	0x3d2acffe	0.041702263
29	0x3d152eb9	0.03642151
30	0xbd583818	-0.05278787
31	0xbd2674c7	-0.04063871
32	0x3ddb52bc	0.1070914
33	0x3d3f60bc	0.046723112
34	0x3d3f00ed	0.046631742
35	0x3d48ae0a	0.0489941
36	0xbc19b631	-0.009381817
37	0xbdb8fcf7	-0.09032624
38	0x3da4e1f3	0.08050909
39	0x3e0e8dcf	0.13921283
40	0x3da369ba	0.0797915
41	0xbd82ada1	-0.06380773
42	0x3df0cca1	0.1175778
43	0x3c849bc4	0.016187556
44	0xbbe9902d	-0.007127783
45	0xbd83bcca	-0.06432493
46	0x3c968374	0.018373229
47	0x3d4b90f8	0.0496988
48	0x3d84cd1c	0.06484434
49	0x3d66720a	0.0562611
50	0x3be6799c	0.00703354
51	0x3e25249d	0.16127248
52	0x3d244b8e	0.040111117
53	0x3c69bb46	0.014265841
54	0x3c21052b	0.009827892
55	0xbd901aac	-0.07036337
56	0x3d0e4e33	0.034742545
57	0x3d59c60a	0.05316738
58	0xbd552e24	-0.052045956
59	0x3d29fdd5	0.04150184
60	0xbcfa28f3	-0.030537104
61	0x3a743183	0.0009315239
62	0x3d77b16d	0.06047194
63	0x3cb57f53	0.02215544
64	0x3d314a99	0.043284032
65	0x3d438547	0.047734525
66	0x3e00c122	0.12573674
67	0x3de30ae7	0.11086064
68	0x3d835e8a	0.06414516
69	0x3dab0886	0.08351235
70	0x3d87fd8b	0.06640156
71	0xbcee9801	-0.029125215
72	0x3d2fb9c0	0.042901754
73	0x3d2a7460	0.04161489
74	0x3e09c635	0.13454516
75	0x3e214975	0.15750678
76	0xbc9b4dab	-0.018957933
77	0x3db2ecdf	0.08736586
78	0x3cf5f574	0.030024268
79	0x3d6950c0	0.056961775
80	0x3d9a80e2	0.07544114
81	0x3d86e50c	0.06586656
82	0xbd258229	-0.040407334
83	0x3da86b0c	0.082235426
84	0x3e5197a4	0.20468003
85	0xbd84e422	-0.064888254
86	0x3dbacdfe	0.09121321
87	0x3cf8b535	0.030359844
88	0x3d08458c	0.03326945
89	0x3d8be41f	0.0683062
90	0x3c8c4a3c	0.017125241
91	0x3d8435c5	0.06455568
92	0x3d8626b5	0.065503515
93	0x3de545a2	0.11194922
94	0x3d928d39	0.07155842
95	0x3d93a411	0.072090276
96	0xbd6a1946	-0.05715301
97	0x3e2c24a0	0.16810846
98	0xbb4ba215	-0.003107195
99	0x3df4fa27	0.11961775
100	0x3dd96e06	0.106166884
101	0xbd284ed2	-0.041090794
102	0x3e1282ad	0.14307661
103	0x3d85c286	0.06531243
104	0xbd86133e	-0.06546639
105	0x3ce4bd54	0.02792231
106	0xbd9621d9	-0.07330675
107	0x3dcfcab9	0.10146088
108	0x3e15fe8f	0.14647888
109	0x3d570395	0.05249365
110	0x3e12d263	0.14338069
111	0x3d4e79de	0.05040919
112	0x3e2848f2	0.16434076
113	0x3d16a33f	0.036776777
114	0xbdc0eb07	-0.09419828
115	0xbdaaa982	-0.08333112
116	0x3cd79c6b	0.026319703
117	0x3d574d16	0.05256375
118	0x3e38586e	0.18002483
119	0xbda5e885	-0.0810099
120	0x3de6dc10	0.11272442
121	0x3d51f4bd	0.05125879
122	0x3b9bcfbd	0.004754989
123	0x3d5d0f9f	0.053969976
124	0xb9e8b520	-0.00044385437
125	0xbc9f86b8	-0.019473419
126	0x3d6c73f3	0.057727765
127	0x3e0dcc18	0.13847387
