ckpt/ppo_ep300.pt (torch, 151697 bytes, 12 tensors)

log_std f4 [8]
00000000: 5010 4a3b f1d9 f43b a9f4 b73b 2c89 abba
00000010: d1f0 7aba a8c4 11bb 8002 913b 112d 8bba
0.0030832477 0.0074722697 0.0056138826 -0.0013087145 -0.00095726276 -0.002224246 0.004425347 -0.0010618289

pi_body.0.weight f4 [128, 9]
00000000: 779a 813e 835b 8f3e 36af 9ebd 9a45 9d3e
00000010: 4982 96bd 6a19 993d a2c9 27be f7dc 4a3e
00000020: 9448 973e 89f7 83be c71a 8c3e e0c3 5e3d
00000030: 1597 6f3e c4bf 063d a835 153e 2e81 6ebd
00000040: 0b3e 733e 729f 073d 1859 1fbe b602 ae3d
00000050: c843 1dbe d61d 20bd a8a2 0abe 3e6e 623e
00000060: 1cb8 86be b35b 1dbe 90c4 c0bd 9ce4 52be
00000070: 3a30 c23c 2f28 a9be 4b0b 983e a173 96be
00000080: 41a3 803e 8810 583d 661e e1bd 7de9 4c3e
00000090: 7ae2 3e3d cb50 853e 5e2a 003d c490 e1bd
000000a0: 9db1 ab3d 32e7 babd 663a 113e 3511 953e
000000b0: 03fc 3f3e edd8 1abe dd33 443e a5c3 603d
000000c0: 81a1 2b3e a8be 54be 7931 aabe 85e4 03be
000000d0: 6552 82be c8c8 8a3e 0727 c73d 711c 123e
000000e0: dc47 d33d 5e68 eabb 6053 853e d6d4 6fbe
000000f0: 8c17 a03c 2a17 66be 3d1e d43d 72e2 e5bd
00000100: 4620 cf3d 1637 9ebd c630 8d3e c310 43be
00000110: 97b6 4fbe b27b 4bbe 14d1 983e 4426 e23d
00000120: edb3 a23e f882 8ebe 4325 afbe 2f8d 86be
00000130: 752e 68be d80b 013e fd2b e93d 558b 893e
00000140: a1c0 36be 057d 61be d128 423e 414f 04be
00000150: 087a 563e 1184 8ebd c258 4b3e b068 80be
00000160: d00d 20be f7b4 e53d fd75 8b3d 6d04 c0bd
00000170: 23c4 443e 06c8 623e 5ada 7abe 7554 41be
00000180: 9b4a 9b3e d342 fbbd 6611 00be 1102 a4be
00000190: 4273 3abe ed2d b53d fa08 34bd ec8e 79be
000001a0: 8cd7 373c 584c 62be 6e92 8fbe 75bc 35be
000001b0: 5de2 94be b794 59be 67bf a43e 05d2 5e3d
000001c0: 42dd bf3d e8ca 9fbe 5493 66be 46d9 f7bd
000001d0: 086c 293d eb99 95be def5 14be abc1 4cbe
000001e0: 307f 913b 57da f8bd fa2c b3bc 404b 63be
000001f0: d65c 67be b9e2 44be dad6 f3bd d68e 8bbe
00000200: 386b 8a3e 80bf 92bd 7f13 8d3e 2754 cb3d
00000210: e9ab 93be 05df 633e 8edd cebd 2fdd 01be
00000220: 5c79 8ebe 017b abbe 8671 c63d 32a9 97bd
00000230: 1392 053e cef2 89be f7d9 7c3e 1865 7abe
00000240: b25a 5abd 143f 923d 2199 2f3e c0e1 893e
00000250: a104 9e3e 8f4e 88be 6b67 b73d dd95 13be
00000260: 3026 0dbd 27a6 6fbe 5c37 a23e c20f 6fbe
00000270: 9f44 433e cf1e 043e ecd7 003e 8634 2ebe
00000280: a6b6 a03e ad08 b43d 9b78 273d 8fb9 96be
00000290: 8009 0e3e 4977 43bd d705 1dbe 659c 903e
000002a0: fc0d 913d e105 46be 161a 2fbe abdc d9bb
000002b0: 4aa7 473e d751 98bd fb42 3dbe 0c9e d2bd
000002c0: e419 73be f5bf 043e a311 8c3e add6 99be
000002d0: f1d9 893d 0063 253e e652 5a3d 13d8 02be
000002e0: c41e 273e d154 283e 7926 ec3d ff0a 91bd
000002f0: e9f7 ccbd 3caf e63c 8103 8dbd 7498 cdbd
00000300: 6fa6 513e 9c25 8d3e c708 25bd c62c 9ebd
00000310: 48f0 94bb e424 e8bc 9271 943d 04ce aa3d
00000320: 0a33 9cbe ca5a 02be c3d2 8b3e 1cbe fe3d
00000330: ecd9 a5bc 7b09 58be f240 58be ca08 99be
00000340: d9cd e9bd 6ac7 e63d becb 543e e61b 1b3e
00000350: 48a3 99be 6dc0 49be 34d8 78bd 689a a33e
00000360: 50cb 2f3d a4d4 b7bd f33f 0b3e 26f7 07be
00000370: 29e4 61be 7f3a 713e 4433 23be 0724 99bd
00000380: 9e1e adbe 8c38 6a3e 5456 823e c3c1 023e
00000390: 5671 67be c06b a5be a53c 86be dc79 833e
000003a0: 5574 2b3e f064 933e ddd1 413e 91e4 c53d
000003b0: 9935 33ba da7b 79be 17bd 8bbe 4ca9 9cbe
000003c0: 55c3 133e 934e 21be 42d7 66bd 1e9e 40be
000003d0: 891e 80bd 7c1a 6fbe 3196 5dbe e0fb e03d
000003e0: b4c5 c5bd eb28 523e bcf7 e1bd 3dda 7abe
000003f0: 49a7 5fbd a3ea 1fbe b7b2 c3bd 9331 a0be
0.2531316 0.27999505 -0.077482626 0.30717164 -0.07349069 0.074755505 -0.1638551 0.19810854
0.2954756 -0.25774792 0.2736418 0.05438602 0.23397477 0.032897726 0.1457125 -0.058228664
0.23754136 0.033111043 -0.1556133 0.08496611 -0.15357888 -0.039090954 -0.13538611 0.22112367
-0.2631234 -0.15367012 -0.09412491 -0.2059502 0.023704637 -0.3303847 0.29696116 -0.29385093
0.25124553 0.05275014 -0.10992126 0.20010944 0.046602704 0.26038203 0.031290404 -0.1101394
0.083834864 -0.09126128 0.14182433 0.2911469 0.18748479 -0.15121813 0.1916041 0.05487408
0.16760828 -0.20775855 -0.3324087 -0.12880142 -0.25453487 0.2710631 0.09724241 0.14268662
0.103164405 -0.007153555 0.26040173 -0.23421034 0.019542478 -0.22469774 0.1035733 -0.11224832
0.101135775 -0.077253506 0.27576274 -0.19049363 -0.20284496 -0.19871405 0.29847014 0.11042455
0.31777897 -0.27834296 -0.34208116 -0.2627959 -0.22673972 0.12602174 0.11385343 0.26864114
-0.1784692 -0.22020347 0.18960883 -0.12920858 0.20944989 -0.069587834 0.19858077 -0.2507987
-0.15630269 0.11216157 0.06809614 -0.09375844 0.19215445 0.22146615 -0.24497357 -0.18879874
0.30330357 -0.12268605 -0.12506637 -0.32032827 -0.1820803 0.0884665 -0.043953873 -0.24370927
0.011220824 -0.22099435 -0.28041404 -0.17747672 -0.2907895 -0.21248136 0.32177278 0.05439951
0.093683735 -0.31209493 -0.22517139 -0.121019885 0.041362792 -0.29218993 -0.14546916 -0.19995753
0.0044402108 -0.1215102 -0.021872032 -0.22196674 -0.22594008 -0.19227113 -0.11906214 -0.27257413
0.27034926 -0.07165432 0.27553937 0.0992816 -0.28842095 0.22253044 -0.10100852 -0.12682031
-0.27826965 -0.33492282 0.096896216 -0.07405318 0.13044004 -0.26943058 0.24692522 -0.24452627
-0.05330915 0.071409374 0.17148258 0.26930046 0.30862907 -0.26622435 0.08955272 -0.14412637
-0.034460247 -0.23403226 0.3168286 -0.23345855 0.19069146 0.12902378 0.12582368 -0.17012224
0.3138935 0.08790717 0.040886503 -0.29438445 0.13870811 -0.04772118 -0.15334259 0.2824432
0.070827454 -0.1933818 -0.17099795 -0.00664862 0.1949741 -0.07437485 -0.18482582 -0.10284051
-0.23740345 0.12963851 0.27357206 -0.30046597 0.06731022 0.16151047 0.053301714 -0.12777738
0.1632033 0.16438605 0.115307756 -0.070821755 -0.100082226 0.02815973 -0.06885434 -0.10038844
0.20473646 0.27567756 -0.040291574 -0.077233836 -0.0045452453 -0.028337903 0.07248224 0.083400756
-0.3050769 -0.12729946 0.27309236 0.12438604 -0.020245515 -0.21097367 -0.21118525 -0.29889518
-0.114162154 0.11268504 0.20780846 0.15147361 -0.30007386 -0.19702311 -0.060753062 0.3195374
0.042918503 -0.08976105 0.13598613 -0.13277873 -0.22059692 0.2355747 -0.15937525 -0.07477575
-0.33812422 0.22873133 0.25456488 0.12769227 -0.22601828 -0.3230877 -0.26218143 0.2567891
0.16743596 0.28787947 0.18927713 0.09662736 -0.0006836295 -0.24363652 -0.27292702 -0.30597913
0.14429982 -0.1575263 -0.05635763 -0.18810317 -0.06255824 -0.23349947 -0.21639325 0.10985541
-0.096568495 0.20523421 -0.1103358 -0.24497314 -0.054602895 -0.1561685 -0.095555715 -0.31287822

pi_body.0.bias f4 [128]
00000000: 46e9 cb3d 3f34 3f3d c368 48be 894b 3d3d
00000010: bc48 a23e b6c6 693e 1d7a 84be ba69 9b3e
00000020: 8e61 963c 984e 2f3e 4745 813e e01c 953e
00000030: 3ed4 8abe f54c 963e e9b9 70be cd56 c53c
00000040: 9490 6abe 4073 71bd 845a 93bc d10d d9bc
00000050: 80a5 81bd b5ce 9b3c 88cf a43e 844c 433e
00000060: 5f3b 3b3e 180f 123e 3230 893e dca0 7cbc
00000070: ddb6 083d 1e6c 793d d77b 96be 527b 89be
00000080: b419 353d f88b 05be 0ec0 42bc e93c 97bd
00000090: c019 4b3d 4f2e 583e 2e8f ecbd ee77 893e
000000a0: 810a 883e 9935 82be 36f7 7dbe f973 8dbe
000000b0: fe90 3fbe 50e6 08be e20c a9bc 860c 93bd
000000c0: 13e2 24be 8186 c9bd 608e f2bd a11f aa3e
000000d0: b93d e9bd 1e65 74be 2569 0f3e 13c7 aabc
000000e0: 7227 863e 32f1 493e 9561 9d3e 4b55 7bbe
000000f0: 39bf 603e 89b7 8e3e 3100 26be 314e 9c3e
00000100: 057d 7f3e 9e91 703b 9c3e 273e 8064 e5bd
00000110: 2217 96be 1803 a13d f919 cf3d 7a53 62be
00000120: 2104 1c3e 08d9 94be d69c 913e 6238 a43e
00000130: 9d57 af3d 34cf 4cbe b9f7 223e 552b 4b3d
00000140: 4c38 b63d 54a7 d83d e108 893e 782c 1abe
00000150: e546 a2bd 6869 ce3d 883c e23c d873 893e
00000160: a885 34be 0bc6 27bc 125e 843d 4821 b3bd
00000170: 8d31 783e ab73 1f3d f581 9ebe ba8e 07bd
00000180: 3e43 20be c032 dc3c a2de 2cbd 444a a9be
00000190: 8834 65bd 6d32 12bd e690 d0bd d469 9f3e
000001a0: d0be 91bd 4640 633e d244 af3d 41c8 8ebe
000001b0: 148e b13d f69b 8b3e f85a 5ebe 1ba1 5cbe
000001c0: 177c a13e 5bcc 8a3e 7a3e 3abe a79e 593e
000001d0: cde1 37bd ff78 a8be 2127 353c e6d2 e13d
000001e0: ecfe b0bd 7798 023e fbd8 94be dbf0 6c3e
000001f0: 5763 923e 3475 3b3e f0fc 5f3d e4de ed3d
0.09956603 0.046680685 -0.19571213 0.046214614 0.31696117 0.22829708 -0.25874415 0.303541
0.018357065 0.17119825 0.25248167 0.29123592 -0.27115053 0.2935559 -0.23508419 0.024089241
-0.22906715 -0.0589478 -0.017987497 -0.026495846 -0.06330395 0.019019464 0.32189584 0.19072157
0.18284367 0.1426357 0.26794583 -0.015419211 0.033377517 0.060894124 -0.29391357 -0.26851898
0.044213966 -0.13041675 -0.01188661 -0.073846646 0.049585104 0.21111415 -0.11550747 0.26849312
0.26570514 -0.25431517 -0.24801335 -0.27627543 -0.18707654 -0.13369107 -0.020636026 -0.07180123
-0.16101865 -0.09840108 -0.11843562 0.33227256 -0.11388726 -0.23866698 0.14004953 -0.02084688
0.2620197 0.19720915 0.30738512 -0.24544255 0.21947946 0.278744 -0.1621101 0.30528405
0.24950035 0.0036707888 0.16332477 -0.112008095 -0.29314524 0.07861918 0.10112376 -0.22102156
0.1523595 -0.29071832 0.2843997 0.32074267 0.08561633 -0.20000917 0.15914811 0.04960187
0.088974565 0.1057879 0.26764587 -0.15056026 -0.07923678 0.100786984 0.027616754 0.26846194
-0.17629111 -0.010240088 0.06463255 -0.08746582 0.24237652 0.03892867 -0.30958524 -0.0330951
-0.15650651 0.026879668 -0.042204507 -0.33064473 -0.0559583 -0.03569262 -0.10183887 0.31135428
-0.07116473 0.22192487 0.08558048 -0.27887157 0.086696774 0.27267426 -0.2171439 -0.21545832
0.31539986 0.27109036 -0.18187895 0.21251927 -0.044893075 -0.32904813 0.011056692 0.11026554
-0.086423725 0.12753473 -0.29071793 0.23138754 0.28591415 0.18306428 0.05468458 0.11614779

pi_body.2.weight f4 [128, 128]
00000000: 2c5e 86bd 88fd d3bc 7640 0abc ad64 57bd
00000010: 0251 89bd e249 6e3d b86f 763d a236 aabd
00000020: dda4 fd3c d644 ee3c ea0e ad3d 7475 513d
00000030: ef6a a63d 330e edbc 1189 643d ca3d 933d
00000040: dbc5 a7bd a4a6 90bd 7bce 943c e468 323d
00000050: 1c56 37bd 6ce4 023c be6c 8aba cd9c 913c
00000060: 05cb 38bd fc42 493d 4b32 7a3d 1a34 7bbd
00000070: 5310 38b9 d293 8039 47cd c63c 82a2 a83d
00000080: aa17 043d ba86 a4bc 36bf 943d 0308 14bd
00000090: f52a c1bc b617 b53b 0bd9 89bd 1832 063c
000000a0: a081 80bd 3ad8 a93b 1b95 c83b 6074 483c
000000b0: 1ea7 98bd e8ed abbd c484 403d dd4f 9b3d
000000c0: aea1 a0bd 6bce 033d 4541 96bd ad9e fb3b
000000d0: d92a a33d 2253 893d d060 87bd bdb1 543d
000000e0: 29be 503d b2c0 4dbb 4b4d ab3d c991 1fbd
000000f0: 1c9d b9bc 9b9f 46bd 2311 2a3c 73ae e83c
00000100: ecaa 953b 1b50 3ebd bf61 3dbd b4db f33c
00000110: 2f76 a6bd 33ea 28bc d250 00bb 5caf 12bd
00000120: dc0b f43c 0ae1 cfba bd78 7a3d 989b eebb
00000130: f9b9 6cbd 622a 7c3d 4a54 043c 00fa 07bd
00000140: 7d3a 71bd 40d4 9f3c 0ebb b0bd f1eb 8f3c
00000150: 1302 333d b70f 97bd 4804 6dbd 0f94 79bd
00000160: db3d 8e3d 07ce 993d 900b 513b 28b7 a63d
00000170: 1761 ffbc d3bc afbd 8b2c d93c c1b4 e53c
00000180: 720e a93d 4362 15bb 5c50 823d a6ea 5d3d
00000190: 0570 7b3d a6e2 babd b8eb 8f3d afa2 9abd
000001a0: 2d49 a23d 462d d3bb 8769 a6bd 8ef1 a43c
000001b0: d3ec 9dbc 9300 a7bd 1e89 09bd f04f 153c
000001c0: ce49 8a3d e378 f1bc b6da 5e3d c3c4 393c
000001d0: e443 683b 6e8c 8a3c 43a5 6fbd 0538 96bd
000001e0: 6afa dfbc 046c aebd 5eeb 30bd 8c8a 9a3b
000001f0: d693 73bd 4353 1ebd ce07 65bc 12d5 26bc
00000200: 9439 57bd 5ccf ff3a 8043 4bbc c07c 6c3c
00000210: 3269 2c3b 770a 1fbd b3dd fcbc 4d33 93bb
00000220: 584e 7ebd f364 983b b302 e3ba f686 293d
00000230: d523 893c e57f 823d a13d 5bbc fa86 81bd
00000240: 2e1f 403d c84e 87bd 1e98 67bc dbdd 1abd
00000250: e447 06bd 738a 02bd 24b1 a63d 109e 593d
00000260: bd86 c03c 62ad a73d 7a47 a7bd 5ddd 913c
00000270: f76d 6d3d 5183 783d 8626 97bd 85d8 003d
00000280: 26a7 63bd fb56 62bb 4168 adbc 2683 9bbd
00000290: 351f b8bd c363 7bbd 3f84 233d 851e 233d
000002a0: fd16 90bd 1a69 27bd 70ae 83b9 2fc5 a1bd
000002b0: 2e1f 523d 26da a43d 37a3 243c 93fa 98bd
000002c0: 4fd8 a83c 8e11 083d 8372 8e3d 1f72 2dbd
000002d0: 7add a6bd d90f 1f3d 94a9 dd3b fd41 00bd
000002e0: 3da0 25bd d8e9 57bd 5ebb 913d 5c50 01bb
000002f0: 3272 823d c778 9f3d a82c 2a3c d9c5 783c
00000300: 23eb 08bc 8ac7 8c3d aeb0 a4bd 97b0 c13c
00000310: 361f b0bc 2ae2 343d 6770 f9bb 5a42 22bd
00000320: 2cc9 1fbc 7a47 3f3d a633 7dbd ac5b 66bd
00000330: 4f12 00bd c936 00bd 83cf fd3c fc61 663d
00000340: 72f5 323b db35 aa3d ffa7 19bd 2419 55bd
00000350: 2315 22bd b8f7 77bd 3a94 76bd 19d3 99bd
00000360: b13c adbd afbc b93c 23fc 5d3d 44da a13d
00000370: 1f3b 983d 26cf a6bb f748 9f3c f741 64bd
00000380: 9cd1 013d 48c2 b4bd 47d5 273d 99ce 843c
00000390: f285 b73c 24c9 0f3d 4ed9 40bd ee8c a03d
000003a0: abc8 2c3d d75c 5e3d 6dfa 373c ba5d 4b3d
000003b0: ba9e 703d 981e 213d d6ff 8d3d e554 83bc
000003c0: 284b 643d 6d4b 823c 40df 643d f5e5 af3d
000003d0: e91b 053d 7560 06bd 6d51 3ebc 50ab d03c
000003e0: 4d54 f53b fddc b3bc 85bf 5b3d fac1 653d
000003f0: 8719 57bd 54cf 1bbb 9ca6 96bb 320e 5fbd
-0.065609306 -0.025877729 -0.00843822 -0.052586246 -0.06704904 0.05817593 0.060165137 -0.08311202
0.030962402 0.029085558 0.0845011 0.051137403 0.08125865 -0.028937435 0.05579478 0.0718952
-0.08192035 -0.07063034 0.018164864 0.043557063 -0.044759855 0.00798903 -0.0010560972 0.017774964
-0.04511549 0.049136147 0.06108312 -0.061328985 -0.00017553689 0.00024524197 0.024267806 0.08234121
0.03224913 -0.020083774 0.07263033 -0.036140453 -0.023580054 0.005526508 -0.06730851 0.008190654
-0.06274724 0.005183247 0.0061212904 0.012234777 -0.0745375 -0.083949864 0.047001615 0.07583592
-0.07843338 0.032179277 -0.07336668 0.0076788277 0.07967157 0.067053095 -0.066102624 0.051927317
0.0509626 -0.0031395373 0.08364352 -0.03895739 -0.022657923 -0.048492055 0.010380062 0.028403496
0.0045674946 -0.046463113 -0.046235796 0.029767849 -0.081280105 -0.010309744 -0.0019579423 -0.035811767
0.029790811 -0.0015859914 0.0611503 -0.007281732 -0.057794545 0.061563857 0.008076737 -0.033197403
-0.05889367 0.019510388 -0.08629428 0.01756856 0.04370315 -0.07376044 -0.05786541 -0.060932215
0.06945392 0.0751 0.003189776 0.08140403 -0.031174226 -0.08580937 0.026510498 0.028040292
0.08254708 -0.0022794164 0.063629836 0.054178856 0.061386127 -0.09125261 0.07027382 -0.07550561
0.079241134 -0.006444606 -0.081255965 0.020134714 -0.019277966 -0.081544064 -0.03357803 0.009113297
0.067523584 -0.029476589 0.054407798 0.011338416 0.0035440857 0.016912665 -0.058507215 -0.07334904
-0.027341086 -0.08516696 -0.043193214 0.004716223 -0.05946716 -0.038653623 -0.013978912 -0.010182636
-0.052545145 0.0019516754 -0.01240623 0.01443404 0.0026307818 -0.03882834 -0.030867433 -0.0044921995
-0.062086433 0.004650706 -0.001731953 0.041388474 0.016740719 0.0637205 -0.013381393 -0.06324573
0.046904735 -0.06606823 -0.014135389 -0.037809234 -0.032783404 -0.031870317 0.08139256 0.053129256
0.023501748 0.08187367 -0.0816793 0.01780575 0.0579662 0.060672108 -0.07380395 0.03145649
-0.055579327 -0.0034536708 -0.021167876 -0.07593374 -0.08990327 -0.061374437 0.03992104 0.039824028
-0.07035635 -0.040871717 -0.00025116233 -0.07898938 0.051299267 0.08049421 0.010048679 -0.07469668
0.020610956 0.033219866 0.06955435 -0.042345162 -0.08147712 0.038833473 0.0067646 -0.03131293
-0.04043602 -0.052713245 0.071158156 -0.0019731736 0.06369437 0.07786708 0.010386623 0.015183889
-0.008356842 0.068739966 -0.080415115 0.023643775 -0.021499258 0.044161 -0.0076122764 -0.03961406
-0.009752553 0.046699025 -0.061816834 -0.05623977 -0.03126746 -0.031302247 0.030982738 0.05624579
0.0027306941 0.08311053 -0.03751373 -0.05202593 -0.03957094 -0.060538977 -0.060199954 -0.07510967
-0.084588416 0.02267298 0.054195534 0.07902959 0.074331515 -0.005090612 0.019443972 -0.05572697
0.03169404 -0.08826119 0.04097488 0.016211795 0.022402737 0.035103932 -0.047082238 0.0783938
0.04218356 0.054287758 0.01122914 0.04964993 0.058745123 0.039335817 0.069335625 -0.016031692
0.055735737 0.015905106 0.05587697 0.08588783 0.03249732 -0.032806832 -0.011616093 0.025472313
0.007486856 -0.021955961 0.053649444 0.056093194 -0.05251458 -0.00237747 -0.004597498 -0.054456897

pi_body.2.bias f4 [128]
00000000: 3d66 6dbc d7cc 8abd badc af3d d866 f73c
00000010: 04c9 0b3c e5c4 de3c 37b4 243d 53bf aebd
00000020: 8168 893d 8c15 863d 9213 0d3c 99e7 e6bc
00000030: 432a 8f3c f614 313c 231c 743c 9be5 60bd
00000040: 99a2 4e3d f95a b13b 0c05 813b e018 0cbd
00000050: 41ef 963d 1e98 8cbd a895 00bd 92a5 83bd
00000060: 9617 813d 52e6 18bd 74d4 853a ace8 aebb
00000070: 1917 973d 0315 aabd 001d 1abd 078c bdbd
00000080: 41c5 f7bc e3a1 a6bd 62b5 c4bb b2cd 123d
00000090: b1d2 a13b 1b25 d13b d4d8 aebc 4f92 85bd
000000a0: 3a8f 49bb c28c 853d 4504 703c a988 073c
000000b0: b553 0dbd 12cc 5b3d 4b9a 643d 9807 aa3c
000000c0: daaf 933d 1c4e 9f3b 74c3 de3a 98aa 0d3d
000000d0: 5116 aebd f39c 813d 662c 35bd 62e3 2abd
000000e0: f7b3 ffbb 3997 8fbd 170c 69bd bf15 a03d
000000f0: 2ead 8cbc 135b 213d 06ea 493c e8f4 a63d
00000100: f343 4bbd dbe9 42bd 919a ab3d 22f4 7dbd
00000110: c649 a7bd 9fae 92bc a7a9 3f3d 14fb 373d
00000120: ee2e 84bd 814c 88bd 0af3 2c3d 37a1 64bd
00000130: 044d 343d f5eb afbc 479d 1dbd d401 8abc
00000140: 84b7 9a3d b297 74bd f1c1 8ebd f363 263d
00000150: b1a0 283d 08fa 47bc 2d49 453d 4ebf d7bc
00000160: c061 3ebd 1afa 85bd a36d 37bd 6016 70bd
00000170: 5932 e33c 414f a7bc f118 753d 1cf3 07bd
00000180: 0593 413d a9df 973d 3a18 aabc 8805 51bd
00000190: 770a 1e3d 61f5 abbd b28c 633d 269f 663d
000001a0: 8a34 1b3b e164 60bd d958 1b3c 89c1 733d
000001b0: a948 573c 5bc6 0a3c c7cc 1d3d 57ff 353d
000001c0: fdfb 9d3c 1946 4ebd b39f 89bb 2906 32bd
000001d0: 62d6 643d 68d0 3abd adb0 853d c08c 1b3d
000001e0: 6511 acbd 62a6 17bd f197 33bc b236 abbc
000001f0: 64a6 ecbb de2b 49bd 2197 883d f7fe 4b3d
-0.014489708 -0.06777351 0.08587022 0.030200407 0.008531813 0.027193496 0.04021093 -0.08532586
0.06709386 0.065470785 0.008610623 -0.028186606 0.017476207 0.01080822 0.014899286 -0.05490647
0.050448034 0.005412456 0.003937369 -0.03420341 0.07369853 -0.068649516 -0.031392723 -0.064280644
0.06303327 -0.037329026 0.0010210411 -0.0053377952 0.073774524 -0.08304789 -0.037625313 -0.09255224
-0.030245425 -0.08136346 -0.006003068 0.035840698 0.0049384465 0.006382597 -0.021343626 -0.06522047
-0.0030755536 0.06520988 0.014649455 0.008272328 -0.034503657 0.053661413 0.055811208 0.020755574
0.072112754 0.0048616063 0.0016995505 0.03458652 -0.0850035 0.06328764 -0.044231795 -0.041720755
-0.007803436 -0.07011265 -0.056896295 0.07816648 -0.017172422 0.039393496 0.012323862 0.08152181
-0.04962535 -0.047586303 0.083790906 -0.0620004 -0.08168368 -0.017905531 0.046792652 0.04491718
-0.06454264 -0.06655217 0.042223968 -0.05581781 0.04401876 -0.021474818 -0.03848007 -0.016846575
0.07554534 -0.05971498 -0.06970585 0.040622663 0.041168872 -0.012205608 0.04816549 -0.026336338
-0.04647994 -0.06541844 -0.044782292 -0.05861509 0.027733969 -0.020423533 0.05983824 -0.03319083
0.04725935 0.07415707 -0.020763505 -0.051030666 0.0385842 -0.08396412 0.0555541 0.05630412
0.0023682439 -0.054783706 0.009481632 0.05951074 0.013139882 0.008470143 0.03852537 0.044432964
0.019285196 -0.05035982 -0.004199946 -0.043462906 0.055868514 -0.045608908 0.06527839 0.037976027
-0.08401755 -0.03702391 -0.010961519 -0.020900104 -0.0072219837 -0.0491141 0.066694506 0.0498037

mu_head.weight f4 [8, 128]
00000000: acb9 5bbc ea07 04bd 053b 80bd 0b75 41bd
00000010: 4216 51bd 3fb1 a33d 07ef a33b 0180 49bd
00000020: 3ec1 923b b6c4 933b 6995 983c acd9 f33c
00000030: 0f7c 843d 7875 23bd 1988 69bc f35a 9bbd
00000040: 1582 dfbc 3b27 9fbd f2da b3bb b620 45bd
00000050: f4b8 f4bc 005d a33d 4980 a23d 98d9 b13b
00000060: 8a4c 513d 5d0d 643d d726 8f3c c6b6 9b3c
00000070: 0901 e73a 86dc 85bd d852 a13d d3c7 80bd
00000080: e8ae a6bc f9f3 90bd 3bee 32bd 1fbc bf3d
00000090: a875 39bc 58fc f63c b13a b53c df57 8f3d
000000a0: e9f5 cb3c 5836 0a3c a5d4 10bd c513 573c
000000b0: a277 b13c ed64 74bd 8ff4 84bd ffd7 fcbc
000000c0: 110d a83d ab6d 1f3d b4ad 4a3d 4691 823d
000000d0: de1f 67ba 4407 56bd 43c3 be3d 4841 b73c
000000e0: aa35 0fbd 2fec 2f3d a034 7ebd 615e b53b
000000f0: f652 b43d 4e34 0f3d 8f55 a2bd f051 9a3d
00000100: abf8 983c eeb6 89bc b6f4 963d 3f81 1a3d
00000110: 78e3 5c3d 3d1f 3c3d a508 54bd f262 72bd
00000120: de76 833d 6c70 95bb 4f20 b53d 461d 293d
00000130: c391 acbd 67f5 303d 62ba 2d3d 49c6 aebd
00000140: a5c5 2e3c 5f27 91bd c19b 293d 2689 5f3d
00000150: 169f 153d 47b7 6c3d 9aa5 54bd fb9d 88bb
00000160: e455 adbc 61b8 863d 7bb7 6b3d 69e5 f2bc
00000170: 28ee 89bd 3ad2 9dbb 27b0 873d 0756 33bc
00000180: 7d07 153d 92c1 6dbd fabb 68bd 06cd 99bd
00000190: 5cdb 95bd cead 2fbd 6085 2bbd a25b 163d
000001a0: 6990 9b3d aeec 313c 1c8b f93c eadb 6abd
000001b0: 5eb6 30bd 0a87 adbd d280 a93d cc91 7e3c
000001c0: 6368 c6bc ab11 a3bd 4f74 a83c 127c afbd
000001d0: 54fe 873d 85bd abbd 8aa3 9b3c 5f64 833d
000001e0: 8dd1 90bd eff2 843d 5caf ae3d cb61 8c3d
000001f0: 55ac 9b3d f41f 21bd da81 6abc 01ad ae3d
00000200: 66c5 213d 593a 6ebd e553 bd3d 26dd 3ebc
00000210: c2bb bdbc cfc5 b43c cbe6 c13d c1e5 24bd
00000220: 9969 a63c db65 1c3b 0d1e a5bc 3af8 383d
00000230: 1fe7 7f3c c2eb 81bd 7f8a 143c e9b9 643d
00000240: 332c 15bd 68d3 a03d f467 92bd b4d9 f83c
00000250: 6e12 5e3d 733b 073d 1051 fa3c f138 a43c
00000260: ead6 86bc fe91 863d 4b40 28bc 83fe a23d
00000270: 61a0 c23d 5ebe 91bd c49b ae3d cf55 d73c
00000280: f4f6 57bd 1076 32bd c09b 0ebc 425b b53d
00000290: c4e9 723d 02c4 9abc bf49 4cbd 717c 5ebd
000002a0: beab febc 72eb 063c 9227 89bd daaf 9fbd
000002b0: f317 51bd 2dea 033d 988b e03c a817 053d
000002c0: c9fe ae3d 96d0 d73c 6096 0cbd 9a30 3b3d
000002d0: cded 28bd 4e39 b63d a0f2 b4bc bc8f 2abd
000002e0: 6f7e 82bc 2000 38bd b570 11bc 0f76 8fba
000002f0: 2d85 543c e175 33ba b7c1 6fbd 8aab a7bd
00000300: 6493 62bd 45a6 99bd 2037 99bd ccc9 b23d
00000310: d1c3 5f3d b7d9 513d 3a12 733d d1d3 153d
00000320: 887c 75bc a1d7 003a 2963 c6bc 38f8 383d
00000330: b764 943c 3eb2 91bd 514a 8b3c 67e6 80bd
00000340: 3e2d 993d 36e2 243c 9244 013b 7856 5ebd
00000350: dd5d f13c a17d 903c 5905 ed3c afc2 72bd
00000360: 3d82 f4bc f63d 60bd e1f3 52bd 65ee 3bbd
00000370: 3388 6cbd 9f20 ae3d 9e66 aabd 5f13 5fbc
00000380: 39ac 3b3b 46e1 dbbc 9dba afbc 7b8f 203d
00000390: d009 30bc 50e8 e1bc d91e a03d 5b52 c4bc
000003a0: 8a01 253c 4c52 663d dd02 c6bc 6e70 90bd
000003b0: fa7e 883d d006 92bd 016a b2bd eba4 18bd
000003c0: 9919 403c 44bb 8e3d 3043 7dbd afba 1bbd
000003d0: ed85 ba3d 8cce 923d 9944 203d a50f 82bd
000003e0: 9a72 773d 0110 b8bb a0f0 97bd 12b3 a53d
000003f0: 0e7e 84bd 5e7a b23c cdcf 40bd 25a1 b93d
-0.013410967 -0.03223411 -0.06261257 -0.04723076 -0.051046617 0.079927914 0.0050028595 -0.04919434
0.0044786027 0.0045095338 0.018625932 0.02976688 0.06468975 -0.03990695 -0.01425364 -0.075857066
-0.027283708 -0.077711545 -0.005488747 -0.0481269 -0.029873349 0.07976723 0.07934625 0.0054275505
0.051098384 0.055676807 0.017474575 0.019008052 0.001762421 -0.06536202 0.07877129 -0.062881134
-0.020347074 -0.07077784 -0.043684226 0.09362053 -0.011319555 0.030149624 0.022122713 0.06999182
0.024897533 0.008435808 -0.035359044 0.013127272 0.02166349 -0.059666563 -0.06491958 -0.030864714
0.08205617 0.038922947 0.049482062 0.06375365 -0.0008816699 -0.052253023 0.09314587 0.022369996
-0.034963287 0.04294985 -0.062061906 0.0055349325 0.08804886 0.03496199 -0.07926475 0.075351596
0.018673262 -0.01681086 0.07370894 0.037720915 0.05392787 0.04592823 -0.051766057 -0.059176393
0.064191565 -0.004560521 0.08844053 0.041287683 -0.08426239 0.043202784 0.042414077 -0.08533914
0.010667239 -0.070875876 0.041408304 0.054574154 0.03652867 0.057791974 -0.051915742 -0.0041692234
-0.02115912 0.06578136 0.057548027 -0.029650407 -0.06734878 -0.0048163207 0.06625395 -0.0109458035
0.036384095 -0.05804593 -0.056819893 -0.07509808 -0.0731723 -0.042890362 -0.041875243 0.03670848
0.075959034 0.0108596515 0.03046184 -0.057338633 -0.04314267 -0.08473022 0.08276524 0.01553769
-0.024219697 -0.07962354 0.020563273 -0.085685864 0.06640306 -0.08385757 0.01899888 0.06415629
-0.07071219 0.064916484 0.08529541 0.0685459 0.07601229 -0.039337113 -0.014313186 0.085290916
0.039494894 -0.058161113 0.09244517 -0.011649406 -0.023160819 0.022066979 0.094678484 -0.040258173
0.020314025 0.0023864422 -0.02015593 0.045158602 0.015619068 -0.06343795 0.009066223 0.05584136
-0.036419105 0.078528225 -0.07148734 0.030377246 0.054216795 0.03301568 0.030556232 0.020046683
-0.0164599 0.065708145 -0.010269235 0.079587005 0.09503246 -0.07116388 0.08525804 0.026286034
-0.052725747 -0.043569624 -0.008704126 0.08855297 0.059304968 -0.018892292 -0.049875017 -0.054317895
-0.031087752 0.0082348455 -0.066970006 -0.07797213 -0.05104823 0.03220575 0.027410313 0.032493263
0.0854469 0.026344579 -0.034323096 0.045700647 -0.04124241 0.08897649 -0.022088349 -0.041640982
-0.015929429 -0.044921994 -0.008876969 -0.0010945218 0.012971205 -0.00068458734 -0.05853435 -0.08187015
-0.055316344 -0.075024165 -0.074812174 0.08729896 0.054630104 0.05123302 0.059343554 0.036578957
-0.014983304 0.0004914944 -0.024217205 0.045158595 0.01811443 -0.07114075 0.01700321 -0.06293946
0.074793324 0.0100636985 0.001972471 -0.05428168 0.029463703 0.01763803 0.028933214 -0.059267696
-0.029847259 -0.05474659 -0.051502112 -0.045881648 -0.057747077 0.08502316 -0.08320354 -0.013615458
0.0028636588 -0.026840817 -0.021451289 0.039199334 -0.010744527 -0.027576596 0.07818384 -0.023965051
0.010071168 0.05623083 -0.024171287 -0.07052694 0.06664844 -0.07130206 -0.08711625 -0.037266653
0.011724853 0.06969312 -0.061831653 -0.038019832 0.091075756 0.07168302 0.03912792 -0.0635064
0.060412027 -0.005617142 -0.074189425 0.080907956 -0.064693555 0.021786865 -0.047073174 0.09063939

mu_head.bias f4 [8]
00000000: e50b 9e3d 2495 563d da2b 6ebd ca29 16bd
00000010: 5822 06bd 2264 093d f98b 613d eacd 0b3b
0.077171125 0.052388325 -0.05814729 -0.036660947 -0.032747597 0.03354276 0.05506513 0.002133245

vf.0.weight f4 [128, 9]
00000000: 661c a5be 85d9 61be 8697 1dbe f0c3 65be
00000010: 6a4a 263e 0262 b93b 0b9b 73be aa2e 5ebe
00000020: 856b 81be b209 56be 9c89 163e a094 11be
00000030: 7c92 82be 827b 6a3d 73a1 2d3c 5d55 5ebe
00000040: 6974 ea3d 47ac 893d cd13 3b3d 4f4f 1f3e
00000050: f6a0 21be 0af7 8cbe 2734 663e c7ac 9d3e
00000060: 5383 a83e a3e7 413e 123d 943e 02e5 fb3d
00000070: 2111 8abe 1587 f63d d033 80be 5b5c 92be
00000080: 45d6 153e 3cab 1cbe e9d2 71be d265 ab3e
00000090: b2c2 f83d 3fdf 1d3e b0ce c2bd ec70 143e
000000a0: 2c49 f43b ac24 9abd 7a8d 3ebd de1e 8d3e
000000b0: 2c44 70be 7588 c4bd 4647 883e 32c5 d73b
000000c0: 05bb 3f3e 8090 ffbd a37e 7e3e 27d5 61be
000000d0: 44e2 28be ad34 8dbe ac98 6abe 419c 743e
000000e0: e46d 7f3e 2311 683e d0f0 4b3e bf03 7f3e
000000f0: 1878 743e ceef 733e 7ebd 0fbe ce73 843e
00000100: 9555 763e 2c2a fa3d 214c 32bd b2e8 9d3e
00000110: 3eb2 85ba 5b5b 91be 9be0 e2bd fd32 85bc
00000120: 4cda 373e 7ad5 ec3d 021b b53d c41f 9f3e
00000130: 7109 7b3e 3851 2abe a001 b2bd 2a7d 04bc
00000140: 4a64 89bc ec1f 82be 04ac cdbd 9c5a 7a3e
00000150: b275 a5be 06db 203d 54b8 423d c490 e9bd
00000160: 8037 e8bd dd78 34be 5997 71be ab0e 80be
00000170: 8e56 693e c6a0 593d c3c3 933d 3d61 a83a
00000180: 8599 8abe 1155 dbbc 9e8d 7cbe 4a62 463e
00000190: 1b3c 9ebd 7b09 85bd f577 1d3e ed4f 31be
000001a0: 992d 30be 63ec 04be 4557 22bd 3b24 34be
000001b0: dea6 8abe 351c 513e 98dc 6f3e 8f3b 9dbd
000001c0: ab00 47be f3cc 8a3e 7231 16be 27d9 58be
000001d0: 1e18 74be f216 c63d 6b4e c93d 466e ad3e
000001e0: d395 d7bd 32c6 3fbe 7ac9 af3e f20d 833e
000001f0: 1134 8ebe 1f15 a2be 654a e13d 1f95 40be
00000200: 9dc7 313d 207b c5bc 71d6 febd 29a0 8b3e
00000210: e4cd c83d ed89 bd3d 79d9 91be 0e86 c5bd
00000220: d7d9 393e 7a69 593e 04d5 833d ec91 99be
00000230: 7781 23be ebe9 b83e f371 963e 9726 353e
00000240: 2259 35be c719 1dbe c9c7 153e a4d5 80be
00000250: 2459 66bc 3298 173e 788d 253e 7fdf 3b3e
00000260: af30 873c 7647 863e 644a 96be b1d9 17be
00000270: bd21 5fbd 4a52 723e edb7 6bbe f84b 913e
00000280: f0a7 2dbe 8ff3 7dbd 3859 8d3e 26ae b73e
00000290: 61a4 083e 959d 02bd f3b9 883e 9aaf 7b3c
000002a0: 1228 753e 2ee4 2d3e bd0f 0d3c 0f03 9d3e
000002b0: b953 203e 5e17 9e3e f3ca a03e 528b 713d
000002c0: b111 25be e074 dabd 7a60 6fbd 1906 09be
000002d0: 43cf 133d ab48 a83e ec38 683e 33b3 c93d
000002e0: eead 393e 3e11 3dbe 3271 153e 308c 973e
000002f0: 59dc b13d 9830 e23b 8f23 8f3e 88cd 66be
00000300: 8f29 403e 1699 85bd ebf3 a7be 1c71 543e
00000310: 45e9 98bd 433c 8dbd 011f 37be 28a1 fbbd
00000320: 14c1 83bd 0fa4 aebe b3f6 2b3e c808 003d
00000330: 8d1e eb3d baa2 a93e 0c86 c0bd ad80 34be
00000340: 3c1d 32be 1543 c5bc 4dce 5bbc 0162 1e3e
00000350: 5815 2a3d 1be3 083e 977a 05be cb58 80be
00000360: d1f7 123d a6a0 c03d 7160 07be 7257 c4bd
00000370: b084 17bd 6dfc 92be 8583 ae3e 5e45 873e
00000380: d6a6 74be ab56 8dbe 5e91 953e 5dd9 8e3e
00000390: 90c3 a6be 8066 443d 4494 4fbe b62d 82be
000003a0: 2802 7fbe b4ee 243b fc05 a73e be97 2e3e
000003b0: 7065 96be 6d13 543e f234 a43e d45f 813e
000003c0: a1e6 aa3e b9c6 32be d328 2cbe 76ef 3e3e
000003d0: dd7c 8fbe 78ba b6bd d231 823e a586 c93d
000003e0: 26b4 a1bd 3e86 093e f702 1bbe 9957 2cbe
000003f0: 1ab6 a03d 2275 42be 21df 5b3e 2a7b 053e
-0.3224823 -0.22055633 -0.15389833 -0.22438025 0.16239324 0.0056574354 -0.23789613 -0.21697488
-0.25277343 -0.20902136 0.14700931 -0.14216852 -0.25502384 0.057246692 0.0105975745 -0.21712251
0.11447985 0.067223124 0.04567318 0.15557598 -0.15784058 -0.27532226 0.22480832 0.3079588
0.32912692 0.18936019 0.28952843 0.12299539 -0.26966193 0.120374836 -0.2503953 -0.28586087
0.14632519 -0.15299696 -0.23615612 0.3347612 0.1214651 0.15417193 -0.09512079 0.14496201
0.007455012 -0.07526526 -0.04652164 0.27562612 -0.23463506 -0.095963396 0.26616877 0.006584787
0.18723686 -0.12478733 0.24852996 -0.22053967 -0.16492563 -0.2757925 -0.22909802 0.23887731
0.24944264 0.22662787 0.19916081 0.24903773 0.23873937 0.23821947 -0.1403713 0.25869602
0.24056084 0.12215075 -0.043529633 0.30841595 -0.0010200215 -0.2839001 -0.11077996 -0.016259665
0.17954367 0.11564155 0.08843042 0.31078923 0.2451532 -0.16632545 -0.08691716 -0.008086482
-0.016771454 -0.2541498 -0.10042575 0.24448627 -0.32316357 0.039271377 0.04753907 -0.11404565
-0.11338711 -0.1762423 -0.23592891 -0.2501119 0.22786924 0.05313184 0.07215073 0.0012846362
-0.2707025 -0.026773961 -0.24663398 0.19373432 -0.07726308 -0.06495949 0.15377791 -0.17315646
-0.17204894 -0.129808 -0.039634008 -0.17591946 -0.27080435 0.20420916 0.23423994 -0.076773755
-0.19433849 0.2710949 -0.146673 -0.21176587 -0.23837325 0.09672345 0.0982941 0.33873194
-0.105266236 -0.1872795 0.34333402 0.25596577 -0.277741 -0.3165674 0.11000518 -0.18806885
0.043403257 -0.024106562 -0.12443245 0.2727063 0.098048955 0.09254823 -0.2848623 -0.096447095
0.18149506 0.21231642 0.06437114 -0.29994142 -0.15967356 0.36115965 0.2938381 0.17690502
-0.17709783 -0.15341865 0.14626993 -0.25162995 -0.014059339 0.14804152 0.16167247 0.18346976
0.016502706 0.26226395 -0.2935363 -0.14829136 -0.054475535 0.23664203 -0.23019381 0.28378272
-0.16958594 -0.061999854 0.2760713 0.35875052 0.13343956 -0.031888563 0.26704368 0.015361691
0.23941067 0.16981575 0.008609709 0.30666396 0.15656938 0.30877203 0.31404838 0.058970757
-0.1612003 -0.106668234 -0.058441617 -0.13381232 0.036086332 0.3286794 0.22677964 0.09848633
0.18132755 -0.18463609 0.14593962 0.29599142 0.08684606 0.0069027655 0.27956817 -0.22539341
0.18765853 -0.065233395 -0.32803282 0.20746273 -0.07466368 -0.0689626 -0.17882921 -0.122865975
-0.06433311 -0.34109542 0.16793327 0.031258374 0.114804365 0.33131963 -0.094005674 -0.17627211
-0.17393965 -0.024079839 -0.013415885 0.15467073 0.04152426 0.13367884 -0.13035046 -0.25067744
0.035880867 0.09405641 -0.13220383 -0.09586991 -0.036991775 -0.2870821 0.34084716 0.2642011
-0.23891768 -0.27605185 0.2921247 0.2790021 -0.32571077 0.047949314 -0.20271403 -0.254255
-0.24903166 0.0025166692 0.32621753 0.17050073 -0.29374266 0.20710535 0.32071644 0.25268424
0.3337908 -0.17458619 -0.16812448 0.18646035 -0.2802495 -0.08922285 0.25428635 0.098401345
-0.07895689 0.13430116 -0.1513785 -0.16830291 0.07847233 -0.18989995 0.21471836 0.13035265

vf.0.bias f4 [128]
00000000: 8be4 e03c 3ca3 a03e 0e91 af3e 2101 31bd
00000010: 9326 8abd 84fd 4fbd f35b 9fbd 41b0 5b3e
00000020: da64 423e 2cb8 63be 2a55 043e dd8e eb3e
00000030: ea45 c53e f446 983e 78e3 b73d 5aba 8d3e
00000040: 42c0 9e3e 9ac5 9ebd a872 873c 65e6 863d
00000050: 3bbe 8c3e 9172 8ebe 5306 cb3d ec22 a83e
00000060: 54d4 563e 4ebb 7dbe 1d26 ddbd 20be 94be
00000070: 6cc5 90be 20f5 8cbe fd21 733d 248e b6bd
00000080: 5e47 a5be d323 da3e 9f45 273e 6c3f 14be
00000090: 961c 3fbe e737 5c3d 1b00 b53e e172 5fbd
000000a0: 70b4 fcbd c38a ae3e 5c27 033d 1b55 11bd
000000b0: 32de a83e 9707 7bbe 88e1 513e 3fd6 9abe
000000c0: a3a9 983d 750c 2cbd ea55 58be 610c 09be
000000d0: fe9a b33e 8565 c73e fb71 273e f100 713e
000000e0: 9092 9a3e d70e 063d 769c cb3d 620f af3e
000000f0: dfa2 a03e 91f4 bdbd f9d1 473e 3676 6f3e
00000100: c798 80bd 8d9d b83e 1e0d c4bd 2d69 853e
00000110: 8342 9c3e 0828 7bbd f7c8 86be 5fd7 8dbe
00000120: 91e2 1e3d 0ccc 9c3e 7717 de3e 7c70 a73e
00000130: 1852 0d3e e04c a23d 74e1 fd3d 17d5 9cbd
00000140: 5f36 5d3c 2d04 a03e f016 80be 98e9 68be
00000150: 8a6e 6d3c 76a1 33be 814e 65be dde7 ff3d
00000160: b800 843e ab82 a03e 21ba 48be 16e5 503e
00000170: 3e00 a13e adc6 443e 73bd 3dbe 52ee 7cbd
00000180: 5ee6 963e a49a 263e 1835 2c3e 9261 82be
00000190: c761 8dbe 5e56 bf3e 3f30 0d3e d89b d83e
000001a0: 094e aabe aefb d4bd c7f4 9dbe 5d1d e53e
000001b0: c6b6 113e f431 7c3e f1c4 bd3e c62a 073e
000001c0: 5682 033e 3bb1 7bbe 07a8 1c3e 2ded b53e
000001d0: 5701 26bc a53c 81be 56f0 3fbe b7a9 033e
000001e0: 4c27 be3e 660a 1a3e b6d3 21be ba8f 0f3e
000001f0: d8e6 babd 3d4a 063e 24b6 aa3e a4e0 70be
0.027452728 0.31374538 0.34290355 -0.043213967 -0.06745639 -0.05077888 -0.0778121 0.21453954
0.18983784 -0.22238225 0.12923113 0.46007434 0.38529903 0.29741633 0.08978933 0.27681237
0.31006056 -0.07752533 0.016534165 0.06586913 0.27488884 -0.27821782 0.099133156 0.32839143
0.20979434 -0.24778482 -0.10798285 -0.29051304 -0.2827562 -0.27530766 0.059358586 -0.0891383
-0.3228101 0.42605457 0.16335152 -0.14477319 -0.18663248 0.05376425 0.35351643 -0.054552916
-0.12339103 0.34090242 0.032019958 -0.035481554 0.32982022 -0.24514614 0.2049619 -0.30241582
0.07454231 -0.042004067 -0.21126524 -0.13383628 0.35079187 0.3894464 0.16352074 0.23535515
0.30189943 0.032728996 0.09941952 0.34191424 0.3137426 -0.09275163 0.19513692 0.23384938
-0.0627914 0.36057702 -0.095728144 0.26056805 0.30519494 -0.061317474 -0.263252 -0.27703378
0.03879029 0.30624425 0.43377277 0.32703006 0.13800848 0.07924819 0.123965174 -0.07657831
0.013501733 0.31253186 -0.250175 -0.22745359 0.014491687 -0.17542061 -0.22393228 0.12495396
0.25781798 0.31349692 -0.19602253 0.2039989 0.31445497 0.19216414 -0.185293 -0.061750717
0.2947263 0.16269928 0.16817129 -0.25465065 -0.2761366 0.3737058 0.13787936 0.423064
-0.3326266 -0.103995666 -0.30850813 0.44748965 0.14229879 0.2462843 0.37064317 0.1319991
0.12842688 -0.24579327 0.15298472 0.35532513 -0.010132155 -0.2524158 -0.18744025 0.1285771
0.37139356 0.15043029 -0.15803418 0.14019671 -0.09126061 0.13114257 0.33342087 -0.23523194

vf.2.weight f4 [128, 128]
00000000: 7af2 1dbd 6c35 503d 70d0 e43d 9416 52bd
00000010: e70e 0fbc 6d24 2abd d87a 6dbd c0c6 6e3b
00000020: 1af9 553d 0112 93bd 135d 153d dc73 903d
00000030: d36b 1f3e 5584 b63a 0e3a 0abd 2ae0 0f3d
00000040: 1a54 c7bb 50b8 eaba d6de 1d3d b49e 48bd
00000050: 9c43 29bb 2c20 8c3d cc16 eb3d fd8d 463e
00000060: 008d 0d3e fb2c d03d 5d33 7dbc 1fc0 01bd
00000070: 0ac1 0fbb ab26 f23c b134 863d bf1d 0ebd
00000080: 5d7e 963d 6c8b 363d 57f7 fd3d 7e7e 803b
00000090: c586 133d a222 3d3d e872 cd3d 8449 0dbc
000000a0: 9c74 193d 9197 18bb 04e0 923d aab6 02bd
000000b0: 65dd dd3d 5e45 94bd 3b09 adbc 4685 803d
000000c0: 64c0 ee3d 41de 51bd c5c5 3cbd 22f8 30bd
000000d0: f4c8 973d 346e 103c 19d2 503d b990 d43d
000000e0: 27c6 043e 7a23 0e3c af9a 273d e327 cb3c
000000f0: 8f79 273e 2b0b 80bd 2b86 45bc bb9a 2e3d
00000100: 5246 b1ba e3cf ce3d 58be a23d 050b ce3c
00000110: b22c cd3c ff84 3abd fcf3 073d 43c3 71bd
00000120: 591a bd3d 0465 8f3d 4c63 353c b1b1 463d
00000130: f318 693d b0c6 db3d b0a9 313c 068c d1bc
00000140: f6f7 abbc 518c 8b3d c8d1 893d caeb 9539
00000150: 6c4e ab3d 8c98 17bd 2f64 95bd 8ae4 a03c
00000160: 8cc3 0c3e 0b03 0e3e 0081 cf3c 52cc 8d3c
00000170: da3c f23d 366c ba3d 0cd3 8abd 4c75 d4bc
00000180: 8b79 163e a22f 1c3d b94a f4bc f9d9 86bd
00000190: 05da c6bc 1755 313d cef2 8d3c c7aa fe3c
000001a0: 6e45 a23d f3e6 003d ab24 b03d 72ae 403d
000001b0: bbed ee3d ee32 be3d 67c3 343b 1051 cd3d
000001c0: 82b4 e23d 49ad 32bd c6a0 c13d 10cd e33c
000001d0: 6a4e 793a c686 c0ba cb68 4cbd 7dc3 d53d
000001e0: ac61 8b3d a377 44bc 320f d43d 47ba 5abd
000001f0: 2164 cabc 34af 6a3d c55c 0f3e 6cb8 b1bc
00000200: 0107 4cbd 429c 72bd 11eb 1d3d f081 3bbc
00000210: 02f6 abbd 7774 49bd d89c b6bd c334 8a3c
00000220: 933c 80bd 025c cf3b 63e1 5a3d de65 2e3d
00000230: d80b cabd 06a2 d73c b9a2 7d3d 7725 4f3d
00000240: eb1d 4d3c d3f7 88bc 9c94 90bd b6d7 7ebd
00000250: 277d 8cbd 4f0d 17bd 6fe2 f63c 276e 8c3d
00000260: 3846 fd3c b573 ebbc de23 23bc 1de4 2cbd
00000270: 56f0 28bd bd51 e0bc 663b 2bbc 2001 38bc
00000280: 0d96 263d dd4f 473c b50f 433d 0b12 d9bb
00000290: a3ec 90bd 0101 4fbc 3172 953c 5558 c5bd
000002a0: 516d 823b 1e97 113d 956d 9cbd f52e c23c
000002b0: 8d10 96bd fc15 943c 982d 493c dcf5 ec3c
000002c0: 55a7 98bd 5992 d13c f826 91bd a566 70bd
000002d0: 6695 923c fd91 a4bd c069 113d 05a7 cf3c
000002e0: 2fad 923d 9348 88bd d738 a53b 64d4 543d
000002f0: 36a8 8d3c 8fee 0fbd 03e3 6f3d dee3 193d
00000300: bed0 193c fb51 40bd aaec 90bd f57b 753d
00000310: 84ba 88bc 2e4b 9abc e10a abb9 8279 3ebd
00000320: 35ef d93c 3ee4 0e3a 8c2d 12ba c0d8 03bd
00000330: 3215 353c ad3d 6a3d 8f3b f33c 0e9c a63d
00000340: 34c3 223c aefb e23c c2c0 0abd 805f 88bd
00000350: abe6 dd3c e926 e3bb 0966 4cbc 2a7a d23a
00000360: 52f8 953c 205e babc 4f4a c03c f810 893d
00000370: 8611 ffbc 4b26 33bd 2780 6fbd 87c6 1a3d
00000380: 0c25 26bd d77a fc3b c5ba 9dbd 6414 e03c
00000390: 47d7 99bd 6e4f 8cbb cec6 8ebd 1f6a babd
000003a0: 8209 3cba c234 a13c 50b4 7abd 43c6 87bd
000003b0: 203a 2e3d 1257 06bd fa22 253d f927 7dbd
000003c0: c375 23bd 2f94 253d ed0a c5bd 1379 cb3b
000003d0: 5cb0 8ebd b372 67bd f93b 463c 4aaf 003d
000003e0: 04b2 83bd 0413 08bc 7275 f2bc 017b a6bd
000003f0: df10 e9bc b5d5 21bc 17ca 78bd e760 7abd
-0.03856132 0.050832197 0.11172569 -0.051291063 -0.00873158 -0.041538645 -0.05797848 0.0036434382
0.052239515 -0.07181168 0.036465716 0.070533484 0.15568475 0.0013924936 -0.03374677 0.03512589
-0.0060830237 -0.0017907713 0.03854259 -0.048979476 -0.0025827652 0.06842074 0.114789575 0.19390102
0.13823318 0.10164829 -0.0154541405 -0.03167736 -0.0021935129 0.029559454 0.06553019 -0.034696337
0.07348321 0.044566557 0.12400692 0.003921329 0.036017198 0.046175607 0.10031682 -0.0086234845
0.037464723 -0.00232837 0.07171634 -0.031912483 0.10833243 -0.07239793 -0.021122565 0.0627542
0.11657789 -0.05123735 -0.046087045 -0.043205388 0.07411376 0.008815337 0.050981615 0.10379166
0.12966214 0.00867545 0.040919002 0.024799293 0.16354965 -0.0625213 -0.012055914 0.04262803
-0.0013524985 0.10098245 0.079464614 0.025151739 0.025045726 -0.04553699 0.033191666 -0.059024107
0.09233541 0.07001689 0.0110710375 0.048509303 0.05690856 0.10731256 0.010843679 -0.025579464
-0.02099226 0.068138726 0.06729466 0.0002859517 0.08364567 -0.037010714 -0.07294499 0.019640226
0.1374647 0.13868348 0.025330067 0.017309342 0.11828013 0.09102671 -0.06778535 -0.025934838
0.14694802 0.038131364 -0.029820787 -0.06584544 -0.024273882 0.04329404 0.017327692 0.031087292
0.07923399 0.03147025 0.08600744 0.047041364 0.11666437 0.09287058 0.002758229 0.10025227
0.110695854 -0.04362229 0.09454493 0.027807742 0.0009510281 -0.0014688603 -0.049904626 0.10437677
0.06805739 -0.011991414 0.10354461 -0.053400304 -0.024705948 0.057295993 0.14000233 -0.021694385
-0.049811367 -0.05923105 0.038554255 -0.011444554 -0.08396532 -0.049183335 -0.08916634 0.016870862
-0.062615536 0.006328107 0.0534376 0.042577617 -0.0986554 0.026322376 0.061922763 0.05057284
0.01251934 -0.016719734 -0.07059595 -0.062217437 -0.068598084 -0.036877926 0.030137269 0.068569474
0.030917272 -0.028741697 -0.009957282 -0.042209733 -0.041244827 -0.027382726 -0.010451173 -0.011230737
0.040670443 0.012165037 0.0476224 -0.0066244653 -0.07076385 -0.012634517 0.018242927 -0.096359886
0.0039803167 0.035544507 -0.076380886 0.023704031 -0.073273756 0.01807689 0.012278937 0.028925829
-0.07453791 0.02558248 -0.07087511 -0.05869164 0.017893504 -0.080356576 0.03550124 0.025348196
0.071619384 -0.066544674 0.005042176 0.051960364 0.017292123 -0.035139617 0.058566105 0.037570827
0.009388147 -0.046953183 -0.0707639 0.059932668 -0.0166905 -0.018834677 -0.00032623767 -0.046502598
0.02660332 0.0005450881 -0.0005576245 -0.03218913 0.011052417 0.057187725 0.029691486 0.08135234
0.009934235 0.0277079 -0.033875234 -0.0665884 0.02708753 -0.0069321287 -0.012475499 0.0016058136
0.018306885 -0.02274996 0.023472933 0.0669269 -0.031136286 -0.04373769 -0.058471825 0.037786987
-0.040562674 0.0077050733 -0.07701639 0.027353473 -0.07511764 -0.0042819297 -0.06971513 -0.09102272
-0.00071730476 0.019678477 -0.061207116 -0.06629612 0.0425359 -0.03279788 0.04031656 -0.0618057
-0.03990723 0.040424522 -0.096212246 0.0062095015 -0.06967232 -0.05650587 0.0120992595 0.03141717
-0.06430438 -0.008305315 -0.029597018 -0.0812893 -0.028450428 -0.009877612 -0.060739603 -0.06112757

vf.2.bias f4 [128]
00000000: f800 943d bac4 0b3d 41ba 433e 9db7 133d
00000010: ef18 77bd a8d3 f23d fb81 ab3d 5e83 51bc
00000020: 229d fa3d 8721 a83d a655 2f3d 9176 b13d
00000030: 44d8 a2bd 47ee 123e 4c2e b73c 5a89 bdbd
00000040: 14c8 4f3d 7ca0 bdbd 4c68 dd3d 920d 8c3d
00000050: be82 fe3d f716 b7bd c1f3 5ebd b2fc 123d
00000060: a053 a2bd f35a 113e 03ac 62bc 3290 1e3d
00000070: 6f8c 0f3d abfc 003d 1838 58bd c774 26bd
00000080: 247c d13d f422 2b3d 95ac 293d 0aae 483d
00000090: 31b6 19bc f7fc b8bd 0445 9c3d 1c07 0a3e
000000a0: 493a 993d a1ad 82bd 739f e73d c49b 843c
000000b0: 2d90 e9bb cabc 83bd 7483 963c a59a 343d
000000c0: 1ccd 843d ac04 4a3d 9c79 e63b 097e 1f3e
000000d0: 8e4b 243d d5f1 263c ffea b63b ac1a 90bd
000000e0: 2dc0 ea3c 0ac6 593d 242e 55bd 2fb1 0e3d
000000f0: f328 fabc 13f5 693a 6db1 773d 537f b53c
00000100: 2a02 1b3d 196a 203d 989f f53d 3e8c d73d
00000110: 8a5e 833d 16ed 9f3d 06c3 763d 0198 eebc
00000120: c0b9 2f3d 7e6c 113d 7202 033e 459e 1b3e
00000130: ab4d 9bbc 07bd aa3d 74f5 f53c c050 693d
00000140: 29e9 8d3d 0ce5 863d 2982 25bd f936 9e3d
00000150: 3d42 4b3e 22e4 84bd 8bf3 ae3d 35b5 f83c
00000160: 235e e53c 1fe4 8b3d 3c4a 8c3c dbb5 703d
00000170: b526 863d 1362 dc3d 1111 883d 11a4 933d
00000180: 4619 6abd c1fa 243e db11 e9bb 9bb4 e93d
00000190: 4f2c d13d d24e 28bd e5e5 0d3e 86c2 853d
000001a0: 3e13 86bd 7263 c13c d921 96bd efbe c63d
000001b0: 523c 113e 632f 423d d8a7 0e3e 5b2b 383d
000001c0: 1a7c 223e 3fa3 163d 07eb c0bd 82a9 aabd
000001d0: 6b9c d73c 3fc2 423d f7dd 303e 85e8 a5bd
000001e0: ffd2 d83d bdf4 513d bdcf 9b3b 9f0f 5d3d
000001f0: 7f54 91bb b886 9fbc 6a1c 543d 7ab6 083e
0.07226747 0.03412316 0.19114019 0.03606378 -0.060326513 0.118567765 0.08374401 -0.012787668
0.12237002 0.0820952 0.04280629 0.08665193 -0.07951406 0.14348708 0.022360943 -0.09254713
0.05072792 -0.092591256 0.10810909 0.06838526 0.12427281 -0.08939927 -0.05443168 0.03588552
-0.079261065 0.1419485 -0.013834956 0.038711734 0.035046037 0.031490963 -0.05278787 -0.04063871
0.10228756 0.04178138 0.041424353 0.0489941 -0.009381817 -0.09032624 0.07630351 0.13479275
0.0748182 -0.06380773 0.113097094 0.016187556 -0.007127783 -0.06432493 0.018373229 0.044092793
0.06484434 0.04932086 0.00703354 0.15575422 0.040111117 0.010189493 0.005582213 -0.07036337
0.02865609 0.05316738 -0.052045956 0.034836944 -0.030537104 0.00089247635 0.06047194 0.02215544
0.03784386 0.039163683 0.11993331 0.10524796 0.06414516 0.078088924 0.060244583 -0.029125215
0.042901754 0.035503857 0.12793902 0.15197094 -0.018957933 0.08336835 0.030024268 0.056961775
0.069292374 0.06586656 -0.040407334 0.07725329 0.19849487 -0.064888254 0.08542546 0.030359844
0.02799899 0.0683062 0.017125241 0.05876718 0.065503515 0.10760894 0.0664388 0.072090276
-0.05715301 0.1611128 -0.0071127242 0.11411401 0.10213529 -0.041090794 0.13857229 0.06531243
-0.06546639 0.02360699 -0.07330675 0.097043864 0.14183167 0.047408473 0.13931215 0.044963222
0.15867653 0.036776777 -0.09419828 -0.08333112 0.026319703 0.04754853 0.17272173 -0.0810099
0.10587119 0.05125879 0.004754989 0.053969976 -0.0044351215 -0.019473419 0.05178491 0.1335086

vf.4.weight f4 [1, 128]
00000000: e863 c83d c85b 11bd 9e97 cc3d 0f74 d2bb
00000010: 85d6 97bd 5369 d53d ebf9 0a3e 752c 6dbd
00000020: aa23 003e 6e95 173e 89fc ab3d ee76 e23d
00000030: bbc6 18bd b25f c23d c6ec 013e a628 67bd
00000040: a22a 05bd 37bd 9e39 fd33 cd3d 9260 15bd
00000050: 68bc 073e 9a5d ca3b c65a 84bd c0b4 42bd
00000060: 839f 1b3d d167 e23d cba4 12bd 6101 9d3d
00000070: c9a4 b13d 651d 123e 9011 30bd 639a 48bd
00000080: 0f21 d13d 2fba cd3d f204 a43d 7d4e 3abd
00000090: ef2e 72bd 9716 92bd d248 1a3e c69f f43d
000000a0: 7b23 bc3d 9436 a5bc bbb9 e23d e64f 9cba
000000b0: 8e97 e93b ffb3 83bc 3fd3 1dbd 7147 9b3d
000000c0: 21a7 4dbd 201f a03d f010 953c 6114 863d
000000d0: 5aa6 6cbb 8ab3 093e 1aa7 c53d 8556 e0bc
000000e0: 5c7b b33d 3332 64bb c85f 07bd c5c4 1e3e
000000f0: 0912 a3bc c58f f2ba 9aea fbbc 884f 39bd
00000100: 5e24 ff3d 4afe fb3d f099 053e 7369 c63d
00000110: 1cc3 1f3b cfc8 193e 0df5 643d 32e9 05bd
00000120: 4a54 59bc e9fd a03d 2dce f43d d83a f33d
00000130: 1d28 f6bc fc4f 0d3e c904 acbc a1f5 5fbd
00000140: b785 d93d d214 a3bc 4260 35bd b20f b13d
00000150: 6497 793d 4c27 923c 6295 923d b00b 3bbd
00000160: e55c c53d f533 17bb f7ce 25bd 3aef fd3d
00000170: a6dd 31bd 5ce7 073e 1e00 d23d 1aff 1cbc
00000180: e68e a1bd 2b81 993d 483e 143e 7754 d33d
00000190: ae7b f53d ba6f 64bd 1d0d e53d f29b d4bc
000001a0: 7368 7bbd cdaf a83d b016 9abc a970 fe3d
000001b0: f13b 113e 16e0 b73d 7edf 093e d28f e43d
000001c0: 23e1 bf3d 1754 2ebd b72d 1abd 38be 73bd
000001d0: 61bb 87bd 92c0 0e3e ec93 153e 87ca f8bc
000001e0: 1d2b 7d3d 5657 f7bc c9fa a3bd 7fa8 84bd
000001f0: 82aa d83d d4ba 83bd dcee e63d 95f1 e43d
0.097846806 -0.03548792 0.09989856 -0.0064225267 -0.07413963 0.104204796 0.13571899 -0.057903726
0.12513605 0.14803097 0.08397777 0.1105784 -0.0372989 0.09490909 0.12687978 -0.05643525
-0.03251136 0.00030277084 0.100196816 -0.03646905 0.13255465 0.006175709 -0.06462626 -0.047535658
0.03799392 0.11054958 -0.03580169 0.07666279 0.086740084 0.14269026 -0.0429855 -0.04897536
0.102113836 0.10045277 0.08008756 -0.04548501 -0.05912679 -0.07133215 0.15066841 0.11944537
0.09186455 -0.020167626 0.110705815 -0.0011925667 0.0071286624 -0.01607704 -0.038531538 0.07581986
-0.050208215 0.078184366 0.018196553 0.06546856 -0.0036109895 0.13447395 0.09651013 -0.027385006
0.08763763 -0.003481996 -0.03305033 0.15504749 -0.01990606 -0.0018505981 -0.030751515 -0.045241863
0.12458108 0.12304361 0.13047004 0.096880816 0.002437777 0.15018009 0.05589776 -0.032693096
-0.013264725 0.078609295 0.119533874 0.11876458 -0.030048424 0.13800043 -0.020998375 -0.05467761
0.10621207 -0.019907389 -0.04428125 0.08645572 0.060935393 0.017841004 0.07157399 -0.045665443
0.09636859 -0.002307174 -0.04048058 0.123991445 -0.04342427 0.1327185 0.102539286 -0.009582305
-0.07888584 0.0749534 0.14476883 0.10318845 0.11986481 -0.055770613 0.11184142 -0.025953267
-0.061378907 0.08236656 -0.018809646 0.12423832 0.14183022 0.08978288 0.13464162 0.11160244
0.09369113 -0.042560663 -0.037641253 -0.05950758 -0.066275366 0.13940647 0.14607209 -0.03037001
0.061808694 -0.030193012 -0.08006818 -0.064774506 0.10579397 -0.06432119 0.112760276 0.111788906
