ckpt/ppo_ep100.pt (torch, 151697 bytes, 12 tensors)

log_std f4 [8]
0	0x3b83f70d	0.0040272535
1	0x3b9dd2e1	0.0048163985
2	0x3ae4d3aa	0.00174581
3	0x3abf2780	0.0014583915
4	0x3b26bc4a	0.002544182
5	0x3abeaa94	0.0014546686
6	0x3bc8ec93	0.0061317175
7	0xba9ff082	-0.0012202414

pi_body.0.weight f4 [128, 9]
0	0x3e821f32	0.25414425
1	0x3e8e0ae9	0.277427
2	0xbd9cdfa4	-0.076598436
3	0x3e9b9197	0.30384514
4	0xbd9530e4	-0.07284716
5	0x3d89bfbe	0.06726025
6	0xbe254dbb	-0.16142933
7	0x3e487b52	0.19578293
8	0x3e967b9e	0.29391187
9	0xbe7da1f4	-0.24768811
10	0x3e90a215	0.2824866
11	0x3d701d02	0.058621414
12	0x3e796044	0.24353129
13	0x3d271022	0.04078687
14	0x3e212f75	0.1574076
15	0xbd505f02	-0.050871857
16	0x3e7fb61b	0.24971811
17	0x3d33767f	0.04381418
18	0xbe1f5918	-0.1556133
19	0x3dae02b6	0.08496611
20	0xbe1d43c8	-0.15357888
21	0xbd201dd6	-0.039090954
22	0xbe0aa2a8	-0.13538611
23	0x3e626e3e	0.22112367
24	0xbe86b81c	-0.2631234
25	0xbe1d5bb3	-0.15367012
26	0xbdc0c490	-0.09412491
27	0xbe481c38	-0.19542015
28	0x3d04e751	0.032447163
29	0xbea7b058	-0.32751727
30	0x3e9bb173	0.3040882
31	0xbe8fedf7	-0.2811124
32	0x3e860747	0.26177427
33	0x3d6d6460	0.057957053
34	0xbdd61395	-0.10452954
35	0x3e568731	0.20950009
36	0x3d53055a	0.051518776
37	0x3e8a3645	0.2699453
38	0x3d0d66cb	0.03452186
39	0xbdd5ffb0	-0.10449159
40	0x3db61ca6	0.08892183
41	0xbdb60fb9	-0.088897176
42	0x3e119ea9	0.1422068
43	0x3e9782a3	0.29591855
44	0x3e4588b7	0.19290434
45	0xbe1881cb	-0.14893262
46	0x3e44f664	0.19234616
47	0x3d6750bc	0.05647348
48	0x3e2dad7f	0.16960715
49	0xbe534222	-0.20630696
50	0xbea959b0	-0.3307624
51	0xbe04c94f	-0.12967418
52	0xbe838f89	-0.25695446
53	0x3e8b503a	0.27209646
54	0x3dc90607	0.09815603
55	0x3e131f79	0.14367475
56	0x3ddd3698	0.108014286
57	0xbb91dc71	-0.0044513275
58	0x3e86cd1b	0.26328358
59	0xbe6ec7a0	-0.23318338
60	0x3cbfd027	0.023414684
61	0xbe644289	-0.22291006
62	0x3dd9dba9	0.106376
63	0xbde61076	-0.112336084
64	0x3dd2eb17	0.10298746
65	0xbd8de47d	-0.06928346
66	0x3e8e0f07	0.2774584
67	0xbe459e93	-0.19298773
68	0xbe4b94b7	-0.19880949
69	0xbe4ad7c0	-0.19808865
70	0x3e99992d	0.29999676
71	0x3de68c48	0.11257225
72	0x3ea39e20	0.31956577
73	0xbe8fca9c	-0.28084266
74	0xbeab21ba	-0.3342417
75	0xbe84efb1	-0.2596412
76	0xbe66cbeb	-0.22538726
77	0x3e042ff2	0.12908915
78	0x3df1123e	0.117710575
79	0x3e8b6553	0.27225742
80	0xbe336672	-0.17519549
81	0xbe684d6f	-0.22685789
82	0x3e3b8fa8	0.1831652
83	0xbe03f4f6	-0.12886414
84	0x3e510480	0.20411873
85	0xbd9ba903	-0.07600596
86	0x3e444a34	0.19168931
87	0xbe8415df	-0.25797936
88	0xbe286274	-0.16443807
89	0x3dd7a0fa	0.10528751
90	0x3d8f7f10	0.07006657
91	0xbdb315c9	-0.087443896
92	0x3e486436	0.19569477
93	0x3e69cb11	0.2283137
94	0xbe7638f3	-0.24045162
95	0xbe3968b4	-0.18106347
96	0x3e9b231f	0.30300233
97	0xbdf2feb2	-0.118649855
98	0xbdf5ab97	-0.11995619
99	0xbea4ab7f	-0.3216209
100	0xbe40fdef	-0.18846868
101	0x3dac1bab	0.08403715
102	0xbd394cb5	-0.04523917
103	0xbe768061	-0.2407241
104	0x3bc13364	0.005896019
105	0xbe67525d	-0.22590013
106	0xbe9093b0	-0.28237677
107	0xbe3ada4f	-0.1824734
108	0xbe96e19c	-0.29469
109	0xbe57ff25	-0.21093424
110	0x3ea63e15	0.3246924
111	0x3d6660b2	0.05624456
112	0x3dc468a4	0.09590271
113	0xbe9df623	-0.3085185
114	0xbe65727f	-0.22406958
115	0xbdf15b4e	-0.11784993
116	0x3d33e50b	0.043919604
117	0xbe97d1a3	-0.29652128
118	0xbe15d92c	-0.14633626
119	0xbe4ef32d	-0.20209952
120	0xba3958f2	-0.0007070444
121	0xbdfe7512	-0.12424673
122	0xbcc90b1e	-0.024541434
123	0xbe673bf4	-0.22581464
124	0xbe69000c	-0.22753924
125	0xbe48e6c9	-0.19619288
126	0xbdf11bf6	-0.11772911
127	0xbe88bf43	-0.2670842
128	0x3e8c8825	0.2744762
129	0xbd8cdfd9	-0.06878633
130	0x3e8f60bf	0.280035
131	0x3dcfe28d	0.10150633
132	0xbe93307b	-0.28747925
133	0x3e66f28e	0.22553465
134	0xbdc77529	-0.097391434
135	0xbe01584e	-0.12631342
136	0xbe8e254a	-0.27762824
137	0xbea9a580	-0.3313408
138	0x3dcb25c2	0.09919311
139	0xbd93761d	-0.07200263
140	0x3e070384	0.13184935
141	0xbe8a64ea	-0.27030116
142	0x3e7e95bb	0.24861805
143	0xbe787e18	-0.24266851
144	0xbd6b4c95	-0.05744608
145	0x3d91c5f0	0.07117832
146	0x3e307f18	0.17235982
147	0x3e8a2a9d	0.26985636
148	0x3e9cca4d	0.30623093
149	0xbe87629e	-0.26442426
150	0x3db0837d	0.086188294
151	0xbe1409a8	-0.14456809
152	0xbd1198c5	-0.035546083
153	0xbe7d3b18	-0.24729574
154	0x3e9bd955	0.3043925
155	0xbe7a5119	-0.24444999
156	0x3e34abce	0.17643663
157	0x3df17c52	0.1179129
158	0x3de26890	0.110551
159	0xbe341bb1	-0.17588688
160	0x3e9af540	0.30265236
161	0x3d97c983	0.07411482
162	0x3d239881	0.03994036
163	0xbe98033b	-0.29689965
164	0x3e0caa8f	0.13736938
165	0xbd4a748a	-0.049427547
166	0xbe1e323f	-0.15448855
167	0x3e913f43	0.28368577
168	0x3d967f80	0.073485374
169	0xbe3f9911	-0.18710734
170	0xbe2ee922	-0.1708112
171	0xbc1abfa8	-0.0094451085
172	0x3e471758	0.19442499
173	0xbda5eaa4	-0.08101395
174	0xbe38b6c1	-0.18038465
175	0xbdde27e4	-0.10847452
176	0xbe793178	-0.24335277
177	0x3e014318	0.1262325
178	0x3e8929bc	0.26789653
179	0xbe9bed5c	-0.30454528
180	0x3d930462	0.0717857
181	0x3e2b711e	0.1674237
182	0x3d6871bf	0.0567491
183	0xbdfc5cc8	-0.12322384
184	0x3e2dbb10	0.1696589
185	0x3e2f328b	0.17109124
186	0x3df30fc3	0.11868241
187	0xbd7f2c55	-0.062298138
188	0xbdbffa2b	-0.09373888
189	0x3d0d3594	0.034474924
190	0xbd7ee44c	-0.06222944
191	0xbdcf35ba	-0.101176694
192	0x3e58ecf1	0.21184136
193	0x3e914dfc	0.2837981
194	0xbd072013	-0.032989573
195	0xbd9da90a	-0.07698257
196	0x3a52e23c	0.0008044576
197	0xbcb6f004	-0.022331245
198	0x3da30a88	0.07960993
199	0x3dbd1416	0.09232347
200	0xbe9bfd55	-0.30466715
201	0xbdfb14a4	-0.12259796
202	0x3e8e1eb6	0.27757806
203	0x3e0661bb	0.13123219
204	0xbc7e3dee	-0.015517695
205	0xbe4fba52	-0.2028592
206	0xbe514eb9	-0.20440187
207	0xbe9a8308	-0.30178094
208	0xbde794c6	-0.11307673
209	0x3de17342	0.11008312
210	0x3e581fb0	0.21105838
211	0x3e1b4a78	0.15165126
212	0xbe97dfa9	-0.29662827
213	0xbe4e0114	-0.20117599
214	0xbd7168a1	-0.058937673
215	0x3ea39ac1	0.31954005
216	0x3d3b0bc7	0.04566553
217	0xbdb6df22	-0.08929278
218	0x3e0a7779	0.13522138
219	0xbe02c3b8	-0.12769973
220	0xbe5ff8a8	-0.21872199
221	0x3e73ba6c	0.23801583
222	0xbe20a2e3	-0.15687136
223	0xbd938397	-0.07202833
224	0xbeabf256	-0.33583325
225	0x3e679368	0.22614825
226	0x3e8258e7	0.25458452
227	0x3dfbc299	0.12292976
228	0xbe6b86b5	-0.23000605
229	0xbea7473d	-0.32671538
230	0xbe87ef7f	-0.2654991
231	0x3e818fd6	0.2530505
232	0x3e283193	0.16425161
233	0x3e917978	0.28412986
234	0x3e3c3797	0.18380581
235	0x3dbd9819	0.09257526
236	0x3a27a25b	0.0006394737
237	0xbe7aaddf	-0.24480389
238	0xbe8f1892	-0.27948433
239	0xbe9c9922	-0.3058558
240	0x3e10fe6d	0.14159556
241	0xbe1ffc51	-0.15623595
242	0xbd716679	-0.058935616
243	0xbe43317f	-0.1906185
244	0xbd79a85e	-0.060951583
245	0xbe6e5ac8	-0.23276818
246	0xbe5f97c0	-0.21835232
247	0x3de3189f	0.110886805
248	0xbdc895a6	-0.09794168
249	0x3e53300a	0.20623794
250	0xbddc55ba	-0.107585385
251	0xbe7a0c43	-0.2441874
252	0xbd69d089	-0.05708364
253	0xbe243bd4	-0.16038448
254	0xbdd0137e	-0.10159968
255	0xbea27223	-0.31727704

pi_body.0.bias f4 [128]
0	0x3dcc4c5c	0.09975502
1	0x3d650264	0.055910483
2	0xbe4868c3	-0.19571213
3	0x3d5973f4	0.053089097
4	0x3ea4e4ae	0.3220572
5	0x3e688217	0.22705875
6	0xbe830a2a	-0.25593692
7	0x3e9c765a	0.30559045
8	0x3cb09f99	0.021560477
9	0x3e2891c8	0.16461861
10	0x3e83b85e	0.25726599
11	0x3e92891e	0.28620237
12	0xbe895e7a	-0.26829892
13	0x3e945675	0.2897221
14	0xbe6dd78b	-0.23226754
15	0x3cd269e1	0.025685253
16	0xbe6cae91	-0.23113467
17	0xbd943b0c	-0.07237825
18	0xbc90c909	-0.017673986
19	0xbcfc6458	-0.030809566
20	0xbd6c81e0	-0.057741046
21	0x3cc7bf11	0.0243831
22	0x3ea7f3f5	0.32803312
23	0x3e427605	0.18990333
24	0x3e3b02d6	0.182628
25	0x3e0cab55	0.13737233
26	0x3e88501c	0.2662362
27	0xbc743dfe	-0.014907358
28	0x3cdbfa6f	0.026852814
29	0x3d7c6f1c	0.0616294
30	0xbe95a3d5	-0.29226556
31	0xbe897b52	-0.26851898
32	0x3d32d02c	0.04365556
33	0xbe058bf8	-0.13041675
34	0xbb9cdaa4	-0.004786806
35	0xbda5099e	-0.08058475
36	0x3d515e1d	0.051115144
37	0x3e5a3b21	0.21311618
38	0xbdeaf394	-0.1147224
39	0x3e86ac0b	0.26303133
40	0x3e878b0d	0.26473275
41	0xbe83fef5	-0.25780454
42	0xbe820d6a	-0.2540086
43	0xbe8c7bc1	-0.27438167
44	0xbe3e1c21	-0.18565418
45	0xbe080f02	-0.13286975
46	0xbcb35e50	-0.021895558
47	0xbda4b630	-0.08042562
48	0xbe2a211b	-0.16614191
49	0xbdd68c31	-0.10475958
50	0xbdf682d9	-0.12036676
51	0x3ea7fc2c	0.3280958
52	0xbdff1d74	-0.124567896
53	0xbe74651e	-0.23866698
54	0x3e103f7f	0.14086722
55	0xbc952e5a	-0.018210579
56	0x3e847c0d	0.25875893
57	0x3e506db0	0.20354342
58	0x3e9ccd92	0.30625588
59	0xbe7760b5	-0.24157985
60	0x3e5f6649	0.21816362
61	0x3e8e518d	0.27796593
62	0xbe282d23	-0.16423468
63	0x3e9d93a6	0.3077671
64	0x3e7d0b83	0.24711423
65	0x3b38621e	0.0028134654
66	0x3e2734fa	0.16328803
67	0xbde53c35	-0.11193124
68	0xbe95f8e9	-0.29291466
69	0x3da4247b	0.080147706
70	0x3dc086bb	0.09400698
71	0xbe5cd143	-0.21564202
72	0x3e24bd91	0.16087939
73	0xbe9096f1	-0.2824016
74	0x3e9243eb	0.28567442
75	0x3ea6af01	0.32555392
76	0x3dae219f	0.085025065
77	0xbe5048ff	-0.20340346
78	0x3e267ce5	0.16258581
79	0x3d622a1f	0.05521595
80	0x3db6900f	0.08914196
81	0x3dddd2d8	0.10831231
82	0x3e844271	0.2583194
83	0xbe12b397	-0.1432632
84	0xbd992336	-0.07477419
85	0x3dbe4579	0.092905946
86	0x3d124792	0.035712786
87	0x3e8a17d8	0.26971316
88	0xbe34a7a5	-0.17642076
89	0xbc0b97dc	-0.008520093
90	0x3d859c8d	0.06524
91	0xbdaa448b	-0.08313855
92	0x3e6d7d14	0.23192245
93	0x3d2ce881	0.04221392
94	0xbe9e0d77	-0.30869648
95	0xbd187cfa	-0.037228562
96	0xbe1ec1cf	-0.1550362
97	0x3cfa524d	0.030556822
98	0xbd1cf496	-0.038319193
99	0xbea94a44	-0.33064473
100	0xbd827f2c	-0.06371912
101	0xbcfbb15f	-0.030724226
102	0xbdcd50b0	-0.100251555
103	0x3e9d819b	0.30762944
104	0xbd91bedd	-0.071164824
105	0x3e5d635d	0.21619935
106	0x3da8078e	0.08204566
107	0xbe90999f	-0.28242204
108	0x3db02202	0.086002365
109	0x3e8c7683	0.27434167
110	0xbe5c7efc	-0.21532816
111	0xbe5ca11b	-0.21545832
112	0x3ea644ea	0.32474452
113	0x3e885b1b	0.26632008
114	0xbe3e0a73	-0.18558674
115	0x3e4c9df5	0.19982131
116	0xbd39f2c4	-0.045397535
117	0xbea878e7	-0.3290474
118	0x3ca9dd9f	0.02073556
119	0x3ddda75d	0.10822938
120	0xbdc2b7e0	-0.095077276
121	0x3dfade3b	0.12249418
122	0xbe9226d7	-0.28545257
123	0x3e69a1e5	0.22815664
124	0x3e9139a9	0.28364304
125	0x3e3aabc2	0.18229583
126	0x3d7023b4	0.0586278
127	0x3de0da71	0.109791644

pi_body.2.weight f4 [128, 128]
0	0xbd8009f2	-0.06251897
1	0xbcb808d4	-0.022465147
2	0xbc0a4076	-0.00843822
3	0xbd523afd	-0.051325787
4	0xbd824445	-0.06360678
5	0x3d6bd64c	0.057577416
6	0x3d7906da	0.06079755
7	0xbda4962a	-0.08036454
8	0x3d04d249	0.032427106
9	0x3d0401c2	0.03222824
10	0x3daf0410	0.08545697
11	0x3d517574	0.051137403
12	0x3da66aef	0.08125865
13	0xbced0e33	-0.028937435
14	0x3d6cd50e	0.057820372
15	0x3d933dca	0.0718952
16	0xbda9535f	-0.08267855
17	0xbd8c509f	-0.06851315
18	0x3c8484b4	0.016176559
19	0x3d5503ba	0.052005507
20	0xbd279565	-0.040913958
21	0x3c21af8b	0.009868513
22	0x3b929a73	0.004473978
23	0x3c93b2e8	0.018029645
24	0xbd44c0f0	-0.048035562
25	0x3d559943	0.052148115
26	0x3d81842f	0.0632404
27	0xbd7b341a	-0.061328985
28	0x3b856f17	0.004072081
29	0x398093d2	0.00024524197
30	0x3cdefd0b	0.02722027
31	0x3da8a282	0.08234121
32	0x3cef9ed4	0.02925054
33	0xbca486ba	-0.020083774
34	0x3d9e5fe3	0.07733133
35	0xbd060000	-0.032714844
36	0xbcc10b0a	-0.023564834
37	0x3ba8ec3f	0.005155116
38	0xbd89d90b	-0.06730851
39	0x3c3c2091	0.011482374
40	0xbd75a266	-0.05996933
41	0x3c1cb50f	0.009564652
42	0x3c083915	0.008314391
43	0x3c487460	0.012234777
44	0xbd98a71e	-0.0745375
45	0xbdabede8	-0.083949864
46	0x3d26948c	0.04066901
47	0x3da11ca9	0.078667946
48	0xbda0a1ae	-0.07843338
49	0x3d0ba21c	0.034090146
50	0xbd8b3a61	-0.06798244
51	0x3b6c7360	0.003607951
52	0x3daa3f36	0.08312838
53	0x3d895322	0.067053095
54	0xbd82aafb	-0.06380268
55	0x3d5ffe0e	0.054685645
56	0x3d5a5b36	0.05330964
57	0xbab52348	-0.0013819719
58	0x3db24857	0.08705204
59	0xbd26e4ff	-0.04074573
60	0xbc9e3e15	-0.019316712
61	0xbd3979ae	-0.04528206
62	0x3c37fb8a	0.011229405
63	0x3cf74d61	0.030188264
64	0x3c15ff0f	0.009155049
65	0xbd4210af	-0.047379192
66	0xbd2e01a2	-0.042482026
67	0x3d003de9	0.031309042
68	0xbda3965a	-0.07987662
69	0xbc618717	-0.013765118
70	0xbb0050d2	-0.0019579423
71	0xbd12af5c	-0.035811767
72	0x3d06c880	0.032906055
73	0x3b3d3f83	0.0028876967
74	0x3d82f525	0.06394414
75	0xbb99cd93	-0.004693696
76	0xbd589291	-0.05287415
77	0x3d83fbdf	0.06444525
78	0x3c165961	0.009176583
79	0xbce554f8	-0.027994618
80	0xbd740f5c	-0.05958496
81	0x3ca55776	0.020183306
82	0xbdaa6b49	-0.08321244
83	0x3c917cf9	0.017759787
84	0x3d330213	0.04370315
85	0xbd90d4dc	-0.0707185
86	0xbd6d0448	-0.05786541
87	0xbd75147a	-0.05983398
88	0x3d8fed68	0.070277035
89	0x3d9c27f3	0.07624807
90	0x3bd1af74	0.0063990895
91	0x3dad3db6	0.08459036
92	0xbcf2ba2d	-0.029629791
93	0xbdafbcd3	-0.08580937
94	0x3ce1eac7	0.02757777
95	0x3d01c23f	0.031679388
96	0x3db0378d	0.086043455
97	0x38debdec	0.000106211606
98	0x3d88a8d2	0.06672825
99	0x3d5deaa6	0.054178856
100	0x3d840156	0.06445567
101	0xbdb9ebe1	-0.090781935
102	0x3d900cba	0.070336774
103	0xbd9af34c	-0.075659364
104	0x3da2492d	0.079241134
105	0xbb02c91c	-0.0019956296
106	0xbd9d6f17	-0.07687204
107	0x3c91af39	0.017783748
108	0xbc8926aa	-0.01674207
109	0xbda030ee	-0.078218326
110	0xbcf20d21	-0.029547276
111	0x3c154ff0	0.009113297
112	0x3d8eba19	0.06969089
113	0xbcd4c129	-0.025971012
114	0x3d5ed512	0.05440242
115	0x3c6c26d7	0.014413557
116	0x3b7c1016	0.0038461736
117	0x3c8a8c6e	0.016912665
118	0xbd632b7b	-0.055461388
119	0xbd909bab	-0.07060941
120	0xbcd179e0	-0.02557081
121	0xbda93557	-0.08262127
122	0xbd21f756	-0.03954252
123	0x3bd221a4	0.0064127017
124	0xbd6abbcc	-0.057308003
125	0xbd1717df	-0.036888
126	0xbc5f86ae	-0.01364295
127	0xbc26d512	-0.010182636
128	0xbd5896a5	-0.05287804
129	0x3a531d70	0.0008053398
130	0xbc4b4380	-0.01240623
131	0x3cc72bfc	0.024312966
132	0x3a868358	0.0010262532
133	0xbd3bfe8e	-0.04589706
134	0xbd0499f3	-0.03237338
135	0xbb8bad50	-0.004262604
136	0xbd661416	-0.0561715
137	0x3b39ee01	0.002837062
138	0xbbfa97f2	-0.007647508
139	0x3d106490	0.035252154
140	0x3c903f7b	0.017608395
141	0x3d87d438	0.066322744
142	0xbbab3544	-0.0052248556
143	0xbd80231d	-0.06256697
144	0x3d1c163a	0.038107134
145	0xbd81cb6a	-0.06337626
146	0xbc893a57	-0.016751451
147	0xbd0388d5	-0.032112915
148	0xbd136bd7	-0.035991516
149	0xbd0f5f60	-0.035003066
150	0x3da19a7e	0.07890795
151	0x3d45b423	0.048267495
152	0x3ca20010	0.01977542
153	0x3da50e02	0.080593124
154	0xbda646c9	-0.0811897
155	0x3c7fd399	0.015614414
156	0x3d5e7095	0.054306585
157	0x3d641698	0.05568561
158	0xbd93f4ff	-0.07224464
159	0x3d00d885	0.03145649
160	0xbd54bb56	-0.05193647
161	0xbb6256fb	-0.0034536708
162	0xbcb22305	-0.021745214
163	0xbd9f2752	-0.07771172
164	0xbdb21d3f	-0.086969845
165	0xbd7a6107	-0.06112769
166	0x3d1df099	0.03855953
167	0x3d198d02	0.03748799
168	0xbd98299b	-0.074298106
169	0xbd1c8f1a	-0.03822241
170	0xbaa05c7a	-0.0012234591
171	0xbd9fe602	-0.078075424
172	0x3d4ddb11	0.050257746
173	0x3da1de52	0.07903732
174	0x3c800fc5	0.01563252
175	0xbd90036e	-0.07031904
176	0x3ca8d84f	0.020610956
177	0x3cf25a38	0.029584035
178	0x3d8de03f	0.06927537
179	0xbd4f7d9d	-0.050656904
180	0xbdaad5e0	-0.08341575
181	0x3d1f0fd9	0.038833473
182	0x3b1f5c43	0.0024316467
183	0xbd05b082	-0.032639034
184	0xbd1d47d9	-0.038398597
185	0xbd3fe071	-0.046844903
186	0x3d8ccfa1	0.068755396
187	0xbc597062	-0.013271423
188	0x3d7aa63c	0.06119369
189	0x3d9b28ff	0.07576179
190	0x3c2b732e	0.010464473
191	0x3c9ba283	0.01899839
192	0xbc11c45b	-0.008896912
193	0x3d77518d	0.060380507
194	0xbda7848d	-0.08179579
195	0x3cfc6b61	0.030812921
196	0xbca207a5	-0.019779036
197	0x3d2aa26f	0.041658815
198	0xbbcf57e6	-0.006327617
199	0xbd087068	-0.033310324
200	0xbc4b07e2	-0.012392016
201	0x3d3391d9	0.043840263
202	0xbd82edbd	-0.06393001
203	0xbd6e3b26	-0.058161877
204	0xbcbc2585	-0.02296711
205	0xbd10380f	-0.03520971
206	0x3d020dd2	0.03175146
207	0x3d6a55e6	0.057210825
208	0xbc020aa5	-0.007937108
209	0x3da8925c	0.08231041
210	0xbd24c037	-0.040222373
211	0xbd595edb	-0.053068977
212	0xbd221523	-0.03957094
213	0xbd8161cb	-0.06317481
214	0xbd7540a5	-0.059876103
215	0xbda413c1	-0.0801158
216	0xbda13801	-0.0787201
217	0x3cadaa0d	0.02119925
218	0x3d51dad6	0.05123409
219	0x3da221e2	0.07916619
220	0x3d939dfe	0.07207869
221	0xbba6cf26	-0.005090612
222	0x3c967bb8	0.01836954
223	0xbd694d62	-0.056958564
224	0x3cf9faea	0.030515153
225	0xbdb499f9	-0.088184305
226	0x3d1a3ae5	0.037653822
227	0x3c84ce99	0.016211795
228	0x3cb98314	0.02264551
229	0x3cf3a12f	0.029739944
230	0xbd23d106	-0.039994262
231	0x3d961caa	0.07329686
232	0x3d2cc8ab	0.04218356
233	0x3d63c68e	0.05560928
234	0x3c280c6d	0.010256869
235	0x3d558a4c	0.052133843
236	0x3d67de3e	0.05660843
237	0x3d188f86	0.03724625
238	0x3d80ccb2	0.062890425
239	0xbc8354e5	-0.016031692
240	0x3d654ee3	0.055983435
241	0x3c87e80c	0.01659014
242	0x3d538441	0.0516398
243	0x3dab1bf8	0.08354944
244	0x3cb1244c	0.021623753
245	0xbd066075	-0.032806832
246	0xbc39814f	-0.0113223335
247	0x3cbefef4	0.02331493
248	0x3c34193d	0.010992345
249	0xbcd29883	-0.025707489
250	0x3d895638	0.06705898
251	0x3d5595db	0.052144866
252	0xbd6b231f	-0.05740654
253	0xbc104163	-0.008804652
254	0xbc2d5340	-0.01057893
255	0xbd5dd935	-0.054162223

pi_body.2.bias f4 [128]
0	0xbc3f7900	-0.0116865635
1	0xbd90685f	-0.07051157
2	0x3da601de	0.08105825
3	0x3d093ffb	0.033508282
4	0x3c194c43	0.009356561
5	0x3cd41c05	0.025892267
6	0x3d25c852	0.040474243
7	0xbdaab30f	-0.08334934
8	0x3d638341	0.055545095
9	0x3d83c6f1	0.064344294
10	0x3c16c06f	0.009201153
11	0xbce10e41	-0.027472617
12	0x3c24896a	0.010042528
13	0x3c33ed03	0.010981801
14	0x3c74b520	0.014935762
15	0xbd60e59b	-0.05490647
16	0x3d580acc	0.05274467
17	0x3bb15af9	0.005412456
18	0x3bbfa8b8	0.0058489703
19	0xbd0cfb5d	-0.034419406
20	0x3d9c7066	0.07638626
21	0xbd89de51	-0.067318566
22	0xbd0240d5	-0.03180011
23	0xbd7514c4	-0.059834257
24	0x3d8422d7	0.06451958
25	0xbd08f159	-0.033433292
26	0x3b88e6be	0.0041778972
27	0xbc1affd8	-0.009460412
28	0x3d8998bc	0.06718585
29	0xbda0392e	-0.07823406
30	0xbd27e56c	-0.040990278
31	0xbdb21029	-0.086944886
32	0xbcaed4c5	-0.02134169
33	0xbd9f2b94	-0.07771984
34	0x3b2a3542	0.0025971686
35	0x3d112a47	0.03544071
36	0x3b8f2726	0.0043686805
37	0x3c205d03	0.009787801
38	0xbcaed6a8	-0.02134259
39	0xbd822a5c	-0.06355736
40	0xbbedeea0	-0.0072611123
41	0x3d919175	0.07107822
42	0x3c83d05e	0.016090568
43	0x3c2fa11d	0.010719565
44	0xbce6add3	-0.028159058
45	0x3d63e19e	0.055635087
46	0x3d63ef6d	0.055648256
47	0x3ca99313	0.020700013
48	0x3d8313a8	0.064002335
49	0x3bf8fe0a	0.007598643
50	0x3adec374	0.0016995505
51	0x3cf29a3c	0.02961456
52	0xbdae1651	-0.0850035
53	0x3d8426e8	0.06452733
54	0xbd3a41b2	-0.04547281
55	0xbd28edd7	-0.041242447
56	0xbbda576a	-0.0066632526
57	0xbd85a2b0	-0.06525171
58	0xbd690c17	-0.056896295
59	0x3d9216d4	0.0713326
60	0xbc7e28d0	-0.01551266
61	0x3d13863c	0.036016688
62	0x3ca787a7	0.020450426
63	0x3dad0423	0.08448055
64	0xbd417eb9	-0.047239993
65	0xbd3ec942	-0.046578653
66	0x3da5ba92	0.08092226
67	0xbd7aca3f	-0.061228033
68	0xbdb29cee	-0.08721338
69	0xbc896128	-0.01676996
70	0x3d4a48ca	0.049385823
71	0x3d36132e	0.044451885
72	0xbd85eb80	-0.06539059
73	0xbd8e7e06	-0.06957631
74	0x3d003305	0.031298656
75	0xbd6a9484	-0.05727054
76	0x3d393b7b	0.04522274
77	0xbcaa644c	-0.020799778
78	0xbd1328dc	-0.03592764
79	0xbc8723e2	-0.016496602
80	0x3da03da3	0.07824256
81	0xbd607104	-0.05479528
82	0xbd8ec16d	-0.06970487
83	0x3d1f12f6	0.038836442
84	0x3d23a0c1	0.03994823
85	0xbca1f74b	-0.019771239
86	0x3d46119d	0.04835664
87	0xbcb1a90d	-0.021687055
88	0xbd1f5e4c	-0.038908288
89	0xbd87ba7b	-0.06627365
90	0xbd390f19	-0.045180414
91	0xbd5544de	-0.05206763
92	0x3cd26f2f	0.025687782
93	0xbc91b317	-0.017785592
94	0x3d7fe237	0.062471595
95	0xbd37e03f	-0.044891592
96	0x3d49e911	0.049294535
97	0x3d9abdf4	0.07555762
98	0xbcad5e3b	-0.021163097
99	0xbd51028e	-0.051027827
100	0x3d344f2e	0.044020824
101	0xbdab0e26	-0.08352308
102	0x3d676d8b	0.056500953
103	0x3d84f3e6	0.064918324
104	0xbbdc8499	-0.006729674
105	0xbd6064e1	-0.054783706
106	0x3c014dd7	0.007892094
107	0x3d78426e	0.060610227
108	0x3c3daddc	0.011577096
109	0x3c62beb3	0.013839412
110	0x3d1dccc7	0.03852537
111	0x3d4be789	0.049781356
112	0x3c9dfbfd	0.019285196
113	0xbd490512	-0.0490771
114	0xb97ca431	-0.00024093759
115	0xbd26f7b3	-0.040763568
116	0x3d40cb48	0.047068864
117	0xbd3014d3	-0.04298861
118	0x3d967258	0.07346028
119	0x3d07c646	0.033148073
120	0xbdb16ae0	-0.08662963
121	0xbd17a662	-0.03702391
122	0xbc4f4322	-0.012650283
123	0xbcd6937a	-0.02619337
124	0xbb4196a3	-0.002953925
125	0xbd462f71	-0.048385087
126	0x3d8661b1	0.06561602
127	0x3d20eedb	0.03929029

mu_head.weight f4 [8, 128]
0	0xbc57224b	-0.013130735
1	0xbd1a5506	-0.03767874
2	0xbd89d5e8	-0.067302525
3	0xbd4f3dcc	-0.050596043
4	0xbd520b75	-0.051280458
5	0x3da3fafb	0.08006855
6	0xbb3124ba	-0.0027029947
7	0xbd487b72	-0.04894585
8	0xbbfd9df4	-0.0077397767
9	0xbb8cbf0d	-0.004295236
10	0x3ca61ed1	0.020278366
11	0x3ced33e3	0.028955406
12	0x3d5730dc	0.05253683
13	0xbd41d7fe	-0.047325127
14	0xbca7769d	-0.020442301
15	0xbd9b5af3	-0.075857066
16	0xbcffe3c9	-0.031236546
17	0xbd9f273b	-0.077711545
18	0xbaede23c	-0.0018149088
19	0xbd463fb5	-0.0484006
20	0xbcf3b7e9	-0.029750781
21	0x3da397f5	0.07987968
22	0x3da29e43	0.07940342
23	0x3bc7e199	0.0060998914
24	0x3d3f67d2	0.04672987
25	0x3d6c7644	0.057729974
26	0x3b97f262	0.0046370486
27	0x3c9bf6c0	0.019038558
28	0xbc0ec778	-0.008714549
29	0xbd938e75	-0.07204906
30	0x3d8b55c3	0.06803467
31	0xbd8c18aa	-0.06840642
32	0xbce2956a	-0.027659137
33	0xbd9d13c3	-0.07669785
34	0xbd4a8ad1	-0.049448792
35	0x3db468c2	0.088090435
36	0xbc325bd0	-0.010886148
37	0x3cb6beaa	0.022307713
38	0x3cb5387b	0.022121659
39	0x3d8f38fd	0.069932915
40	0x3c77cfa6	0.015125191
41	0x3a43db32	0.00074713223
42	0xbd317fe1	-0.043334845
43	0x3c50271f	0.01270464
44	0x3c9baa99	0.019002246
45	0xbd82a493	-0.06379046
46	0xbd82ee1d	-0.06393073
47	0xbd22b05d	-0.039718974
48	0x3d95d927	0.07316809
49	0x3d153926	0.036431454
50	0x3d4aadb4	0.049482062
51	0x3d6819b3	0.056665134
52	0xba671fde	-0.0008816699
53	0xbd7b12fd	-0.061297406
54	0x3db1fe20	0.086910486
55	0x3c629ca2	0.0138312895
56	0xbd0e60d3	-0.034760308
57	0x3d2995b2	0.041402526
58	0xbd7e34a0	-0.062061906
59	0x3ab93da7	0.0014132754
60	0x3dadd5f0	0.08488071
61	0x3ce06424	0.0273915
62	0xbda99e7f	-0.08282184
63	0x3d9b49be	0.075824246
64	0x3c885b88	0.016645208
65	0xbcd693a2	-0.026193444
66	0x3d88251e	0.066477045
67	0x3d1a6df2	0.03770251
68	0x3d4e6bd5	0.050395805
69	0x3d2fbd03	0.042904865
70	0xbd5a3f3e	-0.05328297
71	0xbd876fbc	-0.066131085
72	0x3d7d0e2c	0.061781093
73	0xbbf278d9	-0.00739966
74	0x3d9b0278	0.0756883
75	0x3d357a3c	0.044306025
76	0xbdb23f18	-0.087034404
77	0x3d3e18ee	0.046410494
78	0x3d32546b	0.04353754
79	0xbdb2750b	-0.087137304
80	0x3b222c5d	0.002474568
81	0xbd9557a8	-0.0729211
82	0x3d29ad42	0.041424997
83	0x3d524026	0.051330708
84	0x3cca1a46	0.024670731
85	0x3d61dbdb	0.05514131
86	0xbd55c141	-0.052186254
87	0xbb931bd5	-0.004489402
88	0xbcd07abe	-0.025449153
89	0x3d889f18	0.0667097
90	0x3d6d2e72	0.05790562
91	0xbd0a969e	-0.033835046
92	0xbd9ce5cd	-0.076610185
93	0xbb985b1c	-0.004649533
94	0x3d893cfc	0.06701085
95	0xbca29f4e	-0.019851353
96	0x3d0a2911	0.03373057
97	0xbd890bd8	-0.06691712
98	0xbd742c29	-0.059612427
99	0xbd99ce09	-0.07510001
100	0xbd9fcb14	-0.07802406
101	0xbd0c940b	-0.034320872
102	0xbd1fabe7	-0.0389823
103	0x3cfe88f8	0.031071171
104	0x3d8eef32	0.06979217
105	0x3c31ecae	0.0108596515
106	0x3d0df5de	0.034658305
107	0xbd6caa22	-0.05777944
108	0xbd1eebbd	-0.038799036
109	0xbdacfa01	-0.08446122
110	0x3da980d2	0.08276524
111	0x3be228e8	0.006901849
112	0xbcc66863	-0.024219697
113	0xbda4e897	-0.080521755
114	0x3c5b9ae8	0.013403632
115	0xbdb5659f	-0.08857273
116	0x3d6b45af	0.057439502
117	0xbda96075	-0.08270351
118	0x3c832a8c	0.016011499
119	0x3d5c32b3	0.053759288
120	0xbd957f35	-0.072996534
121	0x3d84f2ef	0.064916484
122	0x3da5435e	0.0806949
123	0x3d6f1e8d	0.058378745
124	0x3da45f7d	0.080260254
125	0xbd333390	-0.043750346
126	0xbc54d026	-0.01298908
127	0x3d99b18a	0.07504566
128	0x3d2c14f7	0.04201218
129	0xbd72af25	-0.059249062
130	0x3db6e808	0.08930975
131	0xbc8ede9f	-0.017440138
132	0xbccdd473	-0.025125718
133	0x3c99d0c8	0.018776312
134	0x3db6e74f	0.08930837
135	0xbd24933b	-0.040179472
136	0x3c3e636b	0.011620383
137	0xbbd7e396	-0.0065884097
138	0xbcda6daa	-0.02666362
139	0x3d329aa6	0.043604515
140	0x3bf5b87d	0.0074987994
141	0xbd8b2bcc	-0.06795463
142	0x3bb2a0bb	0.0054512895
143	0x3d64b9e9	0.05584136
144	0xbd2ce41f	-0.04220974
145	0x3da0d368	0.078528225
146	0xbd908b89	-0.07057864
147	0x3cf55e33	0.029952144
148	0x3d696d8e	0.056989245
149	0x3d06f97d	0.032952774
150	0x3d00ae4a	0.031416215
151	0x3c878b50	0.016545922
152	0xbca7305c	-0.020408802
153	0x3d877440	0.0661397
154	0xbc33a7d9	-0.010965311
155	0x3d9a1f62	0.07525517
156	0x3db0c042	0.0863042
157	0xbd930ca2	-0.07180144
158	0x3d9be21b	0.076114856
159	0x3ccda6f2	0.02510402
160	0xbd628d92	-0.055310793
161	0xbd367048	-0.044540673
162	0xbc437929	-0.011930742
163	0x3daea53f	0.08527612
164	0x3d603259	0.054735515
165	0xbc9809aa	-0.018559296
166	0xbd4c4ad7	-0.04987606
167	0xbd641b17	-0.055689897
168	0xbd1e1eac	-0.03860347
169	0x3b1d4b8a	0.0024001324
170	0xbd928488	-0.071541846
171	0xbd9feb31	-0.07808531
172	0xbd555c25	-0.05208983
173	0x3cfa995a	0.030590702
174	0x3ce102b5	0.027467111
175	0x3cee7a50	0.029111058
176	0x3da12398	0.07868117
177	0x3cd154de	0.025553163
178	0xbd0c9660	-0.034323096
179	0x3d26cdae	0.040723495
180	0xbd28edcd	-0.04124241
181	0x3da95c64	0.08269575
182	0xbd08d1ae	-0.03340309
183	0xbd4ee163	-0.050507914
184	0xbc90ed8c	-0.017691396
185	0xbd34972a	-0.044089474
186	0xbc1170b5	-0.008876969
187	0xbc1ea1c5	-0.009682124
188	0x3bbb711b	0.0057202703
189	0xbbec2021	-0.0072059785
190	0xbd72f13c	-0.05931209
191	0xbdaa294d	-0.08308659
192	0xbd6b31ed	-0.05742066
193	0xbda3c96b	-0.07997402
194	0xbda8685e	-0.082230315
195	0x3db319d0	0.08745158
196	0x3d56f8c1	0.052483324
197	0x3d411047	0.047134664
198	0x3d72b56e	0.059255056
199	0x3cfcf618	0.030879065
200	0xbcaa4208	-0.02078344
201	0xbc0bd266	-0.00853405
202	0xbd0e3511	-0.034718577
203	0x3d2e9254	0.042620018
204	0x3c91978d	0.01777246
205	0xbd971ff4	-0.073791414
206	0x3c84957a	0.016184557
207	0xbd8808d6	-0.0664231
208	0x3d911493	0.07084002
209	0x3c20b9f5	0.009809961
210	0x3b01dc0d	0.0019814998
211	0xbd56bfb7	-0.052428927
212	0x3ca81383	0.020517116
213	0x3c54bc9b	0.01298442
214	0x3ce1517b	0.027504673
215	0xbd778a32	-0.060434528
216	0xbd0dc789	-0.03461412
217	0xbd6c7aba	-0.05773423
218	0xbd53d8cb	-0.05172042
219	0xbd3f3882	-0.04668475
220	0xbd89be44	-0.067257434
221	0x3daea2de	0.08527158
222	0xbdac261c	-0.08405706
223	0xbc97edab	-0.018545946
224	0x3b7cf016	0.003859525
225	0xbcf8055b	-0.030275991
226	0xbca554e4	-0.02018208
227	0x3d209330	0.03920287
228	0xbc708e37	-0.014682344
229	0xbc67378c	-0.0141123645
230	0x3da59342	0.08084728
231	0xbcec1be8	-0.0288219
232	0xbadddb86	-0.0016926385
233	0x3d66524c	0.05623083
234	0xbcaa9697	-0.02082376
235	0xbd8f11a9	-0.0698579
236	0x3d8b85b4	0.06812611
237	0xbd91847b	-0.07105347
238	0xbdb26a01	-0.08711625
239	0xbd2795fc	-0.04091452
240	0x3c401999	0.011724853
241	0x3d8d8657	0.06910389
242	0xbd832ff7	-0.06405633
243	0xbd1c89a2	-0.038217194
244	0x3dac3f34	0.084104925
245	0x3d8eaab6	0.06966154
246	0x3d1c4c69	0.038158808
247	0xbd926405	-0.071479835
248	0x3d50b302	0.050951965
249	0xbbb81001	-0.005617142
250	0xbd968b61	-0.07350803
251	0x3d9a00f3	0.07519712
252	0xbd779dc2	-0.060453184
253	0x3ca418b7	0.020031316
254	0xbd53afe4	-0.051681414
255	0x3da6f299	0.081517406

mu_head.bias f4 [8]
0	0x3d8bd69c	0.06828043
1	0x3d3f0f35	0.046645362
2	0xbd75f706	-0.060050033
3	0xbd2724f7	-0.040806737
4	0xbd2c77e5	-0.042106528
5	0x3cd7e131	0.026352497
6	0x3d4faa04	0.05069925
7	0xba2ee774	-0.00066720624

vf.0.weight f4 [128, 9]
0	0xbea51c6d	-0.3224825
1	0xbe52bc2f	-0.20579599
2	0xbe1d9797	-0.15389858
3	0xbe65c3f0	-0.22438025
4	0x3e356836	0.17715535
5	0x3ca74356	0.02041785
6	0xbe739b0b	-0.23789613
7	0xbe4f128b	-0.20221917
8	0xbe73babb	-0.23801701
9	0xbe6957d9	-0.22787417
10	0x3e0914dd	0.13386865
11	0xbe34207c	-0.17590517
12	0xbe952c25	-0.29135242
13	0x3ca69eb9	0.020339357
14	0xbc78a214	-0.015175361
15	0xbe890531	-0.26761773
16	0x3dab9c92	0.08379473
17	0x3cf75613	0.03019241
18	0x3d8977b4	0.06712285
19	0x3e2d8a71	0.16947342
20	0xbe0e25cc	-0.13881606
21	0xbe8662e8	-0.26247334
22	0x3e710660	0.23537588
23	0x3eab3256	0.3343684
24	0x3eab1005	0.3341066
25	0x3e54553f	0.20735644
26	0x3ea91419	0.33023146
27	0x3df431e4	0.119235784
28	0xbe83cc20	-0.25741673
29	0x3e051486	0.1299611
30	0xbe716ebf	-0.23577403
31	0xbe912d44	-0.28354847
32	0x3e22c173	0.15894108
33	0xbe1f1de1	-0.15538742
34	0xbe5e0b3f	-0.21683978
35	0x3eb01392	0.3438993
36	0x3e1227da	0.14273015
37	0x3e326024	0.17419487
38	0xbd840639	-0.064464994
39	0x3e26a67f	0.1627445
40	0x3cdf6b0f	0.02727273
41	0xbd2bbf2c	-0.041930363
42	0xbd0c00c6	-0.034180425
43	0x3e93baaa	0.2885335
44	0xbe48fddf	-0.19628094
45	0xbd980991	-0.074237
46	0x3e8fa360	0.28054333
47	0x3ce192d7	0.027535839
48	0x3e4a1187	0.19733249
49	0xbde909cd	-0.113788225
50	0x3e874cad	0.26425686
51	0xbe55c154	-0.2087453
52	0xbe17556d	-0.14778681
53	0xbe83b319	-0.25722578
54	0xbe631044	-0.22174174
55	0x3e7ca557	0.24672447
56	0x3e88c12e	0.26709884
57	0x3e68e228	0.22742522
58	0x3e51ef4c	0.20501441
59	0x3e8b5a92	0.27217537
60	0x3e759f1c	0.23986477
61	0x3e73a752	0.23794296
62	0xbdf8080c	-0.1211091
63	0x3e8f2139	0.27955034
64	0x3e8124de	0.2522344
65	0x3e110574	0.14162236
66	0xbcccc9d5	-0.024998585
67	0x3ea398be	0.3195247
68	0x3caa1018	0.020759627
69	0xbe8e9334	-0.27846682
70	0xbdb81d5b	-0.08989974
71	0x3cc2fff8	0.023803696
72	0x3e4bf5d9	0.19918002
73	0x3e044d40	0.12920094
74	0x3dd927f7	0.10603326
75	0x3ea8ce41	0.3296986
76	0x3e8223e3	0.25418004
77	0xbe0f960e	-0.14022085
78	0xbda7a2b8	-0.08185333
79	0x3c2db759	0.0106027955
80	0x3cb6b784	0.022304304
81	0xbe821fec	-0.2541498
82	0xbdb6e8cb	-0.089311205
83	0x3e858371	0.26076844
84	0xbea575b2	-0.32316357
85	0x3d669dd4	0.05630286
86	0x3d8a413b	0.06750723
87	0xbdc91e25	-0.09820203
88	0xbde83780	-0.11338711
89	0xbe229c2e	-0.1587989
90	0xbe9350be	-0.2877254
91	0xbe91966c	-0.28435075
92	0x3e4c8225	0.19971521
93	0x3c5c3795	0.013440986
94	0x3b8656a6	0.004099685
95	0xbce0c3ea	-0.02743717
96	0xbe997356	-0.29970807
97	0xbd0a515c	-0.033768997
98	0xbe91baa3	-0.28462705
99	0x3e546fd4	0.20745784
100	0xbd91c994	-0.07118526
101	0xbd68b8ff	-0.05681705
102	0x3e2b9fd0	0.16760182
103	0xbe3b698a	-0.18301979
104	0xbe218cde	-0.15776393
105	0xbe0eeb12	-0.1395686
106	0xbd009d98	-0.031400293
107	0xbe259162	-0.1616874
108	0xbe909924	-0.28241837
109	0x3e4d5a1c	0.20053905
110	0x3e6f1cd0	0.23350835
111	0xbd9ecef3	-0.07754316
112	0xbe577dda	-0.21044102
113	0x3e8c43a0	0.27395344
114	0xbe22b608	-0.15889752
115	0xbe5ab923	-0.21359687
116	0xbe7c023f	-0.24610232
117	0x3df1bb87	0.11803346
118	0x3de421a1	0.11139227
119	0x3eb76db7	0.35825893
120	0xbdb8d90e	-0.09025775
121	0xbe333817	-0.17501865
122	0x3ebcfab5	0.36910024
123	0x3e85cf92	0.26134926
124	0xbe83aedb	-0.25719342
125	0xbe8d389c	-0.27582252
126	0x3e0396cd	0.12850495
127	0xbe29c376	-0.16578469
128	0x3d89c97f	0.067278855
129	0xbc1f08a3	-0.009706649
130	0xbddaf894	-0.10691944
131	0x3e98f319	0.2987297
132	0x3de4a4e4	0.11164263
133	0x3dd97cdd	0.10619519
134	0xbe803457	-0.25039932
135	0xbd9bc55d	-0.076060034
136	0x3e487bdb	0.19578497
137	0x3e6c8b24	0.23099953
138	0x3da7019d	0.081546046
139	0xbe94ba6e	-0.29048485
140	0xbe066956	-0.1312612
141	0x3ebbf51a	0.36710435
142	0x3ea00756	0.31255597
143	0x3e5de73a	0.21670237
144	0xbe2060bd	-0.15661903
145	0xbe11fef9	-0.1425742
146	0x3e2983ff	0.16554259
147	0xbe71a8ee	-0.23599598
148	0xbb5586a2	-0.0032581468
149	0x3e32a383	0.17445187
150	0x3e2c5324	0.1682859
151	0x3e518219	0.20459785
152	0x3d6cd5aa	0.057820953
153	0x3e8417f5	0.25799528
154	0xbe9d0d60	-0.30674267
155	0xbe1cf95c	-0.15329498
156	0xbd86a418	-0.06574267
157	0x3e676231	0.22596051
158	0xbe648206	-0.22315225
159	0x3e8da426	0.27664298
160	0xbe26e274	-0.16297323
161	0xbd8b6b8a	-0.06807621
162	0x3e959661	0.29216293
163	0x3ebcc6db	0.36870465
164	0x3e1acb94	0.15116721
165	0xbcb242f1	-0.021760436
166	0x3e8cde87	0.27513525
167	0x3d132e55	0.035932858
168	0x3e789805	0.24276741
169	0x3e39738c	0.18110484
170	0x3d1830e5	0.037156004
171	0x3ea5522f	0.32289264
172	0x3e2a9d2d	0.1666152
173	0x3ea72f66	0.3265335
174	0x3ea9a969	0.33137062
175	0x3d898c63	0.0671623
176	0xbe0d7b37	-0.13816534
177	0xbdd136a6	-0.102155015
178	0xbd2dcbd1	-0.042430703
179	0xbdccfee3	-0.10009553
180	0x3d629af3	0.055323552
181	0x3eaf2fcc	0.34216154
182	0x3e7b73c2	0.24555877
183	0x3debd823	0.11515834
184	0x3e430ab6	0.19047055
185	0xbe22e96c	-0.15909356
186	0x3e1ae00c	0.1512453
187	0x3ea0948d	0.31363335
188	0x3e01cc8b	0.12675683
189	0x39d58cb7	0.00040731367
190	0x3e8aa63c	0.27079952
191	0xbe8a88fa	-0.2705763
192	0x3e3daddd	0.18523355
193	0xbd82ff1d	-0.06396315
194	0xbea4d5cf	-0.32194373
195	0x3e3eb2f4	0.18622953
196	0xbd8d12bb	-0.06888338
197	0xbd9d6073	-0.07684412
198	0xbe19c94a	-0.15018192
199	0xbdd87675	-0.10569469
200	0xbd3e8932	-0.04651756
201	0xbea5fdd9	-0.32420233
202	0x3e2dfaf7	0.16990267
203	0x3d636d39	0.055524085
204	0x3e03e181	0.12878992
205	0x3eb16a7a	0.34651548
206	0xbd8fc1d2	-0.0701939
207	0xbe4b3ec4	-0.19848162
208	0xbe4eba37	-0.20188223
209	0xbd368934	-0.04456444
210	0xbd3e45e3	-0.046453368
211	0x3df1c558	0.118052185
212	0x3d12f4f0	0.03587812
213	0x3deaf7fe	0.11473082
214	0xbe2492e5	-0.16071661
215	0xbe8eb35a	-0.2787121
216	0x3d5807fe	0.052741997
217	0x3dda883b	0.10670515
218	0xbdf02235	-0.117252745
219	0xbda048cf	-0.07826387
220	0xbcc79c69	-0.024366574
221	0xbe82c82c	-0.25543344
222	0x3eb18eff	0.3467941
223	0x3e90174e	0.2814278
224	0xbe54e9c0	-0.20792294
225	0xbea3ee1f	-0.3201761
226	0x3e8cda83	0.2751046
227	0x3e8442af	0.25832126
228	0xbea0e958	-0.31428027
229	0x3d476c8a	0.048687495
230	0xbe650004	-0.22363287
231	0xbe84bc92	-0.25925118
232	0xbe824cd5	-0.25449243
233	0xbc2cfbd0	-0.010558084
234	0x3eaf4d6d	0.3423876
235	0x3e3cf864	0.18454129
236	0xbe8bb37c	-0.27285373
237	0x3e5d9069	0.2163712
238	0x3ea9a70e	0.33135265
239	0x3e8ddf2c	0.2770933
240	0x3ead78bb	0.33881173
241	0xbe252dde	-0.16130778
242	0xbe0ea4c6	-0.13930044
243	0x3e3d5511	0.18489482
244	0xbe85d588	-0.26139474
245	0xbdbb6577	-0.09150212
246	0x3e76786e	0.24069378
247	0x3dcada1e	0.09904884
248	0xbdb57718	-0.08860606
249	0x3e087e45	0.13329418
250	0xbe2ccfa2	-0.1687608
251	0xbe2d9885	-0.16952713
252	0x3dc2f015	0.09518448
253	0xbe362d21	-0.17790653
254	0x3e696f09	0.22796263
255	0x3e0f72d3	0.14008646

vf.0.bias f4 [128]
0	0x3d2cea54	0.04221566
1	0x3e79001b	0.24316446
2	0x3e9462f3	0.28981742
3	0xbd2a02cc	-0.041506574
4	0xbd9f396f	-0.077746265
5	0xbd3014e5	-0.042988677
6	0xbdcdfe47	-0.10058265
7	0x3e2c5853	0.16830568
8	0x3e0e9b2c	0.13926381
9	0xbe530be4	-0.20610005
10	0x3db63cd7	0.08898323
11	0x3ec87bac	0.39156854
12	0x3eacead1	0.337729
13	0x3e7bb765	0.24581678
14	0x3d925355	0.071448006
15	0x3e67a874	0.22622854
16	0x3e7b4ba4	0.24540573
17	0xbdcd9bde	-0.10039495
18	0xbcabe56a	-0.020983417
19	0x3cdb1f08	0.026748195
20	0x3e63cfc6	0.22247228
21	0xbe945039	-0.28967455
22	0x3da32d29	0.07967598
23	0x3e821cca	0.2541259
24	0x3e279ac5	0.16367634
25	0xbe88e9d3	-0.26740894
26	0xbe046c06	-0.12931833
27	0xbe9798b3	-0.29608688
28	0xbe8b22e2	-0.2717505
29	0xbe8955e4	-0.26823342
30	0x3c6718e1	0.014105053
31	0xbdcac0a1	-0.09900022
32	0xbea5475e	-0.3228101
33	0x3eba4df6	0.36387604
34	0x3e11b091	0.14227511
35	0xbe24d44f	-0.16096614
36	0xbe3f1c96	-0.18663248
37	0x3cfd1b84	0.03089691
38	0x3e964be1	0.29354766
39	0xbd6784a3	-0.056522977
40	0xbdfcb470	-0.12339103
41	0x3e90c53b	0.28275475
42	0x3cbd1529	0.023081379
43	0xbd4d8831	-0.05017871
44	0x3e8eb0a6	0.27869147
45	0xbe6d2e16	-0.23162112
46	0x3e1a3a88	0.1506139
47	0xbe97be20	-0.2963724
48	0x3d8d8e50	0.069119096
49	0xbd739a04	-0.059473053
50	0xbe582913	-0.21109419
51	0xbe0ef91a	-0.13962212
52	0x3e953df6	0.29148835
53	0x3ead00ce	0.33789676
54	0x3e128993	0.14310293
55	0x3e41e9e7	0.18936883
56	0x3e75da5e	0.24009082
57	0x3a601bfc	0.0008549092
58	0x3d589b58	0.052882522
59	0x3e96a7aa	0.29424793
60	0x3e856eb2	0.26061016
61	0xbdb56231	-0.08856619
62	0x3e154702	0.14577869
63	0x3e384005	0.17993172
64	0xbdbc1fad	-0.09185729
65	0x3e8f4d16	0.279885
66	0xbdcb5bb0	-0.099295974
67	0x3e4fa908	0.20279324
68	0x3e83362f	0.25627276
69	0xbd4e451f	-0.050358888
70	0xbe86c8f7	-0.263252
71	0xbe8ca0b8	-0.2746637
72	0x3cc08d4d	0.023504877
73	0x3e828999	0.25495604
74	0x3ebf424f	0.37355277
75	0x3e8bd5af	0.27311465
76	0x3dc06df6	0.093959734
77	0x3d10192d	0.03518026
78	0x3d947f9c	0.07250902
79	0xbde7c000	-0.11315918
80	0x3bb08c2d	0.005387804
81	0x3e861075	0.2618443
82	0xbe848eca	-0.2589019
83	0xbe668a2c	-0.22513646
84	0xbca48d6c	-0.020086966
85	0xbe326e7c	-0.17424959
86	0xbe4dd35b	-0.20100157
87	0x3e0f5a23	0.13999228
88	0x3e6357f4	0.2220152
89	0x3e805940	0.25068092
90	0xbe4d7c03	-0.20066838
91	0x3e236790	0.15957475
92	0x3e7fdd6e	0.24986812
93	0x3e11c81f	0.14236496
94	0xbe2adf18	-0.16686666
95	0xbdb6326a	-0.088963345
96	0x3e86566c	0.2623781
97	0x3e0349f4	0.1282118
98	0x3e0e02c0	0.13868237
99	0xbe826192	-0.25465065
100	0xbe8b755c	-0.27237976
101	0x3ea3d3c4	0.31997502
102	0x3dc0578e	0.093917
103	0x3eb893a1	0.36050132
104	0xbea5d7b0	-0.3239112
105	0xbdeb1b81	-0.11479855
106	0xbe9df4c7	-0.30850813
107	0x3ec4dcc5	0.38449684
108	0x3de3e895	0.11128346
109	0x3e4a30f9	0.19745244
110	0x3ea5ae2f	0.32359454
111	0x3daa6171	0.08319367
112	0x3ddb3130	0.10702741
113	0xbe7c7153	-0.24652605
114	0x3de12a8c	0.10994443
115	0x3e9b437f	0.30324933
116	0xbbc2d0b5	-0.00594529
117	0xbe7172ad	-0.23578902
118	0xbe35cd8f	-0.17754196
119	0x3da71af6	0.08159439
120	0x3e97ce90	0.29649782
121	0x3dd5d587	0.10441118
122	0xbe22dc19	-0.15904273
123	0x3dcaeabc	0.09908053
124	0xbdb7a345	-0.08966688
125	0x3db3affe	0.08773802
126	0x3e8b3aea	0.27193385
127	0xbe699812	-0.22811916

vf.2.weight f4 [128, 128]
0	0xbcc457e4	-0.02396769
1	0x3b3d7184	0.0028906772
2	0x3df1083b	0.11769148
3	0xbd516796	-0.051124178
4	0x3c5ab713	0.013349312
5	0xbd097589	-0.033559356
6	0xbcc61814	-0.024181403
7	0x3c15787d	0.009122965
8	0x3d77b24f	0.060472783
9	0xbdb05d9b	-0.08611604
10	0x3c2bac08	0.010478027
11	0x3cc61084	0.024177797
12	0x3e06d300	0.13166428
13	0xbb2025e4	-0.0024436647
14	0xbcd39f7f	-0.02583289
15	0x3d1c63e4	0.0381812
16	0xbc9acc99	-0.018896388
17	0xbc02481c	-0.0079517625
18	0x3d86cdbe	0.06582211
19	0xbcff0a3b	-0.031132808
20	0x3be9aa94	0.00713093
21	0x3d89d17a	0.067294076
22	0x3dd7ef9e	0.1054375
23	0x3dea6abb	0.114461385
24	0x3ded4789	0.1158591
25	0x3dab77f3	0.08372488
26	0x3c31e8ce	0.010858728
27	0xbce5ded5	-0.028060356
28	0x3ba8b87a	0.0051489444
29	0x3d1355dd	0.035970557
30	0x3d1d9e9c	0.03848134
31	0xbcfcf29e	-0.030877408
32	0x3d967e5d	0.07348321
33	0x3cef9b6c	0.029248916
34	0x3df8f566	0.12156181
35	0x3d007ace	0.031367116
36	0x3d1386c5	0.036017198
37	0x3d46385c	0.048393592
38	0x3db33dd1	0.08752025
39	0xbc71d167	-0.014759398
40	0x3d19749c	0.037464723
41	0xbc097c6a	-0.008391479
42	0x3db4f9d4	0.088367134
43	0x3a50bee1	0.00079630135
44	0x3d98a6a3	0.074536584
45	0xbd550434	-0.05200596
46	0xbc6d81bc	-0.014496263
47	0x3d9887b5	0.07447759
48	0x3df3c023	0.119018815
49	0xbd48f6a0	-0.049063325
50	0xbd0d1ede	-0.034453265
51	0xbd100bbc	-0.03516744
52	0x3d7da1b3	0.061921787
53	0x3ca4ccb6	0.020117145
54	0x3d63157d	0.055440415
55	0x3d90260c	0.07038507
56	0x3db202dd	0.086919524
57	0x3ce1a738	0.027545556
58	0x3d63ecaf	0.05564564
59	0xbca29641	-0.019847037
60	0x3dfc5a88	0.12321955
61	0xbd3d048a	-0.046146907
62	0xba7be9e7	-0.00096097443
63	0x3ccfc33e	0.025361653
64	0xbca79b38	-0.020459756
65	0x3d929ac3	0.07158425
66	0x3da8f351	0.08249534
67	0x3c86804b	0.016418597
68	0x3cd9e6ff	0.026599405
69	0xbd49640f	-0.04916769
70	0x3d07f3fc	0.033191666
71	0xbd7bce79	-0.061476205
72	0x3dc8e566	0.09809379
73	0x3d7b5b5e	0.06136643
74	0xbc070d90	-0.00824298
75	0x3d402faf	0.046920475
76	0x3d8f73dd	0.07004521
77	0x3e0374e2	0.12837556
78	0x3bed5c4e	0.0072436696
79	0xbd8b57da	-0.06803866
80	0xba1b6304	-0.0005927535
81	0x3d95ae9a	0.07308693
82	0x3d8e26a1	0.06940962
83	0x3a6c79ba	0.0009020824
84	0x3dee1a45	0.11626104
85	0xbcff6f35	-0.031180957
86	0xbd59b2f6	-0.053149186
87	0x3ccb3886	0.024807226
88	0x3de1698d	0.1100646
89	0x3e011552	0.1260579
90	0x3cdfd06d	0.027321065
91	0x3d12511c	0.035721883
92	0x3dcf1a88	0.10112482
93	0x3dcb2265	0.099186696
94	0xbd560614	-0.05225189
95	0xbc11ea59	-0.0089059705
96	0x3dfe5a79	0.124196
97	0x3ca25339	0.019815074
98	0xbcb93de2	-0.022612516
99	0xbd86d9f9	-0.06584544
100	0xbcb1b6e0	-0.021693647
101	0x3d1f1e36	0.03884717
102	0x3d1a735b	0.037707668
103	0xbb9cb228	-0.00478198
104	0x3dba2ba4	0.09090355
105	0x3d1b4fcd	0.0379179
106	0x3db024ab	0.08600744
107	0x3ce0081e	0.02734762
108	0x3dc6322e	0.0967754
109	0x3d945258	0.07242268
110	0xbcc4ca1e	-0.024022158
111	0x3dd05422	0.10172297
112	0x3dceaea5	0.100919046
113	0xbd4b4a02	-0.049631126
114	0x3dec9223	0.11551311
115	0x3cde1df5	0.027113894
116	0x3c244d20	0.010028154
117	0x3a7a2f26	0.0009543769
118	0xbd6732c9	-0.056444917
119	0x3debabcd	0.11507378
120	0x3ce04b6a	0.02737971
121	0xbba968b6	-0.005169953
122	0x3de97545	0.113993205
123	0xbd2c41bf	-0.042054888
124	0xbcfcb52a	-0.030848105
125	0x3d8b2dd3	0.0679585
126	0x3e0383fd	0.12843318
127	0xbc47fb78	-0.012205951
128	0xbd4c06b7	-0.04981109
129	0xbd729b76	-0.05923029
130	0x3d1dec92	0.03855569
131	0xbc3b7fbd	-0.011444029
132	0xbdabf553	-0.08396401
133	0xbd4973de	-0.049182765
134	0xbdb69c22	-0.08916499
135	0x3c8a3787	0.01687218
136	0xbd803bce	-0.06261407
137	0x3bcf5c02	0.006328107
138	0x3d5ae1c6	0.05343797
139	0x3d2e67c9	0.042579446
140	0xbdca0b6e	-0.09865461
141	0x3cd7a4b3	0.026323652
142	0x3d7da3fa	0.06192396
143	0x3d4f2717	0.05057439
144	0x3c4d2478	0.012520902
145	0xbc88f522	-0.016718451
146	0xbd9093d4	-0.07059446
147	0xbd7ed653	-0.062216114
148	0xbd8c7c66	-0.068596646
149	0xbd170c09	-0.036876712
150	0x3cf6e587	0.030138744
151	0x3d8c6eec	0.06857094
152	0x3cfd49f4	0.030919053
153	0xbceb72e9	-0.028741317
154	0xbc231db3	-0.009955811
155	0xbd2ce365	-0.042209048
156	0xbd28ef82	-0.041244037
157	0xbce04f95	-0.027381698
158	0xbc2b36bb	-0.0104500605
159	0xbc37fad1	-0.011229233
160	0x3d26960d	0.040670443
161	0x3c4755d3	0.012166458
162	0x3d431097	0.047623243
163	0xbbd90617	-0.0066230404
164	0xbd90eca3	-0.07076385
165	0xbc4efb0b	-0.0126330955
166	0x3c957523	0.018244332
167	0xbdc5579d	-0.096358515
168	0x3b826d51	0.0039803167
169	0x3d1198c0	0.035546064
170	0xbd9c6cdd	-0.076379515
171	0x3cc231cc	0.023705386
172	0xbd960fb1	-0.07327212
173	0x3c9418ad	0.018078173
174	0x3c4933f9	0.012280458
175	0x3cecf6d4	0.02892629
176	0xbd98a6e1	-0.074537046
177	0x3cd19437	0.02558337
178	0xbd9126a6	-0.0708745
179	0xbd706573	-0.0586905
180	0x3c929865	0.017894933
181	0xbda49136	-0.08035509
182	0x3d116ad7	0.03550228
183	0x3ccfaaaa	0.025349934
184	0x3d92adb9	0.07162041
185	0xbd8847f6	-0.066543505
186	0x3ba545a5	0.0050437027
187	0x3d54d5dc	0.051961765
188	0x3c8daac7	0.017293347
189	0xbd0feda2	-0.035138734
190	0x3d6fe480	0.058567524
191	0x3d19e58e	0.037572436
192	0x3c19d730	0.009389684
193	0xbd40503a	-0.04695151
194	0xbd90ec04	-0.070762664
195	0x3d757d96	0.05993422
196	0xbc88b7ae	-0.016689148
197	0xbc9a49ab	-0.018833956
198	0xb9ab0ae1	-0.00032623767
199	0xbd3e7982	-0.046502598
200	0x3cd9f1a1	0.026604475
201	0x3a0f540c	0.0005467541
202	0xba11ce20	-0.0005562026
203	0xbd03d744	-0.032187715
204	0x3c351bac	0.011053961
205	0x3d6a3f35	0.057189185
206	0x3cf33e65	0.029692838
207	0x3da69c0e	0.08135234
208	0x3c22c8de	0.009935586
209	0x3ce2fe9c	0.027709298
210	0xbd0abf9b	-0.033874135
211	0xbd885f4d	-0.06658802
212	0x3cdde9b4	0.027088977
213	0xbbe31856	-0.0069303913
214	0xbc4c63e9	-0.012474992
215	0x3ad2a948	0.0016072178
216	0x3c95fb56	0.018308323
217	0xbcba5adc	-0.022748403
218	0x3cc04d8c	0.023474477
219	0x3d8911b9	0.066928335
220	0xbcff0e49	-0.031134741
221	0xbd3324b6	-0.043736182
222	0xbd6f7ed3	-0.05847056
223	0x3d1ac813	0.037788462
224	0xbd2623c4	-0.040561453
225	0x3bfc81a0	0.007705882
226	0xbd9dba24	-0.07701519
227	0x3ce01464	0.027353473
228	0xbd99d6dd	-0.07511685
229	0xbb8c437d	-0.004280506
230	0xbd8ec618	-0.06971377
231	0xbdba69cf	-0.09102213
232	0xba3bee2c	-0.0007168974
233	0x3ca13628	0.019679144
234	0xbd7ab450	-0.061207116
235	0xbd87c57c	-0.06629464
236	0x3d2e3b98	0.0425373
237	0xbd065560	-0.032796264
238	0x3d25242d	0.040317703
239	0xbd7d26c6	-0.061804555
240	0xbd23748d	-0.039906073
241	0x3d259488	0.040424854
242	0xbdc50a31	-0.096210845
243	0x3bcb8658	0.0062110834
244	0xbd8eafd4	-0.0696713
245	0xbd6771c6	-0.056504987
246	0x3c463f06	0.012099987
247	0x3d00b0eb	0.031418722
248	0xbd83b13d	-0.0643029
249	0xbc080e05	-0.008304124
250	0xbcf272b2	-0.029595707
251	0xbda67a3c	-0.08128783
252	0xbce90ebd	-0.02844941
253	0xbc21cf60	-0.009876102
254	0xbd78c87e	-0.06073808
255	0xbd7a5f48	-0.061126024

vf.2.bias f4 [128]
0	0x3d0b2223	0.033968102
1	0x3d0bc643	0.034124624
2	0x3e0c159c	0.13680118
3	0x3d13b855	0.036064465
4	0xbd771839	-0.060325835
5	0x3dadb965	0.08482627
6	0x3d5fd49d	0.054646123
7	0xbc517f6c	-0.012786727
8	0x3db4179a	0.08793564
9	0x3d5d83e2	0.05408085
10	0x3ae2be5e	0.0017299165
11	0x3d2c86d0	0.042120755
12	0xbda2d7b0	-0.079512954
13	0x3dd8e9da	0.10591479
14	0xbb8308b0	-0.0039988384
15	0xbdbd88e4	-0.092546254
16	0x3d4fc8e7	0.050728705
17	0xbdbda026	-0.092590615
18	0x3d9a83b0	0.07544649
19	0x3d8c0e41	0.06838656
20	0x3dc1baa9	0.09459431
21	0xbd9fc4d6	-0.07801215
22	0xbd5ef181	-0.054429535
23	0x3d12fda1	0.03588641
24	0xbda253a0	-0.079261065
25	0x3dcdab02	0.10042383
26	0xbc62aaaf	-0.013834639
27	0xbc50e995	-0.012751003
28	0xbc586265	-0.013207053
29	0xbb3ff8a7	-0.0029292495
30	0xbd558e84	-0.052137867
31	0xbd2673fe	-0.040637963
32	0x3d8a45b2	0.067515746
33	0x3c04e217	0.008110545
34	0x3b915439	0.004435089
35	0x3d48ae83	0.048994552
36	0xbc19b133	-0.0093806265
37	0xbdb8fcb8	-0.09032577
38	0x3d440950	0.047860444
39	0x3dd6d780	0.10490322
40	0x3d261a6c	0.04055254
41	0xbd82ad33	-0.063806914
42	0x3da9ad3c	0.08284995
43	0x3c849e15	0.01618866
44	0xbbe9896b	-0.007126977
45	0xbd83bc71	-0.06432427
46	0x3c96844f	0.018373637
47	0x3b79d375	0.0038120423
48	0x3d84cdab	0.064845406
49	0xba3e21b8	-0.0007252949
50	0x3be6799c	0.00703354
51	0x3dedc496	0.116097614
52	0x3d244c02	0.04011155
53	0xbc8e1183	-0.017342335
54	0xbcc59139	-0.0241171
55	0xbd901a30	-0.07036245
56	0xbc7817fc	-0.015142437
57	0x3d59c699	0.053167913
58	0xbd552dbb	-0.052045565
59	0xbc6a4f02	-0.0143010635
60	0xbcfa2827	-0.030536724
61	0x3a819527	0.000988637
62	0x3d77b231	0.06047267
63	0x3cb57ff9	0.022155749
64	0xbb120579	-0.0022281094
65	0xbcdf4539	-0.027254688
66	0x3da099ab	0.0784181
67	0x3d87a560	0.0662334
68	0x3d835fa7	0.064147286
69	0x3d20224b	0.039095204
70	0x3c553459	0.013012969
71	0xbcee9735	-0.029124836
72	0x3d2fbbb1	0.042903606
73	0xbc189702	-0.009313347
74	0x3da7f2bb	0.08200594
75	0x3de9dec6	0.11419444
76	0xbc9b4c79	-0.018957363
77	0x3d672c53	0.056438755
78	0x3cf5f734	0.030025102
79	0x3d6951c4	0.056962743
80	0x3cbc5ee1	0.02299446
81	0x3d86e612	0.06586851
82	0xbd2581e1	-0.040407065
83	0x3d2d4383	0.042300712
84	0x3e1a3d0a	0.15062347
85	0xbd84e422	-0.064888254
86	0x3d35ad1b	0.04435454
87	0x3cf8b6e5	0.030360648
88	0xbc063546	-0.008191412
89	0x3d8be4ba	0.068307355
90	0x3c8c4cab	0.017126402
91	0x3c95b476	0.018274527
92	0x3d86278a	0.0655051
93	0x3da0ff2e	0.07861172
94	0x3d003c37	0.031307425
95	0x3d93a4a5	0.07209138
96	0xbd6a18d6	-0.05715259
97	0x3de0e34e	0.10980855
98	0xbd0d0c6a	-0.034435667
99	0x3d9bcfd2	0.07607998
100	0x3d98d043	0.07461598
101	0xbd284daa	-0.04108969
102	0x3ddd570a	0.10807617
103	0x3d85c2fc	0.06531331
104	0xbd860d5f	-0.06545519
105	0xbbfaa872	-0.007649475
106	0xbd962189	-0.07330615
107	0x3d89f304	0.06735805
108	0x3de21868	0.110398114
109	0x3c408089	0.011749395
110	0x3de582b0	0.11206567
111	0x3bbb8df2	0.0057237083
112	0x3df452c8	0.11929852
113	0x3d16a590	0.036778986
114	0xbdc0eacb	-0.09419783
115	0xbdaaa914	-0.0833303
116	0x3cd79e0b	0.026320478
117	0x3c5b7f9b	0.013397123
118	0x3df1ead5	0.11812369
119	0xbda5e7d1	-0.08100856
120	0x3d5e865f	0.054327365
121	0x3d51f505	0.05125906
122	0x3b9bd312	0.004755386
123	0x3d5d1035	0.053970534
124	0xbd0469e5	-0.03232755
125	0xbc81bc9b	-0.015837004
126	0x3bfd0174	0.0077211205
127	0x3dcceaa0	0.10005689
