ckpt/ppo_ep200.pt (torch, 151697 bytes, 12 tensors)

log_std f4 [8]
0.0015957257 0.0069799973 0.006378124 0.0027662017 0.00064134016 -0.0023044087 0.0050498648 0.00033393715
00000000: ab27 d13a 76b8 e43b 95ff d03b 2a49 353b
00000010: 9c1f 283a 9005 17bb 5679 a53b 4914 af39

pi_body.0.weight f4 [128, 9]
0.25130963 0.27636322 -0.07827818 0.30448547 -0.07497301 0.06987277 -0.1648047 0.19530642
0.2926732 -0.25242755 0.27700898 0.056478973 0.23806198 0.037021533 0.1523293 -0.0532189
0.24191315 0.038326528 -0.1556133 0.08496611 -0.15357888 -0.039090954 -0.13538611 0.22112367
-0.2631234 -0.15367012 -0.09412491 -0.1988685 0.030513907 -0.3238844 0.30546388 -0.28451762
0.2606902 0.05911757 -0.105543666 0.20880075 0.048546467 0.264567 0.034306522 -0.10547864
0.088268384 -0.09074778 0.14320953 0.29451916 0.19096032 -0.15167496 0.1913736 0.05390708
0.16871046 -0.20738004 -0.33156258 -0.12712944 -0.25640082 0.2711748 0.097772785 0.14240472
0.10793978 -0.005187036 0.26194876 -0.23206453 0.020646887 -0.2251146 0.1052332 -0.11579896
0.099536106 -0.07736078 0.2707578 -0.19565743 -0.204285 -0.2007006 0.2943255 0.107052825
0.3224157 -0.27577472 -0.33536604 -0.2578956 -0.22339745 0.13095114 0.11958744 0.27219033
-0.17317918 -0.2235211 0.185394 -0.1305214 0.20530859 -0.07535966 0.193878 -0.25551566
-0.16022561 0.107428044 0.0689809 -0.090224154 0.19474559 0.22616422 -0.24208334 -0.18410477
0.30428648 -0.12105568 -0.121841595 -0.31898287 -0.18318672 0.09099967 -0.04367522 -0.23927423
0.0106254695 -0.21826239 -0.2779887 -0.17575374 -0.29070947 -0.21055129 0.32531598 0.057246212
0.0955774 -0.3115319 -0.22356303 -0.11854635 0.044426396 -0.29644457 -0.14767137 -0.20562963
-0.00033038083 -0.1260024 -0.027780984 -0.22648993 -0.2286558 -0.19810826 -0.11964506 -0.2702197
0.27120578 -0.072445065 0.2773207 0.09975921 -0.28767374 0.22312075 -0.10021087 -0.12516242
-0.28030226 -0.33137676 0.09874611 -0.073023446 0.1304908 -0.26916957 0.24849282 -0.24333243
-0.055666327 0.07155412 0.1704655 0.26840225 0.3068366 -0.26649365 0.08571898 -0.14559859
-0.036148205 -0.24027456 0.31009236 -0.23792167 0.18261446 0.1238104 0.118959054 -0.17398126
0.30968148 0.08121231 0.035185948 -0.29767528 0.13318971 -0.051117748 -0.15873827 0.27756107
0.06966473 -0.19664098 -0.17586483 -0.011672879 0.19144365 -0.07717554 -0.18565227 -0.1074291
-0.24098644 0.12526691 0.27086473 -0.30472156 0.06566254 0.16201136 0.051966235 -0.12755044
0.16492163 0.16465929 0.11557684 -0.070001915 -0.09999178 0.030331362 -0.06671733 -0.10056172
0.21037604 0.27990907 -0.036757197 -0.076127745 -0.001966827 -0.025158735 0.077077396 0.08738827
-0.30498725 -0.12536949 0.27528515 0.12788856 -0.017676799 -0.20785844 -0.2078767 -0.30256245
-0.11573518 0.11029204 0.20768261 0.14988329 -0.30099264 -0.19794258 -0.061875544 0.3177664
0.048669677 -0.089034066 0.13864145 -0.12665369 -0.2179023 0.23944233 -0.15666586 -0.06894642
-0.33364928 0.22670378 0.25282356 0.123735584 -0.23024458 -0.3240637 -0.26374155 0.25438076
0.1638247 0.28483334 0.18834348 0.0956401 -0.0017357419 -0.24318495 -0.27797103 -0.30448955
0.14245936 -0.15847276 -0.057629183 -0.18968311 -0.062973216 -0.23395059 -0.21731986 0.109775424
-0.09783666 0.20501263 -0.109829664 -0.2453586 -0.05596099 -0.15905058 -0.098279335 -0.318747
00000000: a8ab 803e 7b7f 8d3e 4f50 a0bd 85e5 9b3e
00000010: 738b 99bd 7419 8f3d 90c2 28be 68fe 473e
00000020: 43d9 953e 2f3e 81be 1fd4 8d3e 7f56 673d
00000030: 85c6 733e e4a3 173d 36fc 1b3e 10fc 59bd
00000040: 15b8 773e 47fc 1c3d 1859 1fbe b602 ae3d
00000050: c843 1dbe d61d 20bd a8a2 0abe 3e6e 623e
00000060: 1cb8 86be b35b 1dbe 90c4 c0bd 2fa4 4bbe
00000070: 4df8 f93c 2dd4 a5be c365 9c3e 4bac 91be
00000080: 3079 853e 4425 723d 4727 d8bd ddcf 553e
00000090: a9d8 463d 5375 873e ff84 0c3d 2f05 d8bd
000000a0: 0ec6 b43d f9d9 b9bd 85a5 123e 37cb 963e
000000b0: 1a8b 433e ae50 1bbe 71f7 433e accd 5c3d
000000c0: 6fc2 2c3e 6f5b 54be 92c2 a9be 382e 02be
000000d0: f846 83be 6cd7 8a3e 193d c83d 8bd2 113e
000000e0: 880f dd3d 03f8 a9bb 261e 863e 53a2 6dbe
000000f0: a923 a93c 7184 66be 8184 d73d 0128 edbd
00000100: 96d9 cb3d 546f 9ebd c4a0 8a3e 6c5a 48be
00000110: 1630 51be 7584 4dbe d5b1 963e 833e db3d
00000120: ac13 a53e 5832 8dbe 19b5 abbe e40a 84be
00000130: 4dc2 64be 0e18 063e 42ea f43d 885c 8b3e
00000140: e255 31be b7e2 64be edd7 3d3e 67a7 05be
00000150: 6a3c 523e 2a56 9abd f487 463e f3d2 82be
00000160: 2f12 24be 3c03 dc3d dc45 8d3d 71c7 b8bd
00000170: 636b 473e 9897 673e b2e4 77be f685 3cbe
00000180: 70cb 9b3e 0aec f7bd 1688 f9bd b951 a3be
00000190: 4d95 3bbe 095e ba3d cae4 32bd 4e04 75be
000001a0: 7316 2e3c 2d80 5fbe 8954 8ebe caf8 33be
000001b0: dfd7 94be c29a 57be d18f a63e 017b 6a3d
000001c0: 15be c33d 1c81 9fbe b5ed 64be 6ec8 f2bd
000001d0: 74f8 353d 95c7 97be 2a37 17be 9390 52be
000001e0: f736 adb9 c606 01be f294 e3bc faec 67be
000001f0: bf24 6abe e4dc 4abe 7808 f5bd 3d5a 8abe
00000200: 7cdb 8a3e 145e 94bd fbfc 8d3e 8f4e cc3d
00000210: f949 93be c479 643e 5b3b cdbd 942a 00be
00000220: c783 8fbe 37aa a9be 673b ca3d 518d 95bd
00000230: 619f 053e 98d0 89be e774 7e3e 232c 79be
00000240: 6002 64bd f78a 923d 828e 2e3e 056c 893e
00000250: b019 9d3e db71 88be 6f8d af3d cc17 15be
00000260: 2410 14bd 890a 76be 6dc4 9e3e bda1 73be
00000270: 49ff 3a3e 4f90 fd3d cea0 f33d 2528 32be
00000280: 928e 9e3e a452 a63d 241f 103d e568 98be
00000290: e262 083e d860 51bd 498c 22be 7c1c 8e3e
000002a0: 62ac 8e3d 415c 49be e915 34be 9a3f 3fbc
000002b0: ce09 443e 360e 9ebd a11b 3ebe ca03 dcbd
000002c0: 26c5 76be f845 003e c8ae 8a3e 7704 9cbe
000002d0: 157a 863d 4ee6 253e 8cda 543d 959c 02be
000002e0: 37e1 283e 729c 283e 8db3 ec3d 2a5d 8fbd
000002f0: 7ec8 ccbd 7a79 f83c 18a3 88bd 4ef3 cdbd
00000300: d16c 573e 3e50 8f3e b78e 16bd dde8 9bbd
00000310: e2e5 00bb b119 cebc c1da 9d3d 9ff8 b23d
00000320: 4a27 9cbe dc60 00be 2df2 8c3e 38f5 023e
00000330: efce 90bc d8d8 54be a1dd 54be 77e9 9abe
00000340: 9106 edbd cbe0 e13d c0aa 543e 017b 193e
00000350: b51b 9abe 76b1 4abe 3671 7dbd 47b2 a23e
00000360: db59 473d 7e57 b6bd 06f8 0d3e 81b1 01be
00000370: c821 5fbe 5f30 753e 046d 20be c833 8dbd
00000380: 14d4 aabe 0925 683e 1772 813e 1569 fd3d
00000390: 3cc5 6bbe adeb a5be 2209 87be 323e 823e
000003a0: aac1 273e add5 913e 1ddd 403e f5de c33d
000003b0: d581 e3ba 7a05 79be 3852 8ebe 0ee6 9bbe
000003c0: dee0 113e af46 22be 940c 6cbd 4a3c 42be
000003d0: 1af8 80bd be90 6fbe 1989 5ebe f0d1 e03d
000003e0: 965e c8bd d5ee 513e 60ee e0bd 493f 7bbe
000003f0: 5a37 65bd 28de 22be ad46 c9bd cf32 a3be

pi_body.0.bias f4 [128]
0.096986696 0.051336862 -0.19571213 0.05345798 0.32042542 0.22760768 -0.25730246 0.299767
0.024034942 0.16668797 0.2555193 0.29331228 -0.26778197 0.28764987 -0.23440032 0.025472537
-0.23121767 -0.065244764 -0.022811173 -0.030118577 -0.063233554 0.02174807 0.3249818 0.18925971
0.18689051 0.13880137 0.2662985 -0.015635656 0.02961844 0.06161706 -0.29799366 -0.26851898
0.042036105 -0.13041675 -0.007614925 -0.075638056 0.053724617 0.21260737 -0.11505648 0.26753736
0.2646794 -0.255088 -0.2505118 -0.27730638 -0.18810415 -0.13339816 -0.019991178 -0.076491974
-0.166156 -0.10141468 -0.11933717 0.33259866 -0.121390484 -0.23866698 0.14030914 -0.017394273
0.25971755 0.20101207 0.30653366 -0.2453604 0.21623018 0.2778604 -0.16290715 0.3040157
0.25028855 0.0034837003 0.16378753 -0.110570334 -0.2925989 0.08070027 0.095360816 -0.21911275
0.15474685 -0.28647137 0.2864921 0.32072046 0.08794122 -0.20020792 0.16083677 0.04988311
0.09021385 0.10436388 0.2588901 -0.15192533 -0.07676403 0.094414145 0.029609442 0.2684229
-0.17521442 -0.010049602 0.065258145 -0.08188335 0.23740661 0.03993567 -0.30707857 -0.034651037
-0.15315671 0.028399989 -0.04287202 -0.33064473 -0.056326386 -0.032622635 -0.1008036 0.309786
-0.07116473 0.22025436 0.08532341 -0.28042316 0.08622152 0.27487522 -0.21511409 -0.21545832
0.31993175 0.2696935 -0.18592896 0.20643306 -0.04453948 -0.32904813 0.016147804 0.108233914
-0.08892663 0.12343722 -0.2894118 0.2312323 0.28256515 0.18203622 0.058828402 0.11211289
00000000: f6a0 c63d 9a46 523d c368 48be c1f6 5a3d
00000010: cd0e a43e fd11 693e 26bd 83be 0f7b 993e
00000020: ede4 c43c 40b0 2a3e 6dd3 823e 072d 963e
00000030: b81a 89be d846 933e a306 70be c8ab d03c
00000040: 53c4 6cbe 0c9f 85bd 7fde babc 3cbb f6bc
00000050: 9880 81bd 0229 b23c 0464 a63e 4ccd 413e
00000060: 3a60 3f3e f221 0e3e 4758 883e 5916 80bc
00000070: 5fa2 f23c 2c62 7c3d a092 98be 527b 89be
00000080: 0d2e 2c3d f88b 05be 9f86 f9bb 20e8 9abd
00000090: 580e 5c3d bfb5 593e bba2 ebbd a8fa 883e
000000a0: 0f84 873e e59a 82be 1543 80be 1afb 8dbe
000000b0: 609e 40be 8799 08be 8ac4 a3bc d3a7 9cbd
000000c0: cc24 2abe 80b2 cfbd 0c67 f4bd 5f4a aa3e
000000d0: 939b f8bd 1e65 74be 33ad 0f3e 6f7e 8ebc
000000e0: b3f9 843e 1cd6 4d3e fbf1 9c3e c23f 7bbe
000000f0: 726b 5d3e b843 8e3e 22d1 26be f2a7 9b3e
00000100: d225 803e cb4e 643b ebb7 273e b372 e2bd
00000110: 86cf 95be 2f46 a53d 884c c33d 185f 60be
00000120: f575 1e3e 60ac 92be 18af 923e 7935 a43e
00000130: 871a b43d 4e03 4dbe 65b2 243e 3b52 4c3d
00000140: 0ac2 b83d bbbc d53d 3e8d 843e 5092 1bbe
00000150: 7636 9dbd 345c c13d 808f f23c ba6e 893e
00000160: 696b 33be 16a7 24bc 10a6 853d 75b2 a7bd
00000170: b81a 733e 9693 233d 6739 9dbe 3fee 0dbd
00000180: 1dd5 1cbe 18a7 e83c 929a 2fbd 444a a9be
00000190: 7fb6 66bd 509f 05bd 1e72 cebd 459c 9e3e
000001a0: d0be 91bd 5c8a 613e 0abe ae3d a093 8fbe
000001b0: e994 b03d 72bc 8c3e de46 5cbe 1ba1 5cbe
000001c0: 18ce a33e 4415 8a3e 2964 3ebe 3063 533e
000001d0: 086f 36bd ff78 a8be 6648 843c bea9 dd3d
000001e0: 2a1f b6bd a7cc fc3d c92d 94be 29c8 6c3e
000001f0: 61ac 903e b467 3a3e 0df6 703d 719b e53d

pi_body.2.weight f4 [128, 128]
-0.0663778 -0.02568879 -0.00843822 -0.052585796 -0.06751096 0.05751308 0.05979112 -0.08300548
0.029225757 0.029085832 0.083573945 0.051137403 0.08125865 -0.028937435 0.055719957 0.0718952
-0.08191319 -0.07067096 0.016224114 0.046750177 -0.04554024 0.0080647 -0.00092264474 0.01817703
-0.04653776 0.048469406 0.060352836 -0.061328985 9.0251615e-07 0.00024524197 0.024486419 0.08234121
0.031407833 -0.020083774 0.07287266 -0.036593556 -0.023559166 0.005526313 -0.06730851 0.007245481
-0.06274708 0.005349398 0.0044422364 0.012234777 -0.0745375 -0.083949864 0.046998326 0.07515144
-0.07843338 0.03132189 -0.07273001 0.007813135 0.07888934 0.067053095 -0.06710838 0.05141987
0.049543146 -0.0031719108 0.08311408 -0.03896997 -0.022978205 -0.048656367 0.010301939 0.029919466
0.0048803994 -0.04919186 -0.045352817 0.029087977 -0.08145129 -0.010313046 -0.0019579423 -0.035811767
0.029311001 4.582673e-05 0.060347136 -0.00868062 -0.05631915 0.060696688 0.007999582 -0.033195563
-0.059034217 0.019510388 -0.08723556 0.018646091 0.04370315 -0.074506015 -0.05786541 -0.061965473
0.0691953 0.07401127 0.003104941 0.080662735 -0.03196133 -0.08580937 0.026440283 0.02745829
0.08303484 -0.0032509165 0.06312506 0.054178856 0.060301363 -0.09200043 0.07027382 -0.07669805
0.079241134 -0.006499404 -0.08110317 0.019573059 -0.020128755 -0.081636615 -0.033493895 0.009113297
0.0676838 -0.029723238 0.054407798 0.0104904575 0.0044476315 0.016912665 -0.059317466 -0.07485814
-0.027303142 -0.08527507 -0.043799 0.003726117 -0.05973684 -0.038061682 -0.01554109 -0.010182636
-0.051431153 0.001984602 -0.01240623 0.013999968 0.0028705553 -0.038557395 -0.03062467 -0.003260223
-0.06090744 0.003184095 -0.0025185521 0.042812157 0.018459797 0.06533133 -0.006617573 -0.06487137
0.04692576 -0.06634859 -0.012865056 -0.037006702 -0.033992797 -0.030858168 0.08074944 0.054475095
0.027176648 0.081892595 -0.08085962 0.018878814 0.056416754 0.058581483 -0.06902975 0.03145649
-0.052569117 -0.0034536708 -0.020215433 -0.07469032 -0.08923389 -0.061191346 0.039940577 0.040335555
-0.070474476 -0.037468288 0.00036826028 -0.08193054 0.04982377 0.08131897 0.014505606 -0.07329245
0.020610956 0.033186097 0.07176786 -0.041523367 -0.07956278 0.038833473 0.0071903886 -0.029108264
-0.039066605 -0.053238224 0.071454585 -0.0035774135 0.06346732 0.079723515 0.0122801 0.016886806
-0.008175637 0.065652624 -0.07915984 0.023899365 -0.0196136 0.046501756 -0.0061215144 -0.04033341
-0.009181003 0.044214122 -0.061904315 -0.056087133 -0.030817976 -0.031342812 0.03562871 0.057483375
0.00139979 0.082081 -0.03658821 -0.04924126 -0.03957094 -0.06155396 -0.0571425 -0.0764196
-0.07701964 0.022340601 0.0538231 0.080275886 0.07754861 -0.005090612 0.017427796 -0.054010466
0.0323117 -0.087652706 0.042800564 0.016211795 0.026031138 0.03612693 -0.043581158 0.08122954
0.04218356 0.055980884 0.013526267 0.054669254 0.058845196 0.0397686 0.06676735 -0.016031692
0.05652205 0.018043533 0.053521883 0.08564145 0.028943473 -0.032806832 -0.011875523 0.027819175
0.006841155 -0.022539185 0.05500656 0.055490367 -0.0525249 -0.0033306533 -0.00451987 -0.054427806
00000000: 16f1 87bd 4c71 d2bc 7640 0abc 3464 57bd
00000010: 3043 8abd d692 6b3d 89e7 743d c7fe a9bd
00000020: db6a ef3c 6945 ee3c d128 ab3d 7475 513d
00000030: ef6a a63d 330e edbc 9c3a 643d ca3d 933d
00000040: 1ac2 a7bd f0bb 90bd 6fe8 843c 1d7d 3f3d
00000050: 6788 3abd ce21 043c a4dd 71ba ffe7 943c
00000060: 619e 3ebd db87 463d 8934 773d 1a34 7bbd
00000070: 7044 7235 d293 8039 be97 c83c 82a2 a83d
00000080: 80a5 003d ba86 a4bc 433e 953d 20e3 15bd
00000090: 27ff c0bc 1316 b53b 0bd9 89bd 806b ed3b
000000a0: 8b81 80bd 014a af3b 2e90 913b 6074 483c
000000b0: 1ea7 98bd e8ed abbd 5181 403d 00e9 993d
000000c0: aea1 a0bd 624b 003d 79f3 94bd aa02 003c
000000d0: bc90 a13d 2253 893d 1e70 89bd a49d 523d
000000e0: c1ed 4a3d d5df 4fbb b737 aa3d fa9e 1fbd
000000f0: ca3c bcbc e64b 47bd 77c9 283c ab19 f53c
00000100: c2eb 9f3b 677d 49bd e0c3 39bd e949 ee3c
00000110: efcf a6bd 0df8 28bc d250 00bb 5caf 12bd
00000120: a01d f03c 1436 4038 8f2e 773d 2939 0ebc
00000130: e9ae 66bd 179d 783d ae10 033c 12f8 07bd
00000140: ddcd 71bd 40d4 9f3c 8fa8 b2bd b0bf 983c
00000150: 1302 333d 9c96 98bd 4804 6dbd 82cf 7dbd
00000160: 44b6 8d3d 3993 973d 447c 4b3b 8132 a53d
00000170: e2e9 02bd d3bc afbd 4b99 d83c 35f0 e03c
00000180: 2c0e aa3d 540d 55bb b647 813d a6ea 5d3d
00000190: 90fe 763d b96a bcbd b8eb 8f3d de13 9dbd
000001a0: 2d49 a23d f4f8 d4bb 6b19 a6bd ae57 a03c
000001b0: 0fe5 a4bc 1931 a7bd e530 09bd f04f 153c
000001c0: ce9d 8a3d 267e f3bc b6da 5e3d 2be0 2b3c
000001d0: 70bd 913b 6e8c 8a3c dff6 72bd 394f 99bd
000001e0: d7aa dfbc b2a4 aebd 9566 33bd df31 743b
000001f0: 9eae 74bd 91e6 1bbd 0ea0 7ebc 12d5 26bc
00000200: 79a9 52bd 1910 023b 8043 4bbc 1f60 653c
00000210: ed1f 3c3b 5cee 1dbd 97e0 fabc 77a9 55bb
00000220: 147a 79bd 40ac 503b 4b0e 25bb cd5b 2f3d
00000230: 0039 973c 6fcc 853d 3ad8 d8bb 48db 84bd
00000240: 3a35 403d c5e1 87bd f5c7 52bc 5794 17bd
00000250: 083c 0bbd 45ca fcbc f65f a53d 4721 5f3d
00000260: 90a1 de3c 4eb7 a73d ba99 a5bd bea7 9a3c
00000270: 4115 673d 23f3 6f3d 785f 8dbd 85d8 003d
00000280: b752 57bd fb56 62bb d69a a5bc 3df7 98bd
00000290: 42c0 b6bd c7a3 7abd bb98 233d e536 253d
000002a0: ec54 90bd 5978 19bd 0f13 c139 33cb a7bd
000002b0: 0214 4c3d 8f8a a63d eca8 6d3c 5a1a 96bd
000002c0: 4fd8 a83c 25ee 073d 07fb 923d 6814 2abd
000002d0: d0f1 a2bd d90f 1f3d 5a9d eb3b 7474 eebc
000002e0: 4e04 20bd 5310 5abd c856 923d 0a73 6abb
000002f0: 27fb 813d 1546 a33d 7932 493c 3356 8a3c
00000300: 1bf3 05bc e274 863d 8e1e a2bd 9ac8 c33c
00000310: b3ac a0bc a078 3e3d fc96 c8bb a534 25bd
00000320: eb6b 16bc de19 353d 618f 7dbd 9fbb 65bd
00000330: fb75 fcbc 5261 00bd 69ef 113d b073 6b3d
00000340: 2979 b73a 151a a83d 85dd 15bd 34b1 49bd
00000350: 2315 22bd 0120 7cbd 410e 6abd e181 9cbd
00000360: 79bc 9dbd a303 b73c 9c75 5c3d af67 a43d
00000370: ced1 9e3d 26cf a6bb bdc4 8e3c 143a 5dbd
00000380: 4659 043d 4383 b3bd a54f 2f3d 99ce 843c
00000390: 413f d53c d5f9 133d 2882 32bd ac5b a63d
000003a0: abc8 2c3d 364c 653d 479d 5d3c deec 5f3d
000003b0: a907 713d 66e4 223d 52bd 883d e554 83bc
000003c0: aa83 673d 08d0 933c c339 5b3d c964 af3d
000003d0: dd1a ed3c 7560 06bd 8e91 42bc 0ae5 e33c
000003e0: c42b e03b 19a4 b8bc 8f4e 613d de49 633d
000003f0: 5924 57bd 1747 5abb 6b1b 94bb b1ef 5ebd

pi_body.2.bias f4 [128]
-0.015108351 -0.06729565 0.07967972 0.030956065 0.009481624 0.025533762 0.036546 -0.08484106
0.060953904 0.06478611 0.010355462 -0.028186586 0.014675405 0.012168291 0.01313143 -0.05490647
0.053078797 0.005412456 0.0058311364 -0.035535656 0.07339433 -0.0679907 -0.031828143 -0.062572375
0.06451855 -0.03732947 0.0046897586 -0.010253322 0.06677149 -0.07970665 -0.039473686 -0.09381377
-0.025437264 -0.07900262 -0.004098854 0.03490179 0.0045056827 0.012714151 -0.021343626 -0.06522043
-0.0032594413 0.068847 0.016898671 0.009776713 -0.030763393 0.05161561 0.05558718 0.019407418
0.06660571 0.0056572384 0.0016995505 0.033241015 -0.0850035 0.06199795 -0.044193298 -0.041849185
-0.0071578985 -0.069223225 -0.056896295 0.073653966 -0.0151822185 0.039334904 0.015330998 0.08296991
-0.048045292 -0.04607322 0.08345267 -0.061999384 -0.08856826 -0.0176631 0.04730087 0.04352656
-0.063354425 -0.068844564 0.039157566 -0.05909919 0.045065235 -0.018527793 -0.03857875 -0.017839242
0.07688157 -0.058906768 -0.06970585 0.041969962 0.04025494 -0.018912714 0.048000187 -0.025808888
-0.042132597 -0.06446363 -0.044980053 -0.057263996 0.0270351 -0.0177857 0.05997044 -0.037227597
0.0468575 0.07304385 -0.02180167 -0.051030666 0.037633058 -0.08147726 0.054580558 0.06090101
-0.002247831 -0.054783706 0.008082877 0.061600782 0.011266358 0.01238189 0.03852537 0.04975357
0.019285196 -0.050944667 -0.0010496436 -0.043746833 0.050823357 -0.04526448 0.066370256 0.03446403
-0.08797108 -0.03702391 -0.010020099 -0.024114637 -0.002953925 -0.050370604 0.067716144 0.039952513
00000000: 0489 77bc 4dd2 89bd 1f2f a33d 9397 fd3c
00000010: d058 1b3c 2e2c d13c 42b1 153d 26c1 adbd
00000020: cdaa 793d 94ae 843d f5a9 293c 8ee7 e6bc
00000030: 1c71 703c 835d 473c 3625 573c 9be5 60bd
00000040: 2769 593d f95a b13b 1e13 bf3b d68d 11bd
00000050: c44f 963d b53e 8bbd 3a5e 02bd f225 80bd
00000060: 4d22 843d c9e6 18bd 8cac 993b 8dfd 27bc
00000070: 7ebf 883d 3d3d a3bd 29af 21bd 6f21 c0bd
00000080: cf61 d0bc 20cc a1bd ae4f 86bb 2ef5 0e3d
00000090: 68a4 933b 044f 503c d4d8 aebc 4a92 85bd
000000a0: 5a9c 55bb a8ff 8c3d 156f 8a3c 822e 203c
000000b0: 8303 fcbc e46a 533d 62af 633d 4efc 9e3c
000000c0: 9368 883d 5b60 b93b 74c3 de3a bb27 083d
000000d0: 5116 aebd 90f1 7d3d 0804 35bd 0d6a 2bbd
000000e0: ce8c eabb e8c4 8dbd 170c 69bd e4d7 963d
000000f0: d7be 78bc a31d 213d de2e 7b3c 21ec a93d
00000100: 24cb 44bd 46b7 3cbd 3ce9 aa3d 11f3 7dbd
00000110: 4763 b5bd 35b2 90bc 8fbe 413d e848 323d
00000120: f7bf 81bd 61fe 8cbd af63 203d fe11 72bd
00000130: 5396 383d 99c7 97bc c004 1ebd 9a23 92bc
00000140: 1674 9d3d 3948 71bd f1c1 8ebd b2e8 2b3d
00000150: 5de2 243d d6ee 9abc d89b 443d 296d d3bc
00000160: 3b93 2cbd 8205 84bd 013d 38bd a78d 6abd
00000170: b778 dd3c 51b3 91bc 90a3 753d f77b 18bd
00000180: a6ed 3f3d 0498 953d 6a99 b2bc 8805 51bd
00000190: 1f25 1a3d 8ddd a6bd dd8f 5f3d 5673 793d
000001a0: 5950 13bb e164 60bd 0b6e 043c 1a51 7c3d
000001b0: 8896 383c 69dd 4a3c c7cc 1d3d 66ca 4b3d
000001c0: fdfb 9d3c 5bab 50bd 3294 89ba e12f 33bd
000001d0: 272c 503d 3f67 39bd 21ed 873d 282a 0d3d
000001e0: 2e2a b4bd 62a6 17bd 572b 24bc 0f8c c5bc
000001f0: a396 41bb 6851 4ebd c3ae 8a3d 3fa5 233d

mu_head.weight f4 [8, 128]
-0.013824609 -0.029775336 -0.06428389 -0.047853485 -0.0502798 0.07825862 0.0029138527 -0.048774645
0.00032206287 0.0022450602 0.021071237 0.029766856 0.060360562 -0.041302644 -0.01563889 -0.075857066
-0.029060781 -0.077711545 -0.0049690465 -0.047381617 -0.02961563 0.07980673 0.07917548 0.0044680983
0.046730887 0.055679105 0.013852343 0.0205167 -0.0017742423 -0.06787163 0.07596757 -0.06431421
-0.021858195 -0.071426995 -0.04418904 0.092582785 -0.010587744 0.026748627 0.022122713 0.06999182
0.021948222 0.006387944 -0.03760633 0.013074355 0.02097459 -0.059321564 -0.06356607 -0.03309128
0.07925285 0.036461446 0.049482062 0.061837144 -0.0008816699 -0.054677352 0.093626834 0.019167451
-0.03514463 0.043585718 -0.062061906 0.0040773274 0.08867708 0.033262663 -0.07859396 0.07520226
0.017948579 -0.019452244 0.072406456 0.037720993 0.053028546 0.0447093 -0.050883695 -0.060658358
0.063133724 -0.00447484 0.082930386 0.043670688 -0.08649934 0.04802872 0.041380726 -0.087211125
0.0086866 -0.0708781 0.041408304 0.055027287 0.03390145 0.055008642 -0.052407056 -0.0037839343
-0.02043238 0.06686032 0.057532974 -0.029891161 -0.07008888 -0.0046496494 0.06619663 -0.01640022
0.033816665 -0.059402447 -0.05694495 -0.07509808 -0.07244403 -0.03761146 -0.040281937 0.036401622
0.073966734 0.0108596515 0.03248109 -0.057604067 -0.03927427 -0.08272368 0.08276524 0.0137440525
-0.024219697 -0.079599835 0.018984403 -0.08571018 0.06431537 -0.08325771 0.018062476 0.05814019
-0.07017648 0.064916484 0.086372346 0.06591708 0.080260254 -0.03970364 -0.014255132 0.08082808
0.041494027 -0.060986113 0.087095395 -0.018601356 -0.026884496 0.01974141 0.08918894 -0.040800657
0.011091816 -0.0046933116 -0.023160644 0.045158558 0.0034837963 -0.06879304 0.006274503 0.05584136
-0.039679557 0.078528225 -0.07171238 0.02928103 0.053179834 0.03296023 0.031248182 0.019531883
-0.020409852 0.06571609 -0.013765162 0.076034114 0.084543146 -0.07303053 0.07679009 0.024563627
-0.054631446 -0.045622267 -0.010304992 0.082415916 0.054856982 -0.020322723 -0.049875017 -0.054317933
-0.038729504 0.0020741774 -0.07240789 -0.07829998 -0.05438901 0.029540375 0.02692515 0.028491156
0.07812774 0.02549638 -0.034323096 0.038903292 -0.04124241 0.08245745 -0.030000271 -0.04787751
-0.01583744 -0.04359744 -0.008876969 -0.007360526 0.008264158 -0.0074461163 -0.05991659 -0.08373727
-0.05603276 -0.08109929 -0.080969885 0.087299086 0.0499907 0.048265636 0.058947776 0.031819787
-0.019776171 -0.008014948 -0.037257515 0.041662987 0.017292583 -0.073819675 0.017833361 -0.064928934
0.068336435 0.010091266 0.0019724779 -0.057412483 0.022535602 0.017986786 0.028255114 -0.06023759
-0.032041047 -0.058574233 -0.051769447 -0.047529966 -0.06562033 0.085271485 -0.08325093 -0.023728084
0.0007654638 -0.030904112 -0.021540036 0.039199334 -0.0123886 -0.023372842 0.076867975 -0.028158426
-0.0012739447 0.05623083 -0.020702505 -0.0732204 0.06788647 -0.073207766 -0.08711625 -0.042668823
0.011724853 0.068822175 -0.06503995 -0.03768059 0.08385263 0.06942778 0.03751747 -0.07149354
0.05195915 -0.005617142 -0.08131011 0.0740372 -0.060453184 0.019033011 -0.053881913 0.081930384
00000000: 9d80 62bc 68eb f3bc 46a7 83bd 0402 44bd
00000010: 31f2 4dbd 0e46 a03d 56f6 3e3b ecc7 47bd
00000020: 8cda a839 dc21 133b 969d ac3c 9fd9 f33c
00000030: a33c 773d f62c 29bd 211d 80bc f35a 9bbd
00000040: e010 eebc 3b27 9fbd 62d3 a2bb 3a13 42bd
00000050: 7a9c f2bc b671 a33d c126 a23d 2069 923b
00000060: e368 3f3d c60f 643d f0f4 623c a312 a83c
00000070: b18d e8ba 4800 8bbd e394 9b3d 2bb7 83bd
00000080: f50f b3bc 5148 92bd 91ff 34bd 0b9c bd3d
00000090: 3878 2dbc f01f db3c b13a b53c df57 8f3d
000000a0: c2cc b33c f551 d13b 1809 1abd d235 563c
000000b0: e7d2 ab3c 2bfb 72bd ed2e 82bd b98a 07bd
000000c0: 514f a23d 9958 153d b4ad 4a3d f248 7d3d
000000d0: de1f 67ba 5cf5 5fbd 6dbf bf3d 0f05 9d3c
000000e0: d1f3 0fbd f086 323d a034 7ebd 1a9b 853b
000000f0: 549c b53d 6e3e 083d dff5 a0bd a403 9a3d
00000100: e608 933c 505a 9fbc d649 943d 5481 1a3d
00000110: 7634 593d 1921 373d 6c6b 50bd e674 78bd
00000120: 414c 813d aea1 92bb 68d7 a93d 09e0 323d
00000130: 9126 b1bd c3b9 443d d67e 293d bf9b b2bd
00000140: 3e52 0e3c 8a28 91bd c19b 293d 4b64 613d
00000150: 3fdc 0a3d be50 613d c8a8 56bd e2fb 77bb
00000160: ce61 a7bc 10ee 883d b2a7 6b3d 4fde f4bc
00000170: c28a 8fbd 165c 98bb 1992 873d c159 86bc
00000180: 5883 0a3d fb4f 73bd 1c3f 69bd 06cd 99bd
00000190: 895d 94bd 790e 1abd acfe 24bd de19 153d
000001a0: df7b 973d aeec 313c e40a 053d 3ef2 6bbd
000001b0: 0fde 20bd 086b a9bd d280 a93d bc2e 613c
000001c0: 6368 c6bc 3d05 a3bd 2e85 9b3c d288 afbd
000001d0: c7b7 833d 0583 aabd c2f7 933c 6824 6e3d
000001e0: b0b8 8fbd eff2 843d fce3 b03d 89ff 863d
000001f0: 7d5f a43d 49a0 22bd 5b8e 69bc 3189 a53d
00000200: a4f5 293d 93cc 79bd 125f b23d df61 98bc
00000210: e03c dcbc bdb8 a13c b1a8 b63d 971e 27bd
00000220: 73ba 353c 5aca 99bb 64bb bdbc 2ef8 383d
00000230: 6750 643b 5ee3 8cbd 599a cd3b e9b9 643d
00000240: 0887 22bd 68d3 a03d f1dd 92bd c5de ef3c
00000250: 19d3 593d 4e01 073d 30fc ff3c 5401 a03c
00000260: 9032 a7bc 2896 863d 4687 61bc c6b7 9b3d
00000270: f524 ad3d 0891 95bd 1f44 9d3d a939 c93c
00000280: 39c5 5fbd 6ade 3abd 45d6 28bc adc9 a83d
00000290: b7b1 603d d77b a6bc bf49 4cbd 7b7c 5ebd
000002a0: d4a2 1ebd ecee 073b 964a 94bd bd5b a0bd
000002b0: 03c7 5ebd a8fe f13c 2292 dc3c 4966 e93c
000002c0: 7001 a03d c9dd d03c 6096 0cbd 0f59 1f3d
000002d0: cded 28bd 74df a83d 21c3 f5bc 351b 44bd
000002e0: 85bd 81bc 3b93 32bd b570 11bc 9130 f1bb
000002f0: 6466 073c 8dfe f3bb 196b 75bd 727e abbd
00000300: 9b82 65bd 6217 a6bd 8ad3 a5bd ddc9 b23d
00000310: 0cc3 4c3d 30b2 453d 3973 713d 7755 023d
00000320: a301 a2bc 2151 03bc 569b 18bd cfa6 2a3d
00000330: 2da9 8d3c c52e 97bd 4517 923c 76f9 84bd
00000340: f9f3 8b3d d655 253c b044 013b 5a29 6bbd
00000350: 959c b83c 0659 933c 4577 e73c b1bb 76bd
00000360: 793d 03bd 89eb 6fbd 330c 54bd c8ae 42bd
00000370: f463 86bd d1a2 ae3d 777f aabd 6661 c2bc
00000380: 68a9 483a 9f2a fdbc bb74 b0bc 7b8f 203d
00000390: 8ef9 4abc 6778 bfbc f56c 9d3d 80ac e6bc
000003a0: 7efa a6ba 4c52 663d 4d98 a9bc 94f4 95bd
000003b0: 1008 8b3d f4ed 95bd 016a b2bd 81c5 2ebd
000003c0: 9919 403c a4f2 8c3d aa33 85bd f656 1abd
000003d0: edba ab3d 2730 8e3d ebab 193d 356b 92bd
000003e0: 1ed3 543d 0110 b8bb ea85 a6bd d1a0 973d
000003f0: c29d 77bd 1eeb 9b3c 48b3 5cbd 1ecb a73d

mu_head.bias f4 [8]
0.074787945 0.045688145 -0.058823653 -0.037469216 -0.038087938 0.02879244 0.053734485 0.0013974067
00000000: 6c2a 993d 7e23 3b3d 12f1 70bd 5279 19bd
00000010: 1902 1cbd 20de eb3c b118 5c3d 3029 b73a

vf.0.weight f4 [128, 9]
-0.3224823 -0.20579574 -0.15389833 -0.22438025 0.1771556 0.02041816 -0.23789613 -0.20221917
-0.23801675 -0.22442447 0.13973902 -0.16488889 -0.28137207 0.045997046 -0.01968021 -0.23511195
0.10590004 0.046492852 0.05706787 0.15678811 -0.1548271 -0.26496696 0.22773445 0.30274096
0.33380046 0.20428911 0.30373836 0.1332543 -0.26816338 0.12518561 -0.2378163 -0.28253075
0.14958073 -0.14450522 -0.229605 0.34221217 0.1323308 0.1596577 -0.081763834 0.15955089
0.014823762 -0.072843276 -0.035428155 0.28638956 -0.21709405 -0.09083407 0.26258147 0.0036319632
0.18688889 -0.13053168 0.24483204 -0.22310002 -0.16557826 -0.27815804 -0.23101886 0.23889713
0.2497643 0.22707869 0.19810748 0.25019327 0.23966527 0.23647141 -0.14089622 0.27026734
0.24207444 0.12616189 -0.031379554 0.31125972 -0.0067071277 -0.27788126 -0.09414422 -0.00064442947
0.19023117 0.116263375 0.091943525 0.3231281 0.24689253 -0.17241757 -0.081419915 0.007088409
-0.0029331842 -0.2541498 -0.1004223 0.24450077 -0.32316357 0.03928523 0.04755526 -0.11403392
-0.11338711 -0.17622787 -0.27249852 -0.2697823 0.20956735 0.03501226 0.032088965 -0.026770784
-0.29239592 -0.022768399 -0.26886424 0.20366369 -0.08027656 -0.061952434 0.16761509 -0.17703135
-0.18556581 -0.12869282 -0.027021376 -0.16940252 -0.27646428 0.19475926 0.22639604 -0.08072546
-0.2092213 0.25444993 -0.16069569 -0.2116553 -0.25212052 0.10789805 0.098312326 0.3416109
-0.095759265 -0.18469568 0.33744925 0.26042354 -0.26196247 -0.30401155 0.11756556 -0.18889312
0.047180794 -0.017905561 -0.12215278 0.26883784 0.103213556 0.09871013 -0.27901024 -0.0862138
0.18183193 0.21592443 0.076393925 -0.29838225 -0.16557609 0.3666543 0.3088439 0.19027552
-0.16716619 -0.15563892 0.14947005 -0.24126689 -0.011246943 0.14044082 0.16730568 0.20109816
0.029065445 0.27037948 -0.28868908 -0.14422287 -0.044106565 0.24314733 -0.22341353 0.29079866
-0.15421644 -0.052697252 0.28334603 0.35958856 0.13617873 -0.024418028 0.26799488 0.011327007
0.24367175 0.17851438 0.017157545 0.31476328 0.15686828 0.31243536 0.3245956 0.05961478
-0.16548055 -0.10064117 -0.04582297 -0.12220727 0.045968015 0.32944456 0.23050486 0.110016964
0.18282539 -0.19062227 0.15169625 0.30993828 0.100294635 0.012151352 0.2870734 -0.2354582
0.19925025 -0.0538296 -0.31937113 0.20998155 -0.057262633 -0.060112804 -0.16925539 -0.11653251
-0.0585096 -0.33549616 0.1737747 0.028987061 0.12277372 0.34166765 -0.085231125 -0.1729287
-0.1873503 -0.031570006 -0.018292176 0.15194213 0.030918777 0.13238038 -0.119057916 -0.25443465
0.04672053 0.098028466 -0.123223595 -0.07869365 -0.030021394 -0.29101557 0.34745306 0.2813161
-0.22248454 -0.2828368 0.29195726 0.27843308 -0.31394345 0.056218196 -0.21466126 -0.25701705
-0.23635943 0.004953583 0.33291388 0.172244 -0.2913565 0.21308722 0.32286027 0.25151297
0.33680612 -0.16694494 -0.16077584 0.19118705 -0.26851264 -0.09124525 0.26193845 0.110774145
-0.06916617 0.13926005 -0.14502622 -0.16036724 0.08582883 -0.1885651 0.21723187 0.13106133
00000000: 661c a5be 1ebc 52be 8697 1dbe f0c3 65be
00000010: 4768 353e fc43 a73c 0b9b 73be 8b12 4fbe
00000020: aaba 73be 87cf 65be bf17 0f3e a2d8 28be
00000030: 0010 90be 6667 3c3d 6438 a1bc 30c1 70be
00000040: 1fe2 d83d 4a6f 3e3d 00c0 693d 108d 203e
00000050: ff8a 1ebe c0a9 87be 3833 693e dd00 9b3e
00000060: e5e7 aa3e 2a31 513e 9883 9b3e d173 083e
00000070: b64c 89be a830 003e 1e86 73be dfa7 90be
00000080: b12b 193e 2df9 13be 931d 6bbe 6f36 af3e
00000090: ba81 073e 4f7d 233e cc73 a7bd 4f61 233e
000000a0: 5ddf 723c db2e 95bd 1d1d 11bd a7a1 923e
000000b0: e74d 5ebe 3707 babd 1471 863e 3b06 6e3b
000000c0: cd5f 3f3e 19aa 05be 40b5 7a3e 5574 64be
000000d0: 598d 29be bb6a 8ebe 3590 6cbe 73a1 743e
000000e0: 36c2 7f3e 5187 683e b0dc 4a3e 5519 803e
000000f0: d06a 753e 9025 723e 1947 10be 7b60 8a3e
00000100: 5de2 773e 9530 013e d987 00bd 6f5d 9f3e
00000110: 77c7 dbbb 7446 8ebe afce c0bd eeee 28ba
00000120: f6cb 423e 7e1b ee3d e34c bc3d 0c71 a53e
00000130: 65d1 7c3e 3b8e 30be 7cbf a6bd e245 e83b
00000140: aa3a 40bb ec1f 82be 35aa cdbd 695e 7a3e
00000150: b275 a5be 8de9 203d 4ec9 423d 9e8a e9bd
00000160: 8037 e8bd 1475 34be ed84 8bbe e820 8abe
00000170: d398 563e 0469 0f3d b86f 033d 674e dbbc
00000180: ebb4 95be cb84 babc 93a8 89be 378d 503e
00000190: 0968 a4bd d6c1 7dbd 4aa3 2b3e b547 35be
000001a0: f704 3ebe 0dc8 03be ef5b ddbc db77 2dbe
000001b0: ba8c 8dbe f96e 473e 5dd4 673e 6453 a5bd
000001c0: 1c3e 56be 4347 823e 698d 24be 2bbc 58be
000001d0: f115 81be a7f9 dc3d f957 c93d a0e7 ae3e
000001e0: 6f1d c4bd dd20 3dbe 26c6 ac3e 3c56 853e
000001f0: f21f 86be 67a7 9bbe 36c6 f03d 336d 41be
00000200: a640 413d afae 92bc 3d2b fabd 1da5 893e
00000210: a161 d33d 8928 ca3d 6eda 8ebe dc90 b0bd
00000220: 2632 3a3e 4b1b 5d3e 6b74 9c3d 8fc5 98be
00000230: c78c 29be 1dba bb3e ca20 9e3e 96d7 423e
00000240: 9d2d 2bbe cf5f 1fbe ad0e 193e ab0e 77be
00000250: 1945 38bc b8cf 0f3e 2e52 2b3e adec 4d3e
00000260: a81a ee3c 2e6f 8a3e 0ecf 93be 29af 13be
00000270: 16a9 34bd 9dfb 783e 84c6 64be 90e3 943e
00000280: eaea 1dbe 13d9 57bd bb12 913e fe1b b83e
00000290: 7072 0b3e 5108 c8bc a036 893e e994 393c
000002a0: 1685 793e 79cc 363e fb8d 8c3c a728 a13e
000002b0: 14a2 203e 87f7 9f3e 6531 a63e a12e 743d
000002c0: bc73 29be f51c cebd deb0 3bbd ce47 fabd
000002d0: f548 3c3d f5ac a83e 7709 6c3e 9350 e13d
000002e0: 9436 3b3e 7c32 43be 4356 1b3e 3bb0 9e3e
000002f0: 4667 cd3d 7716 473c 49fb 923e f41b 71be
00000300: 4208 4c3e 6d7c 5cbd 9d84 a3be 6705 573e
00000310: 398c 6abd d838 76bd 4951 2dbe 99a8 eebd
00000320: c3a7 6fbd 27c6 abbe fff1 313e 4676 ed3c
00000330: ca70 fb3d 10ef ae3e a88d aebd 3914 31be
00000340: c2d8 3fbe 8d4f 01bd 79d9 95bc b896 1b3e
00000350: 6049 fd3c b98e 073e a3d4 f3bd 4245 82be
00000360: 075e 3f3d 26c3 c83d a75c fcbd 232a a1bd
00000370: 6def f5bc feff 94be 5ee5 b13e aa08 903e
00000380: fdd2 63be fccf 90be 6c7b 953e c88e 8e3e
00000390: 32bd a0be 0d45 663d 29d0 5bbe bd97 83be
000003a0: 3508 72be aa51 a23b b073 aa3e bb60 303e
000003b0: ae2c 95be 8933 5a3e f14d a53e 4fc6 803e
000003c0: da71 ac3e 9df3 2abe 6ca2 24be 8ac6 433e
000003d0: 7d7a 89be cade babd cc1c 863e 8edd e23d
000003e0: fea6 8dbd 309a 0e3e c181 14be 4f37 24be
000003f0: 07c7 af3d 3617 41be 0872 5e3e f134 063e

vf.0.bias f4 [128]
0.04221596 0.27652514 0.32628697 -0.04011735 -0.06208988 -0.05385211 -0.07635953 0.19808072
0.17230165 -0.22236775 0.10474984 0.4366683 0.3579154 0.27786905 0.08167 0.25967515
0.28475237 -0.07383792 0.0065427944 0.054420557 0.25805333 -0.27105471 0.09124445 0.30185387
0.20030339 -0.24979134 -0.11228032 -0.28434622 -0.28022543 -0.26853368 0.06842243 -0.08680439
-0.3228101 0.40501198 0.14571396 -0.15042704 -0.18663248 0.044344377 0.33239207 -0.053620894
-0.12339103 0.3213208 0.029725544 -0.039496418 0.32081345 -0.23843193 0.18756896 -0.30193633
0.065206245 -0.059407167 -0.21146613 -0.13299498 0.3289395 0.37361524 0.15266664 0.21500598
0.2753929 0.022217575 0.08435229 0.3225371 0.2921066 -0.0997792 0.17835824 0.21982323
-0.05501519 0.32789695 -0.09418961 0.24043566 0.28452194 -0.061051432 -0.263252 -0.27649936
0.03843036 0.29061377 0.41197777 0.30834636 0.12391666 0.067155115 0.11210066 -0.07805824
0.008636168 0.29499358 -0.25571463 -0.22603013 0.005832128 -0.16654234 -0.22328216 0.1344249
0.24917606 0.2913862 -0.18923715 0.19139592 0.28755018 0.1741802 -0.176105 -0.067359805
0.28012577 0.15754673 0.15135568 -0.25465065 -0.2750272 0.35429937 0.12473206 0.39103392
-0.33055472 -0.11534213 -0.30850813 0.4273609 0.13591143 0.23181133 0.35505027 0.1041294
0.12544672 -0.25371668 0.1400208 0.33739662 -0.020200234 -0.24449584 -0.184505 0.1133158
0.34056145 0.13707188 -0.1506789 0.12456813 -0.09955244 0.116418235 0.31249 -0.23290198
00000000: a4ea 2c3d b494 8d3e 160f a73e 1752 24bd
00000010: f551 7ebd 0894 5cbd 6362 9cbd acd5 4a3e
00000020: d86f 303e 5fb4 63be 1687 d63d fd92 df3e
00000030: b040 b73e da44 8e3e 9a42 a73d 24f4 843e
00000040: 10cb 913e 5638 97bd f064 d63b 17e8 5e3d
00000050: 911f 843e afc7 8abe 5fde ba3d 978c 9a3e
00000060: 551c 4d3e 4dc9 7fbe 39f3 e5bd d495 91be
00000070: b579 8fbe 3f7d 89be 0f21 8c3d 80c6 b1bd
00000080: 5e47 a5be bb5d cf3e 0a36 153e 8c09 1abe
00000090: 961c 3fbe 73a2 353d 4b2f aa3e 95a1 5bbd
000000a0: 70b4 fcbd 2984 a43e fc82 f33c ffc6 21bd
000000b0: a941 a43e 8027 74be 1412 403e 6697 9abe
000000c0: da8a 853d ee54 73bd 948a 58be d62f 08be
000000d0: c26a a83e 7f4a bf3e a554 1c3e 872a 5c3e
000000e0: 4c00 8d3e a201 b63c e5c0 ac3d 9523 a53e
000000f0: ff8e 953e 0a59 ccbd 8ba3 363e 5719 613e
00000100: 9c57 61bd 1ce2 a73e 7be6 c0bd c434 763e
00000110: dcac 913e 1111 7abd f7c8 86be 5391 8dbe
00000120: 2769 1d3d 54cb 943e c0ee d23e 93df 9d3e
00000130: 05c8 fd3d 9f88 893d 0895 e53d 00dd 9fbd
00000140: b77e 0d3c 6609 973e 07ed 82be 7174 67be
00000150: 701b bf3b 138a 2abe 14a4 64be aea6 093e
00000160: 0228 7f3e 9230 953e 62c7 41be 4bfd 433e
00000170: c739 933e 4b5c 323e de54 34be f0f3 89bd
00000180: a56c 8f3e ee53 213e fcfc 1a3e 9261 82be
00000190: 5dd0 8cbe ba66 b53e 8673 ff3d 9935 c83e
000001a0: 783e a9be 7f38 ecbd c7f4 9dbe 0ccf da3e
000001b0: 5e2c 0b3e f35f 6d3e 26c9 b53e cb41 d53d
000001c0: 1b75 003e 27e7 81be 9d61 0f3e 40bf ac3e
000001d0: f67a a5bc 1e5d 7abe e1ee 3cbe 1d12 e83d
000001e0: 125e ae3e 925c 0c3e 924b 1abe 931d ff3d
000001f0: 26e2 cbbd af6c ee3d b0fe 9f3e db7d 6ebe

vf.2.weight f4 [128, 128]
-0.02396769 0.032813605 0.109843045 -0.049970295 0.00793628 -0.046221852 -0.050343856 0.0011499352
0.06151205 -0.07182845 0.020606428 0.06410486 0.13153769 -0.012513571 -0.03653613 0.04200652
-0.0145819625 0.0034086455 0.049675178 -0.03806146 0.0060756328 0.07882161 0.11646067 0.1628455
0.14293921 0.09955458 -0.009271609 -0.025573073 -0.005988113 0.03923703 0.079955906 -0.025706531
0.07348321 0.034736644 0.11146327 0.006952326 0.036017198 0.05146913 0.09831306 -0.01137953
0.037464723 0.006199935 0.078212544 -0.020795345 0.10777201 -0.06112647 -0.01193756 0.06229392
0.10505814 -0.053799964 -0.045608193 -0.03162297 0.067551464 0.018320661 0.043647274 0.09092107
0.106541686 0.007236641 0.054260984 0.0058360435 0.14677912 -0.05460321 -0.0054089143 0.037476376
0.0061313976 0.094175115 0.0830139 0.034896433 0.019022062 -0.045672454 0.033191666 -0.058691673
0.098095216 0.07685333 -0.00015186539 0.040705115 0.067279816 0.12007229 0.02055291 -0.04152717
-0.013138365 0.06557904 0.067801796 3.6630136e-05 0.09866809 -0.029582052 -0.0728818 0.018428221
0.12684011 0.13267574 0.032686654 0.028214956 0.11832831 0.092106365 -0.06800232 -0.012479431
0.13940157 0.033844497 -0.029007196 -0.06584544 -0.022103524 0.03537873 0.020327302 0.010730745
0.08406834 0.034895808 0.08600744 0.033460747 0.11045412 0.08899276 -0.012591206 0.09580281
0.11406136 -0.05118887 0.10146743 0.03406484 -0.0052292347 0.0008719903 -0.047016557 0.1114964
0.05082274 -0.018388234 0.11809497 -0.052741025 -0.036780383 0.057197433 0.135615 -0.020234331
-0.049811367 -0.05923105 0.038554255 -0.011444554 -0.08396532 -0.049183335 -0.08916634 0.016870862
-0.062615536 0.006328107 0.0534376 0.042577617 -0.0986554 0.026322376 0.061922763 0.05057284
0.01251934 -0.016719734 -0.07059595 -0.062217437 -0.068598084 -0.036877926 0.030137269 0.068569474
0.030917272 -0.028741697 -0.009957282 -0.042209733 -0.041244827 -0.027382726 -0.010451173 -0.011230737
0.040670443 0.012165037 0.0476224 -0.0066244653 -0.07076385 -0.012634517 0.018242927 -0.096359886
0.0039803167 0.035544507 -0.076380886 0.023704031 -0.073273756 0.01807689 0.012278937 0.028925829
-0.07453791 0.02558248 -0.07087511 -0.05869164 0.017893504 -0.080356576 0.03550124 0.025348196
0.071619384 -0.066544674 0.005042176 0.051960364 0.017292123 -0.035139617 0.058566105 0.037570827
0.009388147 -0.046953183 -0.0707639 0.059932668 -0.0166905 -0.018834677 -0.00032623767 -0.046502598
0.02660332 0.0005450881 -0.0005576245 -0.03218913 0.011052417 0.057187725 0.029691486 0.08135234
0.009934235 0.0277079 -0.033875234 -0.0665884 0.02708753 -0.0069321287 -0.012475499 0.0016058136
0.018306885 -0.02274996 0.023472933 0.0669269 -0.031136286 -0.04373769 -0.058471825 0.037786987
-0.040562674 0.0077050733 -0.07701639 0.027353473 -0.07511764 -0.0042819297 -0.06971513 -0.09102272
-0.00071730476 0.019678477 -0.061207116 -0.06629612 0.0425359 -0.03279788 0.04031656 -0.0618057
-0.03990723 0.040424522 -0.096212246 0.0062095015 -0.06967232 -0.05650587 0.0120992595 0.03141717
-0.06430438 -0.008305315 -0.029597018 -0.0812893 -0.028450428 -0.009877612 -0.060739603 -0.06112757
00000000: e457 c4bc 8f67 063d 64f5 e03d a7ad 4cbd
00000010: 2c07 023c 2053 3dbd 5c35 4ebd 6cb9 963a
00000020: 0ff4 7b3d cb1a 93bd d0ce a83c 6949 833d
00000030: d1b1 063e b905 4dbc e9a6 15bd 070f 2c3d
00000040: 2fe9 6ebc 9563 5f3b 3378 4b3d 55e6 1bbd
00000050: 1a16 c73b 396d a13d ef82 ee3d f9c0 263e
00000060: a85e 123e 46e3 cb3d f2e7 17bc 9f7e d1bc
00000070: ef37 c4bb 02b7 203d ecbf a33d 8196 d2bc
00000080: 5d7e 963d 0348 0e3d db46 e43d 56d0 e33b
00000090: c586 133d 4bd1 523d 5c58 c93d 3571 3abc
000000a0: 9c74 193d d328 cb3b e62d a03d 005b aabc
000000b0: 92b7 dc3d c05f 7abd c195 43bc e927 7f3d
000000c0: b928 d73d 5a5d 5cbd a8cf 3abd 1687 01bd
000000d0: 6c58 8a3d 3615 963c 7cc7 323d d334 ba3d
000000e0: 8732 da3d 5821 ed3b c440 5e3d 483c bf3b
000000f0: 444d 163e 9ea7 5fbd 433d b1bb d480 193d
00000100: e4e9 c83b e2de c03d 3103 aa3d 90ef 0e3d
00000110: 28d4 9b3c 0a13 3bbd fcf3 073d ae66 70bd
00000120: 25e6 c83d 4765 9d3d 0e3e 1fb9 68ba 263d
00000130: 00ca 893d 76e8 f53d 945e a83c 6518 2abd
00000140: 4c42 57bc 4e4e 863d abdb 8a3d 4fa3 1938
00000150: 7f12 ca3d 0f56 f2bc 0e43 95bd c8f6 963c
00000160: 60e2 013e 26dc 073e 71e2 053d 0d23 e73c
00000170: 1d56 f23d 43a2 bc3d cd44 8bbd 8776 4cbc
00000180: 49bf 0e3e 87a0 0a3d 80a0 edbc f9d9 86bd
00000190: 7312 b5bc 4ae9 103d 7185 a63c 02d0 2f3c
000001a0: 062c ac3d e8ee 0e3d ab24 b03d 230e 093d
000001b0: c535 e23d d641 b63d 584b 4ebc 4334 c43d
000001c0: 0199 e93d 6cab 51bd 28ce cf3d 9387 0b3d
000001d0: 005a abbb 4796 643a 6f94 40bd 3958 e43d
000001e0: 812b 503d eca2 96bc c7db f13d f906 58bd
000001f0: 07a7 16bd db47 6a3d a9de 0a3e 78c2 a5bc
00000200: 0107 4cbd 429c 72bd 11eb 1d3d f081 3bbc
00000210: 02f6 abbd 7774 49bd d89c b6bd c334 8a3c
00000220: 933c 80bd 025c cf3b 63e1 5a3d de65 2e3d
00000230: d80b cabd 06a2 d73c b9a2 7d3d 7725 4f3d
00000240: eb1d 4d3c d3f7 88bc 9c94 90bd b6d7 7ebd
00000250: 277d 8cbd 4f0d 17bd 6fe2 f63c 276e 8c3d
00000260: 3846 fd3c b573 ebbc de23 23bc 1de4 2cbd
00000270: 56f0 28bd bd51 e0bc 663b 2bbc 2001 38bc
00000280: 0d96 263d dd4f 473c b50f 433d 0b12 d9bb
00000290: a3ec 90bd 0101 4fbc 3172 953c 5558 c5bd
000002a0: 516d 823b 1e97 113d 956d 9cbd f52e c23c
000002b0: 8d10 96bd fc15 943c 982d 493c dcf5 ec3c
000002c0: 55a7 98bd 5992 d13c f826 91bd a566 70bd
000002d0: 6695 923c fd91 a4bd c069 113d 05a7 cf3c
000002e0: 2fad 923d 9348 88bd d738 a53b 64d4 543d
000002f0: 36a8 8d3c 8fee 0fbd 03e3 6f3d dee3 193d
00000300: bed0 193c fb51 40bd aaec 90bd f57b 753d
00000310: 84ba 88bc 2e4b 9abc e10a abb9 8279 3ebd
00000320: 35ef d93c 3ee4 0e3a 8c2d 12ba c0d8 03bd
00000330: 3215 353c ad3d 6a3d 8f3b f33c 0e9c a63d
00000340: 34c3 223c aefb e23c c2c0 0abd 805f 88bd
00000350: abe6 dd3c e926 e3bb 0966 4cbc 2a7a d23a
00000360: 52f8 953c 205e babc 4f4a c03c f810 893d
00000370: 8611 ffbc 4b26 33bd 2780 6fbd 87c6 1a3d
00000380: 0c25 26bd d77a fc3b c5ba 9dbd 6414 e03c
00000390: 47d7 99bd 6e4f 8cbb cec6 8ebd 1f6a babd
000003a0: 8209 3cba c234 a13c 50b4 7abd 43c6 87bd
000003b0: 203a 2e3d 1257 06bd fa22 253d f927 7dbd
000003c0: c375 23bd 2f94 253d ed0a c5bd 1379 cb3b
000003d0: 5cb0 8ebd b372 67bd f93b 463c 4aaf 003d
000003e0: 04b2 83bd 0413 08bc 7275 f2bc 017b a6bd
000003f0: df10 e9bc b5d5 21bc 17ca 78bd e760 7abd

vf.2.bias f4 [128]
0.057984274 0.03412316 0.17121361 0.03606378 -0.060326513 0.10580208 0.07268124 -0.012787668
0.109371915 0.07140828 0.027852565 0.07045262 -0.07951406 0.12940764 0.012459007 -0.09254713
0.05072792 -0.092591256 0.09579183 0.06838526 0.11312483 -0.07801215 -0.05443168 0.03588552
-0.079261065 0.1267984 -0.013834956 0.02006136 0.017682225 0.018632682 -0.052777104 -0.04063871
0.089514546 0.029008564 0.027642049 0.0489941 -0.009381817 -0.09032624 0.065408394 0.123492904
0.061982527 -0.06380773 0.10163158 0.016187556 -0.007127783 -0.06432493 0.018373229 0.02904893
0.06484434 0.030981759 0.00703354 0.14133112 0.040111117 -0.000302019 -0.0055337423 -0.07036337
0.012452933 0.05316738 -0.052045956 0.017136136 -0.030537104 0.0009901135 0.06047194 0.02215544
0.023445094 0.015980504 0.10481498 0.090690725 0.06414516 0.06359093 0.043622877 -0.029125215
0.042901754 0.019135421 0.11092958 0.13782969 -0.018957933 0.07313395 0.030024268 0.056961775
0.052700825 0.06586656 -0.040407334 0.06423879 0.18119772 -0.064888254 0.07019518 0.030359844
0.014518522 0.0683062 0.017125241 0.043577068 0.065503515 0.09660325 0.05312827 0.072090276
-0.05715301 0.14269246 -0.017430026 0.099851936 0.09177825 -0.041090794 0.12695551 0.06531243
-0.06546639 0.012152445 -0.07330675 0.08574321 0.1299463 0.03410214 0.12897462 0.030739002
0.14398116 0.036776777 -0.09419828 -0.08333112 0.026319703 0.034704827 0.15309581 -0.0810099
0.088097245 0.05125879 0.004754989 0.053969976 -0.0148246735 -0.019414576 0.03571314 0.120857045
00000000: eb80 6d3d bac4 0b3d 9f52 2f3e 9db7 133d
00000010: ef18 77bd c3ae d83d e7d9 943d 5e83 51bc
00000020: 62fe df3d 813e 923d 102b e43c 7749 903d
00000030: 44d8 a2bd 7083 043e dd20 4c3c 5a89 bdbd
00000040: 14c8 4f3d 7ca0 bdbd 822e c43d 920d 8c3d
00000050: fead e73d d6c4 9fbd c1f3 5ebd b2fc 123d
00000060: a053 a2bd 71d7 013e 03ac 62bc b957 a43c
00000070: 50da 903c 91a3 983c ce2c 58bd c774 26bd
00000080: 6753 b73d 5ea3 ed3c 9471 e23c 0aae 483d
00000090: 31b6 19bc f7fc b8bd d6f4 853d d9e9 fc3d
000000a0: 64e1 7d3d a1ad 82bd 3824 d03d c49b 843c
000000b0: 2d90 e9bb cabc 83bd 7483 963c 06f8 ed3c
000000c0: 1ccd 843d 75cd fd3c 9c79 e63b 1bb9 103e
000000d0: 8e4b 243d 4e58 9eb9 6554 b5bb ac1a 90bd
000000e0: 6307 4c3c 0ac6 593d 242e 55bd 1561 8c3c
000000f0: f328 fabc b2c6 813a 6db1 773d 537f b53c
00000100: ed0f c03c 8ce9 823c 3ca9 d63d 0fbc b93d
00000110: 8a5e 833d f63b 823d e7ad 323d 0198 eebc
00000120: c0b9 2f3d e3c1 9c3c 0c2f e33d 3a23 0d3e
00000130: ab4d 9bbc 41c7 953d 74f5 f53c c050 693d
00000140: d2dc 573d 0ce5 863d 2982 25bd a08f 833d
00000150: e58b 393e 22e4 84bd 7ec2 8f3d 35b5 f83c
00000160: 18df 6d3c 1fe4 8b3d 3c4a 8c3c de7d 323d
00000170: b526 863d edd7 c53d 079d 593d 11a4 933d
00000180: 4619 6abd f91d 123e 6ac9 8ebc 2c7f cc3d
00000190: 3cf6 bb3d d24e 28bd a000 023e 86c2 853d
000001a0: 3e13 86bd 0c1b 473c d921 96bd 239a af3d
000001b0: a510 053e b0ae 0b3d ec11 043e 5cd0 fb3c
000001c0: cc6f 133e 3fa3 163d 07eb c0bd 82a9 aabd
000001d0: 6b9c d73c a626 0e3d 26c5 1c3e 85e8 a5bd
000001e0: 546c b43d bdf4 513d bdcf 9b3b 9f0f 5d3d
000001f0: 30e3 72bc 510b 9fbc f147 123d e683 f73d

vf.4.weight f4 [1, 128]
0.09287062 -0.03548792 0.08545121 -0.0064225267 -0.07413963 0.094348945 0.13109043 -0.057903726
0.11612705 0.14353366 0.08009481 0.098657325 -0.0372989 0.089006536 0.12561938 -0.05643525
-0.03251136 0.00030277084 0.097230434 -0.03646905 0.12832983 0.021297244 -0.06462626 -0.047535658
0.03799392 0.10129474 -0.03580169 0.07124215 0.07732125 0.13731258 -0.042988677 -0.04897536
0.099782504 0.095608674 0.077646315 -0.04548501 -0.05912679 -0.07133215 0.14791657 0.11520032
0.08805706 -0.020167626 0.10588298 -0.0011925667 0.0071286624 -0.01607704 -0.038531538 0.073773116
-0.050208215 0.06819654 0.018196553 0.061177637 -0.0036109895 0.1319181 0.095081754 -0.027385006
0.08164432 -0.003481996 -0.03305033 0.14643939 -0.01990606 -0.0018499186 -0.030751515 -0.045241863
0.119209155 0.105198726 0.12075462 0.090530574 0.002437777 0.14841233 0.053255856 -0.032693096
-0.013264725 0.07507423 0.10685983 0.108915344 -0.030048424 0.1336281 -0.020998375 -0.05467761
0.10249743 -0.019907389 -0.04428125 0.08208797 0.059936363 0.017841004 0.0677917 -0.045665443
0.08992129 -0.002307174 -0.04048058 0.11591951 -0.04342427 0.12595685 0.09758722 -0.009582305
-0.07888584 0.06837463 0.14181799 0.09791715 0.117105074 -0.055770613 0.106938004 -0.025953267
-0.061378907 0.081990354 -0.018809646 0.11915044 0.13741575 0.087049715 0.12939341 0.10656548
0.08833534 -0.042560663 -0.037641253 -0.05950758 -0.066275366 0.13418473 0.1316516 -0.03037001
0.055130396 -0.030193012 -0.08006818 -0.064774506 0.10616658 -0.06431616 0.108130544 0.10752616
00000000: f432 be3d c85b 11bd 0b01 af3d 0f74 d2bb
00000010: 85d6 97bd 053a c13d 923c 063e 752c 6dbd
00000020: 05d4 ed3d 7dfa 123e bf08 a43d da0c ca3d
00000030: bbc6 18bd 0f49 b63d 5ea2 003e a628 67bd
00000040: a22a 05bd 37bd 9e39 c020 c73d 9260 15bd
00000050: e568 033e 8f77 ae3c c65a 84bd c0b4 42bd
00000060: 839f 1b3d 9e73 cf3d cba4 12bd 68e7 913d
00000070: 9b5a 9e3d ab9b 0c3e e514 30bd 639a 48bd
00000080: c55a cc3d 7bce c33d 0805 9f3d 7d4e 3abd
00000090: ef2e 72bd 9716 92bd 7177 173e 25ee eb3d
000000a0: 4357 b43d 9436 a5bc 2dd9 d83d e64f 9cba
000000b0: 8e97 e93b ffb3 83bc 3fd3 1dbd 5c16 973d
000000c0: 21a7 4dbd a1aa 8b3d f010 953c 6795 7a3d
000000d0: 5aa6 6cbb 8a15 073e 39ba c23d 8556 e0bc
000000e0: 2335 a73d 3332 64bb c85f 07bd 35f4 153e
000000f0: 0912 a3bc f878 f2ba 9aea fbbc 884f 39bd
00000100: ee23 f43d 6e72 d73d 334e f73d 1868 b93d
00000110: 1cc3 1f3b 67f9 173e d022 5a3d 32e9 05bd
00000120: 4a54 59bc 85c0 993d 54d9 da3d 020f df3d
00000130: 1d28 f6bc ced5 083e c904 acbc a1f5 5fbd
00000140: 2cea d13d d214 a3bc 4260 35bd bd1d a83d
00000150: d57f 753d 4c27 923c 60d6 8a3d b00b 3bbd
00000160: a728 b83d f533 17bb f7ce 25bd 3567 ed3d
00000170: a6dd 31bd d5fa 003e cfdb c73d 1aff 1cbc
00000180: e68e a1bd ff07 8c3d bc38 113e c988 c83d
00000190: c9d4 ef3d ba6f 64bd 5002 db3d f29b d4bc
000001a0: 7368 7bbd 8fea a73d b016 9abc 2505 f43d
000001b0: b7b6 0c3e 1f47 b23d b57f 043e 013f da3d
000001c0: 29e9 b43d 1754 2ebd b72d 1abd 38be 73bd
000001d0: 61bb 87bd b967 093e adcf 063e 87ca f8bc
000001e0: 69d0 613d 5657 f7bc c9fa a3bd 7fa8 84bd
000001f0: dd6d d93d 31b8 83bd 8c73 dd3d ad36 dc3d
